weights/trained_agent_model_BTC-USD.pth (torch, 28304 bytes, 6 tensors)

layers.0.weight f4 [64, 30]
-0.051465146 -0.15891033 -0.10143731 -0.13032223 0.045367375 -0.04514183 0.05104076 0.14724696
-0.06961144 -0.07166997 0.12462982 0.001155327 0.14295541 -0.047779474 -0.17075633 -0.0814774
-0.051880717 -0.17165215 -0.05937623 -0.12422809 0.08546839 -0.17386967 0.13199356 -0.17306526
-0.0039676754 0.035947856 -0.067851186 -0.089713104 -0.056508012 -0.13087137 0.10606681 0.07628217
-0.007913316 -0.021918597 0.011766087 -0.16186255 0.10524344 -0.13258849 0.123426184 -0.10325887
0.07585162 -0.14754789 -0.026459154 0.1377244 -0.16869454 0.030989664 -0.17264238 0.07761524
0.111881785 0.04030664 -0.024207741 0.100701414 0.15600498 -0.16940664 -0.18576029 -0.116089426
0.10344674 -0.15835926 -0.12673688 0.17591277 0.13903311 -0.17906342 -0.17255782 -0.0662685
-0.026920687 -0.17787452 -0.1917887 0.02946818 0.16045447 0.027247105 -0.0077316384 0.0644547
-0.14403215 0.16453572 0.15111835 -0.042854305 -0.016501587 0.14787446 0.0026194972 -0.073428
0.17254391 0.15940604 0.1235786 0.07056901 -0.16627552 0.010356851 0.15078418 0.12837864
0.15130137 0.029090133 0.112117976 -0.13612528 0.15156911 -0.016726462 -0.014315103 0.10183107
-0.09298277 -0.12781376 0.01976479 0.16098149 -0.13388343 -0.1348398 -0.1610084 -0.12143707
-0.12884864 0.056449097 0.011575379 0.023706006 -0.18559222 -0.15095487 -0.090330385 -0.099575415
0.02537467 -0.15569064 -0.10865548 -0.09788133 0.034101814 -0.0070195706 0.14518297 0.25919878
0.31922626 0.29289147 0.237649 0.07810374 -0.040692322 0.13033426 0.006865534 0.048353452
0.0915632 0.13613693 -0.07008161 -0.15685281 0.046023443 0.04437278 0.12458973 -0.04797939
0.00981443 0.14344183 -0.05095651 -0.056121826 0.122340575 0.02874449 0.020572796 -0.11834147
-0.1257015 -0.026528366 0.10459623 0.092826635 -0.1935694 -0.23589532 -0.07842623 -0.13412462
0.10185419 -0.1646411 -0.06985396 -0.16715401 -0.07378956 -0.1483123 -0.039974015 -0.020753924
-0.0889873 -0.18034218 0.14126043 0.12347728 0.036993925 -0.11502291 -0.17940009 0.08252624
-0.17862722 -0.004635542 0.07001319 -0.12718263 -0.11002279 0.17633544 0.030643687 -0.029304666
-0.13937138 0.016190683 -0.18159287 -0.0722945 0.006227368 -0.22665547 -0.057632994 -0.014886747
0.05770749 -0.18430541 0.04234607 -0.18166983 -0.23042656 0.045823555 0.055731684 -0.09915449
0.01828572 -0.19808388 -0.1281176 0.0019065023 -0.13718607 0.13766764 0.010034309 0.055289008
0.14010774 0.12173876 0.15547954 -0.08502062 -0.008812151 -0.12696773 -0.13660307 -0.18736546
0.13452742 0.09024324 0.12397035 0.074284025 0.00680847 -0.04588609 -0.009209098 0.140741
0.093603015 -0.0032552567 0.015374884 0.1276803 -0.13869695 -0.04200321 -0.13594581 -0.06436205
0.078662395 -0.14616944 0.07102478 -0.11347728 -0.11507334 0.04400657 0.1436443 -0.10539748
-0.018491652 -0.10429846 -0.1009231 0.10563554 0.09518055 -0.04537817 -0.1476969 -0.13378559
-0.12549664 -0.09012436 0.122520946 0.08678895 -0.11943519 -0.1315634 -0.07422422 0.00037282656
0.17054129 0.06418291 -0.12504385 -0.1257847 -0.08181586 -0.09926963 -0.093407325 -0.036618248
00000000: 1ecd 52bd 64b9 22be 5dbe cfbd 3173 05be
00000010: 24d3 393d a4e6 38bd 1e10 513d e8c7 163e
00000020: 7190 8ebd b5c7 92bd eb3d ff3d 576e 973a
00000030: e762 123e 69b4 43bd bfda 2ebe a0dd a6bd
00000040: e080 54bd 95c5 2fbe 7d34 73bd 4c6b febd
00000050: 0d0a af3d e40a 32be 5229 073e 0538 31be
00000060: 4603 82bb 0f3e 133d 90f5 8abd 81bb b7bd
00000070: f274 67bd 2503 06be 8e39 d93d d439 9c3d
00000080: daa6 01bc a18e b3bc 8cc6 403c 4cbf 25be
00000090: df89 d73d 47c5 07be dec6 fc3d 6379 d3bd
000000a0: 1858 9b3d cb16 17be dec0 d8bc a007 0d3e
000000b0: 43be 2cbe 09de fd3c 2ac9 30be bdf4 9e3d
000000c0: 4722 e53d 9318 253d 504f c6bc 8b3c ce3d
000000d0: c5bf 1f3e ef78 2dbe f237 3ebe 4bc0 edbd
000000e0: e2db d33d ee28 22be 50c7 01be 7a22 343e
000000f0: b25e 0e3e 675c 37be ffb2 30be c8b7 87bd
00000100: c688 dcbc bd24 36be 4264 44be 4167 f13c
00000110: 2d4e 243e 5235 df3c af59 fdbb d300 843d
00000120: 2a7d 13be 0d7c 283e c5be 1a3e ff87 2fbd
00000130: 562e 87bc 676c 173e dfab 2b3b 6b61 96bd
00000140: 5aaf 303e 563b 233e c716 fd3d 7c86 903d
00000150: 2144 2abe c8af 293c 2b67 1a3e b175 033e
00000160: bfee 1a3e 6e4e ee3c 1c9e e53d 6d64 0bbe
00000170: ef34 1b3e ef05 89bc e589 6abc cf8c d03d
00000180: c06d bebd 9ce1 02be c5e9 a13c 55d8 243e
00000190: bd18 09be 7213 0abe 63df 24be 00b4 f8bd
000001a0: e6f0 03be 2b37 673d a9a6 3d3c 1933 c23c
000001b0: e30b 3ebe ea93 1abe 23ff b8bd 32ee cbbd
000001c0: 8ade cf3c 5e6d 1fbe c486 debd 0276 c8bd
000001d0: 58ae 0b3d 6d04 e6bb d8aa 143e b4b5 843e
000001e0: a071 a33e dff5 953e 425a 733e dbf4 9f3d
000001f0: feac 26bd 5876 053e 46f8 e03b 450e 463d
00000200: 7d85 bb3d 7b67 0b3e f286 8fbd 069e 20be
00000210: 1483 3c3d 3bc0 353d e628 ff3d 0986 44bd
00000220: b4cc 203c 6ae2 123e c6b7 50bd 00e0 65bd
00000230: b28d fa3d 9179 eb3c 4888 a83c 035d f2bd
00000240: e5b7 00be 0452 d9bc 8c36 d63d e41b be3d
00000250: 0f37 46be 8b8e 71be ee9d a0bd f757 09be
00000260: ee98 d03d ad97 28be 980f 8fbd 6c2a 2bbe
00000270: fb1e 97bd 2edf 17be cbbb 23bd 2204 aabc
00000280: f93e b6bd 9fab 38be 93a6 103e a8e1 fc3d
00000290: f186 173d 2291 ebbd a8b4 37be 8403 a93d
000002a0: 0eea 36be bfe5 97bb 1363 8f3d 2a3c 02be
000002b0: a153 e1bd 4791 343e 7808 fb3c 5710 f0bc
000002c0: 5fb7 0ebe 53a2 843c 7bf3 39be 240f 94bd
000002d0: f30e cc3b 5f18 68be 9310 6cbd 8be7 73bc
000002e0: b05e 6c3d 8fba 3cbe 1373 2d3d a807 3abe
000002f0: f1f4 6bbe 7bb1 3b3d e846 643d 8211 cbbd
00000300: efcb 953c 80d6 4abe 4331 03be 9ae3 f93a
00000310: 817a 0cbe bff8 0c3e f166 243c ba76 623d
00000320: 6778 0f3e 2c52 f93d 0736 1f3e 4a1f aebd
00000330: d760 10bc d403 02be ade1 0bbe bbdc 3fbe
00000340: 8ec1 093e 73d1 b83d 2be4 fd3d 3922 983d
00000350: 9619 df3b 0df3 3bbd c2e1 16bc 691e 103e
00000360: f0b2 bf3d 2556 55bb f0e6 7b3c a0be 023e
00000370: 9306 0ebe 8f0b 2cbd 6135 0bbe 40d0 83bd
00000380: c019 a13d 71ad 15be 7175 913d c766 e8bd
00000390: 92ab ebbd 3c40 343d 7e17 133e a2da d7bd
000003a0: ce7b 97bc 6e9a d5bd c5b0 cebd 7257 d83d
000003b0: 05ee c23d 76de 39bd db3d 17be 17ff 08be
000003c0: 3182 00be 1f93 b8bd 43ec fa3d 68be b13d
000003d0: 709a f4bd 8eb8 06be de02 98bd ef77 c339
000003e0: 60a2 2e3e 5472 833d 7f0b 00be b4cd 00be
000003f0: 138f a7bd e04d cbbd 574c bfbd 04fd 15bd

layers.0.bias f4 [64]
0.025611857 0.2050714 0.036678486 -0.013123583 -0.5016367 0.15261349 0.022074817 -0.0015397975
-0.13765086 0.29273596 -0.3548947 -0.35866633 -0.51178837 -0.07515953 0.07583188 0.06187379
-0.10607224 -0.058067016 0.024765851 0.0814984 -0.07397206 0.149831 0.17767633 0.13282971
0.087714404 -0.042322595 -0.4597656 -0.02276413 0.26067212 -0.18670067 -0.11369006 -0.03338025
0.07078696 -0.087943524 0.06534496 0.032582898 -0.15657403 -0.13166817 0.025403012 -0.015043425
-0.24958038 -0.1439552 -0.144191 0.09831334 0.10902936 -0.09073077 0.00095696497 -0.29698914
0.15963286 0.10614803 0.064102225 0.04644977 -0.040106855 0.2473462 0.25866756 -0.00570756
-0.53237575 -0.43015844 0.10365249 0.025089016 0.09042457 0.27294478 0.15959796 0.035657257
00000000: f5cf d13c 3dfe 513e 2e3c 163d 4c04 57bc
00000010: 436b 00bf b646 1c3e 3fd6 b43c 08d3 c9ba
00000020: 59f4 0cbe 7de1 953e c2b4 b5be 1da3 b7be
00000030: 9004 03bf 3ded 99bd bf4d 9b3d 5f6f 7d3d
00000040: 673c d9bd aed7 6dbd c1e1 ca3c a2e8 a63d
00000050: aa7e 97bd 4c6d 193e c9f0 353e 8304 083e
00000060: 9ca3 b33d 755a 2dbd 6666 ebbe d77b babc
00000070: d176 853e 762e 3fbe 56d6 e8bd bbb9 08bd
00000080: c1f8 903d bc1b b4bd 94d3 853d a575 053d
00000090: f154 20be 05d4 06be fa19 d03c b378 76bc
000000a0: 0092 7fbe fe68 13be cea6 13be 8158 c93d
000000b0: c94a df3d 0ed1 b9bd d5dc 7a3a f60e 98be
000000c0: cc76 233e 2364 d93d 0748 833d 1d42 3e3d
000000d0: 1647 24bd 5248 7d3e 1370 843e 7c06 bbbb
000000e0: c749 08bf ba3d dcbe c247 d43d 7b87 cd3c
000000f0: 8430 b93d 6bbf 8b3e a66d 233e 580d 123d

layers.2.weight f4 [64, 64]
-0.007494122 0.04157507 -0.028479552 0.019882439 0.06512542 0.03779067 0.083942264 -0.063448995
0.06335132 -0.09684277 0.21059656 0.032369487 0.042496454 0.17113823 -0.060814913 0.038659874
-0.110583186 0.1509653 -0.10665449 0.0749182 0.09283038 0.041513417 -0.12416351 -0.12337629
-0.024748642 0.1630956 0.3425323 0.08237129 -0.11619596 0.30577004 0.08503918 -0.111680925
0.15582375 -0.0015349651 -0.11341673 0.1686394 0.0017283112 0.067860365 0.03709609 -0.0011135201
0.03988555 -0.1012708 0.05518697 0.062083397 -0.074496485 0.16713315 -0.12239899 0.08225979
0.056760114 0.0722145 0.01255087 0.09937446 0.0019552084 -0.0935379 0.10152794 0.065922536
0.19551723 -0.009590257 0.15534066 0.11309344 0.025017278 0.16745862 -0.03399061 -0.017146543
0.05442244 0.029212607 -0.028157797 -0.18335809 0.01306783 0.1181453 0.003721938 0.047352567
-0.065106004 -0.00058840506 -0.031222876 0.07450501 -0.08462917 0.023452507 0.030805873 -0.0581727
-0.030560821 -0.05577193 -0.08356807 -0.030557126 0.11108622 0.040708106 -0.049453035 -0.08923237
-0.083463624 -0.06982006 -0.043169044 -0.13057905 0.010119836 -0.042353157 0.091964975 -0.115257815
-0.1038211 0.02496982 -0.09092459 0.035283145 0.06424625 -0.06006874 0.021847576 -0.0744431
0.067046784 -0.033922024 0.025830263 -0.007959869 -0.11338307 -0.12395969 -0.0536564 -0.13092338
-0.023485942 0.03334495 -0.05181232 -0.0072753876 0.096750356 -0.074281506 -0.029515414 -0.063097656
-0.13819225 0.00067549874 0.018142655 0.11002187 0.034647547 -0.008567082 0.11059155 -0.11893478
0.08868371 -0.027911535 0.1444695 0.026694672 0.1172895 -0.085934386 0.04285171 0.06308998
-0.10881083 -0.1800845 0.1882749 0.21972834 0.07613448 0.12762581 -0.053211242 0.058673773
0.06980306 0.042049635 0.011027006 0.023160635 0.16715024 0.09492448 0.060621947 0.058309022
-0.07883968 -0.16229011 0.06908464 0.068740144 -0.040675342 0.43846473 -0.06726424 -0.051571175
0.04158829 0.049119078 -0.003075017 -0.06817336 -0.111750394 0.039169326 -0.031387456 0.14555442
0.12780769 -0.16321023 -0.04759785 -0.20773043 -0.055942904 0.122375585 -0.056901917 0.23714766
-0.15756123 0.028772322 0.006621132 0.095724985 0.06975793 -0.13376814 -0.10749188 0.05475574
0.34070662 0.025518814 -0.09261669 0.07913879 0.1218741 -0.022518178 0.090982534 -0.071701124
0.0060795993 -0.03513982 0.08533783 -0.12302329 0.03435978 0.014280841 -0.083790064 -0.080245
0.06878206 -0.004718378 -0.015148521 0.013997729 -0.06301386 0.09505952 -0.08896988 -0.043913092
0.00637123 0.12685877 -0.11765814 0.082707345 0.04052619 0.07120691 0.05868359 -0.009138069
-0.020612905 -0.102671795 -0.032810017 -0.07985784 0.012376711 -0.080181256 -0.0873282 -0.10549137
-0.007138858 -0.014773518 -0.07449363 0.10853212 0.11992721 -0.048466533 0.08410997 -0.0662276
-0.018497532 0.0062370314 -0.022111854 0.029525658 0.05369468 0.07517168 -0.12466304 -0.054447014
-0.022988155 -0.11214492 0.03146092 -0.09615433 0.06899399 -0.059102155 0.039133936 -0.10092459
-0.07057963 0.015985265 0.038453087 -0.055655204 0.12645727 -0.018374518 0.045258664 -0.12201226
00000000: 4091 f5bb 9f4a 2a3d f34d e9bc 7fe0 a23c
00000010: 7a60 853d 64ca 1a3d ece9 ab3d 8cf1 81bd
00000020: 56be 813d 8155 c6bd a0a6 573e de95 043d
00000030: c310 2e3d dc3e 2f3e 0f19 79bd d159 1e3d
00000040: 7079 e2bd a696 1a3e ab6d dabd b76e 993d
00000050: db1d be3d f909 2a3d 7049 febd b5ac fcbd
00000060: aabd cabc 8802 273e 6560 af3e 47b2 a83d
00000070: 26f8 edbd e48d 9c3e 0629 ae3d f8b8 e4bd
00000080: 4390 1f3e e230 c9ba 0847 e8bd cfaf 2c3e
00000090: 8088 e23a 60fa 8a3d 12f2 173d 89f3 91ba
000000a0: 085f 233d 1167 cfbd bb0b 623d 294b 7e3d
000000b0: 9d91 98bd f424 2b3e 52ac fabd d277 a83d
000000c0: 4b7d 683d 32e5 933d 2aa2 4d3c d684 cb3d
000000d0: f422 003b cc90 bfbd e1ed cf3d 6502 873d
000000e0: ab35 483e 7420 1dbc 9f11 1f3e 899d e73d
000000f0: 09f1 cc3c 467a 2b3e bd39 0bbd e876 8cbc
00000100: 10ea 5e3d 474f ef3c 2eab e6bc 39c2 3bbe
00000110: 741a 563c 2af6 f13d c2eb 733b c4f4 413d
00000120: 4c56 85bd 323f 1aba 1ec7 ffbc 1596 983d
00000130: 0f52 adbd 791f c03c 995c fc3c 7f46 6ebd
00000140: b05a fabc 1b71 64bd bc25 abbd f052 fabc
00000150: 2c81 e33d 8bbd 263d 448f 4abd 76bf b6bd
00000160: faee aabd d2fd 8ebd 06d2 30bd 84b6 05be
00000170: abcd 253c 817a 2dbd 2258 bc3d 4a0c ecbd
00000180: 28a0 d4bd 828d cc3c ac36 babd 0f85 103d
00000190: 8a93 833d a40a 76bd b0f9 b23c a075 98bd
000001a0: d34f 893d d2f1 0abd fd99 d33c 1c6a 02bc
000001b0: 6235 e8bd 94de fdbd d0c6 5bbd c710 06be
000001c0: 9765 c0bc b794 083d 2839 54bd 6066 eebb
000001d0: 0d25 c63d e720 98bd 4fca f1bc 5839 81bd
000001e0: 4582 0dbe f413 313a e89f 943c 2553 e13d
000001f0: 96ea 0d3d f25c 0cbc d37d e23d 1494 f3bd
00000200: ce9f b53d bba6 e4bc d0ef 133e c9ae da3c
00000210: 7a35 f03d 5efe afbd 4685 2f3d 5235 813d
00000220: 36d8 debd 1268 38be 23cb 403e 7700 613e
00000230: 65ec 9b3d 57b0 023e 08f4 59bd e953 703d
00000240: e8f4 8e3d 3d3c 2c3d 9eaa 343c 5fbb bd3c
00000250: 6f29 2b3e c467 c23d b84e 783d 71d5 6e3d
00000260: b376 a1bd 612f 26be 3f7c 8d3d a2c7 8c3d
00000270: 309b 26bd 737e e03e d5c1 89bd 4c3c 53bd
00000280: 7c58 2a3d 1631 493d 3986 49bb 799e 8bbd
00000290: 64dd e4bd 0470 203d 2290 00bd 380c 153e
000002a0: 05e0 023e 9520 27be f7f5 42bd 49b7 54be
000002b0: 6324 65bd 0da0 fa3d fc11 69bd d6d6 723e
000002c0: bb57 21be efb3 eb3c 15f6 d83b 760b c43d
000002d0: 3fdd 8e3d 84fa 08be b424 dcbd 8e47 603d
000002e0: 1971 ae3e d50c d13c d2ad bdbd 8513 a23d
000002f0: 2199 f93d 0b78 b8bc 0d55 ba3d 0ad8 92bd
00000300: 6037 c73b c6ee 0fbd 9ac5 ae3d a2f3 fbbd
00000310: d7bc 0c3d 30fa 693c 209a abbd 7e57 a4bd
00000320: 9cdd 8c3d a09c 9abb 8131 78bc bb56 653c
00000330: 690d 81bd 91ae c23d d735 b6bd 37de 33bd
00000340: c0c5 d03b 44e7 013e c0f6 f0bd 7862 a93d
00000350: cafe 253d eed4 913d 345e 703d d7b7 15bc
00000360: 65dc a8bc 9745 d2bd cc63 06bd 828c a3bd
00000370: b0c7 4a3c 1236 a4bd 21d9 b2bd dc0b d8bd
00000380: 15ed e9bb a00c 72bc 1e90 98bd 1746 de3d
00000390: 669c f53d d884 46bd d941 ac3d 56a2 87bd
000003a0: 2388 97bc 0360 cc3b eb23 b5bc cbdf f13c
000003b0: f4ee 5b3d 9cf3 993d 564f ffbd d503 5fbd
000003c0: a851 bcbc 3cac e5bd 2add 003d 90ec c4bd
000003d0: b94c 8d3d 1a15 72bd e84a 203d 8db1 cebd
000003e0: 0e8c 90bd 88f3 823c fc80 1d3d b6f6 63bd
000003f0: 047e 013e 2886 96bc 2661 393d 90e1 f9bd

layers.2.bias f4 [64]
-0.13061482 -0.01797244 -0.32495603 -0.056090955 0.03837197 -0.0006226963 -0.057893485 -0.01543032
-0.10925398 -0.14575735 0.13907094 -0.2062533 0.041427523 -0.09224599 -0.046511926 -0.023724286
-0.06812809 0.17996272 -0.10744132 -0.07299051 0.06863627 -0.0043168734 -0.08102152 -0.024143383
0.16911077 -0.23734218 0.0736615 -0.19137812 -0.02951722 -0.008643134 -0.10797289 0.057804387
-0.41816768 -0.30409712 -0.13434759 -0.20563595 0.008100016 -0.08674068 0.06958568 -0.09850362
0.045800157 -0.070552126 0.05629787 -0.038713958 0.07689185 -0.119072035 -0.23142281 0.031092202
-0.21021861 -0.057178568 -0.15245436 -0.20692068 -0.09873614 -0.14370248 0.09666178 -0.05957008
-0.021024613 -0.15329757 -0.12400349 0.08794028 0.34256348 0.26167393 -0.01269034 -0.010089698
00000000: e4bf 05be f03a 93bc a360 a6be a1bf 65bd
00000010: ed2b 1d3d 713c 23ba b821 6dbd 74cf 7cbc
00000020: 8dc0 dfbd 6a41 15be 9d68 0e3e 1134 53be
00000030: e8af 293d 77eb bcbd 4a83 3ebd 6f59 c2bc
00000040: bd86 8bbd 2648 383e 320a dcbd 0c7c 95bd
00000050: 2c91 8c3d 8f74 8dbb 9cee a5bd 58c8 c5bc
00000060: 602b 2d3e d409 73be d7db 963d a0f8 43be
00000070: 19ce f1bc ee9b 0dbc e420 ddbd 4bc4 6c3d
00000080: 131a d6be 9eb2 9bbe 6a92 09be 3b92 52be
00000090: eeb5 043c 19a5 b1bd f082 8e3d 44bc c9bd
000000a0: f298 3b3d a27d 90bd 9898 663d 8792 1ebd
000000b0: 7979 9d3d 0adc f3bd 1afa 6cbe 13b5 fe3c
000000c0: 8c43 57be 1334 6abd ff1c 1cbe 04e3 53be
000000d0: 2c36 cabd be26 13be 9cf6 c53d c2ff 73bd
000000e0: cf3b acbc 0afa 1cbe 8bf5 fdbd 091a b43d
000000f0: 7b64 af3e 20fa 853e 25eb 4fbc 434f 25bc

layers.4.weight f4 [3, 64]
0.15138176 -0.036191292 0.25210986 0.09045882 -0.052105326 -0.036631826 0.031032234 -0.034482922
-0.023586405 -0.028944362 0.13531813 0.003457769 0.0024536846 0.14045098 0.021814868 0.10357503
-0.08315747 0.10004767 -0.11120912 -0.08842412 0.0039040942 -0.05394516 0.050065666 0.10817051
0.3266729 0.012511745 0.03187864 0.10232141 0.073869735 -0.014196116 0.004675783 0.03868098
-0.00014497103 0.1546963 -0.002067272 0.051065836 0.02777378 -0.076932274 -0.054265145 -0.07017351
0.042483643 -0.0022295273 0.3246997 0.050113015 0.061046764 0.20731501 0.008332901 -0.14104989
0.20255643 -0.038306557 0.17633207 -0.008084619 -0.023224913 -0.045111056 -0.011498252 0.04222835
0.18770841 -0.029640686 0.0129899755 -0.11847033 0.23176567 0.26690263 -0.0044756928 0.06485947
-0.049524825 -0.05477157 -0.031306963 0.012533352 -0.0015964563 0.034408294 0.3819414 0.088808015
-0.11126249 0.2442072 -0.072594956 0.07003016 0.11208978 -0.07092793 -0.056264933 0.293801
-0.0117940465 -0.020656174 0.041615203 0.037642106 0.38033414 0.09176707 0.0633268 0.11823173
0.12518464 0.01622374 0.028274061 0.1317388 0.0036276395 0.054119583 0.31877127 0.01622932
0.016717032 0.05509801 0.109900534 0.01766341 -0.020807073 -0.016498825 -0.04383612 0.03574975
0.040663145 -0.02287069 0.52161 0.022669213 0.010957868 0.06959031 -0.31978285 0.039867375
0.16702984 0.039240394 -0.109648935 0.108962506 0.22416314 -0.0058710002 0.21154249 0.1045907
-0.017700674 0.18834046 0.11589801 -0.020353097 0.12531354 0.7478045 -0.03721576 0.2701551
0.046420492 0.07546917 0.20764256 -0.09593958 -0.08841671 0.05117688 0.029313764 0.103667304
0.08205698 -0.26926497 -0.18627863 0.057916734 0.021356044 0.040476266 0.08621683 0.069401465
-0.09362985 -0.36307013 0.07677091 -0.09530164 -0.24523857 0.054342996 -0.20927304 -0.09536581
0.0735103 0.093384035 0.07822563 0.06811054 -0.00621359 0.03781001 -0.043096393 -0.064259835
0.06384604 0.044582233 0.016174471 0.10227056 0.040697977 0.0034481413 -0.023040598 -0.016140103
0.10655714 0.040958483 0.32530996 0.009439326 0.177211 0.4159031 -0.018867264 -0.009237519
0.23192906 0.09919629 0.028388912 -0.08020925 -0.110708535 0.058498222 -0.16443971 0.015625175
-0.019701764 0.13452648 0.010666419 -0.12166227 -0.20755576 0.29915452 -0.14996229 0.126062
00000000: d203 1b3e 523d 14bd 8b14 813e 7942 b93d
00000010: 656c 55bd 410b 16bd 5037 fe3c f73d 0dbd
00000020: 4738 c1bc ba1c edbc d690 0a3e bd9b 623b
00000030: ffcd 203b 62d2 0f3e 18b5 b23c 251f d43d
00000040: 774e aabd cbe5 cc3d 9bc1 e3bd b417 b5bd
00000050: d5db 7f3b 9af5 5cbd a811 4d3d 8088 dd3d
00000060: ac41 a73e 10fe 4c3c 2d93 023d e38d d13d
00000070: 0449 973d d396 68bc 5037 993b f36f 1e3d
00000080: 5d03 18b9 b568 1e3e 127b 07bb 692a 513d
00000090: d785 e33c ab8e 9dbd 2145 5ebd 21b7 8fbd
000000a0: 5403 2e3d 431d 12bb 0a3f a63e 4e43 4d3d
000000b0: 2c0c 7a3d 634a 543e b886 083c 626f 10be
000000c0: f46a 4f3e 56e7 1cbd 6590 343e 5a75 04bc
000000d0: 2c42 bebc 5fc6 38bd 2a63 3cbc a2f7 2c3d
000000e0: a236 403e 06d1 f2bc e8d3 543c 93a0 f2bd
000000f0: fb53 6d3e 76a7 883e d5a8 92bb 0bd5 843d
00000100: 8bda 4abd 2758 60bd bb3b 00bd b058 4d3c
00000110: 2f40 d1ba b6ef 0c3d d38d c33e fae0 b53d
00000120: 97dd e3bd 7411 7a3e aaac 94bd f96b 8f3d
00000130: 548f e53d aa42 91bd 0f76 66bd 166d 963e
00000140: d13b 41bc 2337 a9bc b474 2a3d 9c2e 1a3d
00000150: 28bb c23e 60f0 bb3d 7bb1 813d 7a23 f23d
00000160: 6730 003e a6e7 843c 019f e73c 89e6 063e
00000170: b1bd 6d3b 7fac 5d3d fd35 a33e 5af3 843c
00000180: 28f2 883c 73ae 613d 8813 e13d dbb2 903c
00000190: 9873 aabc 8b28 87bc 818d 33bd 546e 123d
000001a0: 668e 263d 505b bbbc 3c88 053f c9b4 b93c
000001b0: a188 333c 5d85 8e3d 94ba a3be f94b 233d
000001c0: df09 2b3e 89ba 203d 9f8f e0bd bc27 df3d
000001d0: 068b 653e 8561 c0bb 989e 583e a633 d63d
000001e0: 0101 91bc 52dc 403e f05b ed3d 8abb a6bc
000001f0: 3152 003e 1e70 3f3f 8e6f 18bd c551 8a3e
00000200: 6a23 3e3d 958f 9a3d 40a0 543e f87b c4bd
00000210: d213 b5bd d99e 513d 6b23 f03c 864f d43d
00000220: 7d0d a83d 19dd 89be d3bf 3ebe 193a 6d3d
00000230: dff2 ae3c 71ca 253d 7392 b03d 5b22 8e3d
00000240: 02c1 bfbd 54e4 b9be 113a 9d3d 822d c3bd
00000250: d21f 7bbe c396 5e3d ac4b 56be 264f c3bd
00000260: 918c 963d 2140 bf3d c234 a03d 8a7d 8b3d
00000270: 5f9b cbbb abde 1a3d d885 30bd a99a 83bd
00000280: b6c1 823d dc9b 363d 5380 843c 3a73 d13d
00000290: ecb2 263d 36fa 613b a3bf bcbc 4038 84bc
000002a0: a13a da3d 15c4 273d 078f a63e 67a7 1a3c
000002b0: cd76 353e 40f1 d43e 858f 9abc f758 17bc
000002c0: d07e 6d3e 6d27 cb3d dd8f e83c bf44 a4bd
000002d0: 28bb e2bd d59b 6f3d e262 28be 5e00 803c
000002e0: 9865 a1bc 4fc1 093e 34c2 2e3c 112a f9bd
000002f0: 7f89 54be c82a 993e b78f 19be 6616 013e

layers.4.bias f4 [3]
-0.3436836 -0.27052483 -0.353641
00000000: 4cf7 afbe 3b82 8abe 6f10 b5be
