weights/trained_agent_model.pth (torch, 22528 bytes, 6 tensors)

layers.0.weight f4 [64, 8]
00000000: 81c7 8fbe e069 463e fabc 7ebe 3abf 0f3e
00000010: e472 64be 2e66 69bd 19f7 ff3d 3a39 bcbd
00000020: 2a18 fabd 2a6b c1bb 1bba 67be 3192 153e
00000030: 32c3 3e3d ef9b a63c 03ea 973e f7e2 623e
00000040: d752 163e 7e36 b5bd 8cdf 563e 0594 40bc
00000050: f089 bdbe d494 183e 2678 e53d b847 613e
00000060: 6e46 4cbb ce44 383e 59b2 8bbc 73eb 97be
00000070: 94e6 adbd f069 9c3e 86c3 28be 2980 dc3d
00000080: d5c8 8d3c 1864 b13e 6d9c 433e 9db9 3f3e
00000090: ce80 a1be 72e2 5cbe 5a7a 1ebe c7eb 98be
000000a0: e147 a1be 611d 413e 1d73 14be 13a5 983e
000000b0: 7992 483e 2539 843e 743c 4dbe 5fa0 d63d
000000c0: 7859 0cbd 4e0a a2be f96b 243e a57f 433e
000000d0: 0a4f 2b3e c9ac 94be a6cb 5b3e 62c9 a4be
000000e0: 4bda 2a3e 4fe0 50be c0fe 87be cb66 6a3e
000000f0: 0c5c ba3d 25fe 99be dd9e af3d 2cba 49be
00000100: 04d8 6e3e 2dfc b4be 914a 563d c44f 10be
00000110: e8d0 a93b 99d0 aa3e 7e74 1abe de8e 90bd
00000120: d3a1 3b3e 972a a03e a30c 48be 4206 15bd
00000130: 9aad 493e e2e5 4a3c 72be 37bd 3b2b 5c3e
00000140: 52e1 80be 4589 0f3e 8170 64be ef64 403e
00000150: 42b9 0f3e db08 bf3b 2e99 953e 147c ee3c
00000160: e275 92be b4e0 60be 6535 073e 8389 b93d
00000170: 1d4e 1c3e a1fc 2a3e d5c3 953d d71b 63bd
00000180: f1d8 84be 1ef4 b63d c318 e63d 5513 0d3c
00000190: 6c40 8d3e 11be ccbd a0c8 a53e 8924 66be
000001a0: ae9a 4e3b 9b1b 26be f11b 813e f195 593e
000001b0: 1acb 39be 4fc3 fe3d 226d 0bbe b047 92bd
000001c0: bab8 eebd b929 2abe af33 53bc df03 73bd
000001d0: 3f3d 6fbe 3551 96be 4ccb 1bbe 39c9 e13d
000001e0: 4657 1a3e e29c 973e 91b9 863c 3092 e13d
000001f0: 37b3 b13d 49b1 853e a4c7 00be 6500 47bd
00000200: 5133 aebe d1ac a43e 8e7d 2e3e f204 4bbe
00000210: 88c7 4f3e 0886 6fbd ab4d a63e 0a2a a3be
00000220: f9a4 913e 8214 a73e 9a32 ab3e c0d2 e83d
00000230: 5948 fc3d d379 853d 2ec2 25be 2367 adbe
00000240: fc2b 603d ecfb d0bd 7f2b 543e 61b6 90be
00000250: d1f6 6bbd 26f6 d93c 97ab 593e f949 adbc
00000260: 7322 97be c010 9f3e f972 ca3c 439f 673e
00000270: 6ac9 953e 4d42 b5be 7ce2 05be bbb9 eabd
00000280: c933 133e 5313 8abe f797 5e3e 0672 b2be
00000290: 867f 22be 556f 7fbe c17b c93d ce3e 08bd
000002a0: fcf4 89be 604b 503e 8ad8 62be 8f12 313e
000002b0: 1800 f3bd 26cb 9b3e 0957 8d3e 14e8 96be
000002c0: 5af6 6d3e ff4d a5bd baf2 41be 5651 a6be
000002d0: 015c b23d 39b6 88be 491e 053e ee79 22be
000002e0: f820 91ba aaf0 713e 5765 81be 5911 78be
000002f0: 4575 52be 4773 abbe 2fda 2e3e 6d61 f5bc
00000300: 9c27 97be 45e8 be3c 7414 f83d e0ff 14bd
00000310: 71fd 813e 36b3 ff3d 746f 403e 1100 b4be
00000320: ce80 11be 5cdd 84be ca82 96be 788d 2abe
00000330: d185 b9bc 34db d93d 9523 873e 09a6 0bbe
00000340: c803 2abe 336b ad3e a882 7cbe 5707 523e
00000350: f4c4 9abd 4e15 ea3d e286 ef3d 0e94 113e
00000360: b685 91be bc92 733e 12e4 8d3e 3cc7 fb3d
00000370: e408 ae3e 614d 553e 485a 763e 0c11 41be
00000380: 43fe 4e3e 787d c63c fae1 adbd 5020 91bd
00000390: a7d2 253e e5e5 5f3e e52f 693c 0731 a5bd
000003a0: ac33 62be ba4c 76bd 0c68 b43e cb97 ccbb
000003b0: d6f3 903c 220f 103e 8763 d73d 2a55 453c
000003c0: 1df5 6cbe eb26 523e 6e9d 123b 1b77 48be
000003d0: a04e 683e 48fc 853c cf97 933e 363d 0e3e
000003e0: c69c 423e 8504 e5bd e487 3abe a28f 0c3e
000003f0: b06d 583e bf13 b6be f065 933e d63e 1d3e
-0.28081897 0.19376326 -0.24876776 0.14037791 -0.22309452 -0.05698221 0.12498302 -0.091906026
-0.1221164 -0.0059026675 -0.22629587 0.14606549 0.04657287 0.020338027 0.29670724 0.22156893
0.14680038 -0.08848284 0.20983714 -0.011754041 -0.370193 0.14900523 0.11204557 0.22000015
-0.003116991 0.17994997 -0.017052816 -0.2967182 -0.08491245 0.30549574 -0.16480836 0.10766632
0.017307678 0.34646678 0.1910264 0.1872315 -0.31543583 -0.21570757 -0.15476361 -0.29867384
-0.31500152 0.18858863 -0.14497037 0.29813442 0.19587125 0.25824848 -0.20042592 0.10479807
-0.03426501 -0.31648487 0.16056813 0.19091661 0.1672937 -0.29038075 0.21464404 -0.32184893
0.16684835 -0.20398067 -0.26561546 0.22890775 0.09099588 -0.3007671 0.08575223 -0.19699925
0.23324591 -0.35348645 0.052317206 -0.14092928 0.0051823743 0.33362272 -0.150835 -0.070585
0.1832345 0.31282493 -0.1953607 -0.03638292 0.1969513 0.01238391 -0.044859357 0.21500866
-0.25171906 0.14017208 -0.22308542 0.18788503 0.14035514 0.005829913 0.2921843 0.0291119
-0.28605562 -0.21960717 0.13203962 0.090594314 0.15264173 0.16697933 0.073127426 -0.055446472
-0.25946763 0.089332804 0.11235192 0.008610566 0.27588212 -0.0999719 0.32379627 -0.22474875
0.0031525302 -0.16221468 0.2521663 0.21248604 -0.18143883 0.12439596 -0.1361585 -0.071425796
-0.116563275 -0.16617478 -0.01289074 -0.059329864 -0.23363207 -0.2935883 -0.1521427 0.11024708
0.15072355 0.2961188 0.016445907 0.11014211 0.08676761 0.2611182 -0.12576157 -0.04858436
-0.34023526 0.32163098 0.17040083 -0.19826105 0.20290959 -0.05847743 0.3248113 -0.3186801
0.28446177 0.32632834 0.33437043 0.11368322 0.12318487 0.06517377 -0.16187355 -0.3386775
0.054729447 -0.102043 0.20719717 -0.28264144 -0.05760843 0.02660663 0.21256863 -0.021153437
-0.2951847 0.31067467 0.024713026 0.22619347 0.2925523 -0.35402146 -0.13074678 -0.114612065
0.14375223 -0.26967868 0.21737657 -0.34852618 -0.15868959 -0.24944814 0.09838057 -0.03326302
-0.2694472 0.20341253 -0.22152916 0.17292236 -0.11865252 0.30428427 0.27605465 -0.29473937
0.23238507 -0.08071517 -0.18940249 -0.3248393 0.087089546 -0.26701525 0.12999834 -0.15866825
-0.0011072448 0.23626962 -0.2527263 -0.24225368 -0.20552547 -0.33486387 0.17075418 -0.029953683
-0.29522407 0.023304114 0.12113276 -0.036376834 0.25388673 0.12485354 0.18792516 -0.351563
-0.14209291 -0.25950134 -0.2939666 -0.16655529 -0.022646816 0.10637513 0.26394334 -0.13637556
-0.16603005 0.3387085 -0.24659216 0.20510612 -0.07557097 0.11429845 0.11695649 0.14216635
-0.28422326 0.23786443 0.27713066 0.1229386 0.33991158 0.20830299 0.24057877 -0.18854159
0.2021418 0.02422975 -0.08490367 -0.07086241 0.16193639 0.21865042 0.01423261 -0.08065992
-0.22090024 -0.060131766 0.3523563 -0.006243681 0.017694395 0.14068273 0.1051703 0.0120442305
-0.23140378 0.20522659 0.0022371667 -0.19576685 0.22686243 0.016355649 0.28826758 0.13890538
0.19005117 -0.11182503 -0.182159 0.13726667 0.21135592 -0.3556194 0.2878871 0.15356001

layers.0.bias f4 [64]
00000000: aeb2 c1be bf34 093e 9f71 273e 20b2 0ebe
00000010: 41b4 96be be8b 733e 3b8c 2fbe 94f4 6f3e
00000020: cf0a 55be 6c3e 5c3d c09a 4a3e d0ea edbd
00000030: 9b25 123e ab78 48be 8df4 123f 8a92 8e3e
00000040: 98bf 84be a44c 8ebe 9eb1 54be 7593 743d
00000050: 5f77 cd3d 02c0 963e 30e5 63be fddc 13be
00000060: 6f29 80be 0473 ae3d f8fc 94be e4ef d4bc
00000070: 1f40 b23d c6cf 14be 781c 00bd e601 123e
00000080: 0113 4dbc 14e3 f63c c2ab 42bd 171e 49be
00000090: 1a79 813f c39a af3e 0efb 86be 5895 513f
000000a0: a6b4 253f ba1b 0bbe 66d0 76be 9b37 573d
000000b0: 9826 bbbd 39c6 b3bd a0d5 243f 0602 82be
000000c0: 951a f8bd 9956 3b3e e199 f83e 10a9 6b3d
000000d0: e6c9 5ebe 5b5f a2bd ed32 7d3e 9670 323f
000000e0: 5ca1 b0bd 0b9e a1be 00b2 3abe 31d6 e53d
000000f0: e8b5 313f 848a 1d3d 64eb 31be bd1d 283f
-0.37831634 0.13399027 0.16351937 -0.13935137 -0.29434398 0.23783776 -0.17143337 0.23433143
-0.20804904 0.053770468 0.19785595 -0.116170526 0.14272158 -0.19577281 0.57404405 0.27846175
-0.25927424 -0.27792847 -0.2077088 0.05971094 0.10032534 0.29443365 -0.22255397 -0.14439769
-0.2503161 0.08518031 -0.2909925 -0.025993295 0.087036364 -0.14532384 -0.03127715 0.14258537
-0.012516738 0.030137576 -0.047527082 -0.19640385 1.0115082 0.3429776 -0.26363415 0.81868505
0.6472877 -0.13584796 -0.24102935 0.052543264 -0.091382205 -0.08778042 0.64388466 -0.2539217
-0.12114445 0.18294753 0.485549 0.057534277 -0.21756706 -0.07928344 0.24726458 0.6970304
-0.08624527 -0.3156589 -0.18231964 0.112224944 0.6941819 0.038462177 -0.1737495 0.65670377

layers.2.weight f4 [64, 64]
00000000: 4185 893d 5311 e13d 3a6a c13d 74b8 f13c
00000010: 1bb6 4dbd b3a3 46bc 98c7 063c 901b 593b
00000020: 11a7 dd3d d850 023e 500c 2e3b fb25 a83d
00000030: 8164 c03d ee46 d0bd 3d18 333c dc39 bebd
00000040: 3e99 a73d 35bd a2bc c04f eabd 1f0f 263e
00000050: 0ea3 1cbd 8206 fbbd ef52 7e3c bda1 8abd
00000060: 2c9d ed3c 5546 623d 7103 d6bd 8e36 84bd
00000070: 4426 d03d acd7 8cbd 8002 6fbb 287d d03c
00000080: dab8 c03d de27 9a3c 2498 dabb 5ddd 14bd
00000090: 1206 bcbd c5b7 d33a 3ce1 b73c 9072 a93d
000000a0: 7180 a2bd 515d 603d d8e2 19bd 845d e4bd
000000b0: f2f0 b23c 6e8b ee3d 389b 9fbd 3a81 df3d
000000c0: 016a cdbc 7736 12bd 34f5 d3bd 8197 0ebd
000000d0: 6d8a 9dbd 478c 81b8 a2c6 08be 485c 87bc
000000e0: 01f3 84bd 75a8 ac3d 5a30 873d 4032 6e3d
000000f0: b200 96bd 066f f9bd 66ad a5bd 804f d1bc
00000100: bd07 dbbc f1b6 c3bd 9430 e83d 15af 6dbd
00000110: e0de 83bd cbee e63d 2153 d4bd 1138 a93d
00000120: 4b91 f9bd de4e 253b 0ec2 f33d 9a0d 69bd
00000130: 7cf1 dabc 5797 e539 f267 97bd d316 b5bd
00000140: dd64 963b 3604 cebd a3bb b4bb e39e debd
00000150: cfc4 803d 839f f23b 5bf6 f5bc a5c7 9abd
00000160: 6080 e4bd 6b0e 26bc 14c3 74bd ea5a dd3d
00000170: 385a e83d b017 2f3d 4ce0 d63d ef61 9b3d
00000180: 228b fd3c 81cd adbc d017 a0bd 9db4 02bd
00000190: 529d f3bd 4641 b03c f45f 6b3d 35ef 0bbb
000001a0: 3792 933d 03e9 eabc 2403 a63d 756b 943d
000001b0: 8ef9 dbbd 2dc2 cebd 59f7 f9bd 94df 5fbd
000001c0: 29a5 d23c c648 663c e445 90bc 91c2 7d3d
000001d0: b5ab f33b e6e1 6abd ba2c ee3d 778b 1fbe
000001e0: 9456 a6bd b08a 7dbc 66e2 003d ff66 a63d
000001f0: 0a6b c9bd 930d d5bd 363a a6bd c406 b4bd
00000200: 407d f3bd 72ed 6ebd 1daa 4b3a 9d7c 22bc
00000210: 364e c2bd 87d5 c13c ee0c 143d 94a7 7a3d
00000220: 171b dc3d 238d 9abc cee6 80bd f5a0 38bd
00000230: c435 fabd b664 cdbd 6ff0 c2bc a5b7 34bc
00000240: 4e58 0abd 1d75 b53d f541 9a3c e23e 1abe
00000250: c670 e53b 06e3 85bb 510f 13bd 4cca b1bd
00000260: ac08 3b3b 42c1 793d da9e 533d df74 b33d
00000270: c170 fbbb b43f 14bd 83e1 603d 64cd 90bd
00000280: c023 d73c a070 553d efe9 c43d e8a5 fa3d
00000290: 0c34 2c3d 7c38 9b3d 5998 c1bc 444d b83d
000002a0: b043 b93c 46ac fdbc bbdc 303d a97c 713a
000002b0: 71e9 603d 0573 f0bc fc66 f2bd abe7 9e3d
000002c0: dfaf b1bc a0a5 f1bd 0d0b dc3d db8b 87bd
000002d0: 40ab 743d c892 b33d 28fd 233d 0000 1d3a
000002e0: 6998 1c3d 18fe 97bc ce36 8d3a 79ad 80bb
000002f0: c8f0 04bd 4445 9fbd 50d9 923d 7ca4 b43d
00000300: 4aa2 c2bc da33 c93d 8c10 b0bd 5317 aabd
00000310: 42ab 01be 6c40 dfbb 7c82 893d 2cfe 7fbd
00000320: d935 2abc ce40 ddbd ada9 c2bd 9451 bdbd
00000330: 6c52 a33d 3489 c3bd 9e6e fe3c 2753 e93d
00000340: 08c9 b03d f33e 953c 940b 6fbc 6081 2b3d
00000350: abcc 9e3d 0bbf 253d 443c f43c e3d6 613d
00000360: b903 33bd 01be 2bbd c3e0 a9bd f740 873d
00000370: 2d88 6cbd bd8d 37bd 22cf 343a 7710 3a3d
00000380: 6d29 cc3d be32 93bd 5775 9fbd 06c8 cc3d
00000390: df67 28be c248 90bd 6a5d 89bd 441b 0bbe
000003a0: ae43 b1bd a267 1d3c a7a8 e93d 7d63 653c
000003b0: 86ce adbd 04bd 563d 843c 8cbc f542 6c3c
000003c0: e11d af3d 065f fd3d 2df1 b4bd 4259 783d
000003d0: efab fbbd 867f 32bc 33af f5bb 007c 323d
000003e0: c7dd 883d 48f5 cd3d fc70 873d 38a9 203d
000003f0: 081a 813b 654c bd3d d0a9 ef3c 2961 3bbd
0.06714869 0.109896325 0.09444089 0.0295069 -0.050222497 -0.01212399 0.008226298 0.0033128
0.10822881 0.12726152 0.0026557632 0.08210369 0.093941696 -0.10169779 0.010931072 -0.092883795
0.081835255 -0.019865612 -0.11440992 0.16216706 -0.03824144 -0.12257101 0.015522703 -0.067691304
0.02900561 0.055242855 -0.10449875 -0.06455718 0.101635486 -0.06877074 -0.0036469996 0.025450304
0.09410258 0.018817838 -0.0066709686 -0.03634392 -0.09180845 0.001615279 0.022446267 0.08273804
-0.079346545 0.054776493 -0.03756985 -0.11150649 0.021843407 0.11647688 -0.077932775 0.1091332
-0.02507496 -0.035696473 -0.10349503 -0.034812454 -0.07692418 -6.177328e-05 -0.13357022 -0.016523495
-0.06491662 0.08430568 0.06601019 0.05815339 -0.07324351 -0.12179379 -0.08089714 -0.025550604
-0.026737088 -0.09556378 0.113373905 -0.0580283 -0.064389944 0.11276015 -0.10367418 0.08262647
-0.121859156 0.002522401 0.11902247 -0.056897737 -0.026726477 0.0004379104 -0.07392873 -0.08842244
0.0045896606 -0.10059397 -0.005515532 -0.10870149 0.06287538 0.007404269 -0.030024698 -0.075576104
-0.11157298 -0.010135273 -0.059756353 0.10808356 0.11345333 0.0427472 0.10492 0.07587039
0.030950133 -0.021216156 -0.07817042 -0.031910527 -0.11895241 0.0215155 0.057464555 -0.0021352295
0.07205623 -0.028675562 0.08106068 0.07247058 -0.10740958 -0.1009563 -0.12205381 -0.05465658
0.02571352 0.0140554365 -0.017611451 0.06195313 0.0074362406 -0.05734434 0.11629625 -0.15580545
-0.08121982 -0.01547496 0.03146591 0.08125114 -0.09834869 -0.1040298 -0.081165716 -0.08790353
-0.11889124 -0.058331914 0.00077691843 -0.009917405 -0.09487574 0.023661388 0.036145143 0.06119497
0.107473545 -0.018866127 -0.062940225 -0.045075376 -0.12217286 -0.10028975 -0.023796288 -0.011030112
-0.03377562 0.08860228 0.018830279 -0.1506305 0.007001969 -0.004085901 -0.03590328 -0.08681163
0.0028539104 0.06097532 0.051665165 0.08762526 -0.0076733534 -0.036193565 0.054902565 -0.07070425
0.026262164 0.05210936 0.09614932 0.12238675 0.042041823 0.07579133 -0.023632215 0.08999112
0.022615284 -0.030965935 0.043179255 0.0009211996 0.054910127 -0.02935172 -0.11836049 0.07759031
-0.021690307 -0.117991686 0.10744295 -0.06618472 0.05973363 0.08768231 0.04003635 0.00059890747
0.038231287 -0.018553779 0.0010773779 -0.0039269296 -0.03245619 -0.07776883 0.07170355 0.088204354
-0.023759026 0.09824343 -0.08596906 -0.0830523 -0.12662986 -0.0068130996 0.06714341 -0.062498257
-0.010388815 -0.10803376 -0.09505019 -0.092440754 0.07974705 -0.09547654 0.031058606 0.11392813
0.08632094 0.018218493 -0.014590163 0.04187143 0.07753881 0.040465396 0.029813893 0.055136573
-0.043704722 -0.04192925 -0.08294823 0.06604188 -0.057747055 -0.044812907 0.000689732 0.04542586
0.09968839 -0.07187413 -0.07786053 0.09999089 -0.16445874 -0.070451275 -0.067072704 -0.1358462
-0.08655487 0.0096072275 0.11409121 0.014000771 -0.08486657 0.052426353 -0.0171187 0.014420261
0.08550621 0.1237164 -0.08835063 0.060631998 -0.12288653 -0.010894662 -0.007497692 0.043575287
0.06682926 0.10056549 0.06613347 0.03922388 0.0039398707 0.09243087 0.029255778 -0.045746956

layers.2.bias f4 [64]
00000000: 5f2a 34bd f409 e13d 0a37 d3bd 033b 163d
00000010: 3572 04bc 0e3d 1d3d e6a5 c93d 1826 293c
00000020: df54 0fbd 9b48 c8bd 38ee 7dbc 3fe5 06bd
00000030: 55cc d6bd 410e a2bb 60d8 19be 3976 f3bd
00000040: 0c99 61bd 6738 e03c fa24 d1bd 6e52 273d
00000050: c2c0 813c 496d f9bd 668b 063f 8165 80bd
00000060: 6581 23bd ff97 aebd 0995 ea3c b342 cabc
00000070: e1e9 45bd ee6b 303d 6973 ce3d 4360 a03d
00000080: f4fa 97bd ef0c fabd 0872 1ebe 0a2f e23d
00000090: 2b19 41bd 7a05 343d d22f a7bd 3c79 473e
000000a0: c598 d2bd 40c8 563d f35b ec3d 9ad1 483d
000000b0: c4e5 9b3d 2341 c63d bd20 e4bc 28f0 3ebd
000000c0: e440 6c3c f307 ecbd 261d be3d 7611 aebd
000000d0: ae81 bc3c eba9 dcbd 085e c3bd a9c0 ad3d
000000e0: e015 3fbe 162e 2a3d 521c 4ebd 633b 1fbb
000000f0: abf7 e1bd 0a80 bebd 4ab5 2bbd 2ef1 cc3d
-0.04398572 0.109882265 -0.10313232 0.03667737 -0.00808387 0.038388304 0.09846096 0.010324024
-0.03499305 -0.097794734 -0.01549869 -0.03293347 -0.10488192 -0.004945547 -0.15023947 -0.118877836
-0.055077597 0.027370645 -0.10212131 0.040850095 0.015838984 -0.121790476 0.52556455 -0.0626936
-0.039918322 -0.08525085 0.028635519 -0.024690008 -0.048318747 0.04307168 0.100806065 0.078308605
-0.074209124 -0.12209498 -0.15473187 0.11044128 -0.047143143 0.043950535 -0.08163418 0.19479841
-0.10283045 0.052437067 0.115409754 0.049028017 0.07612184 0.096803926 -0.027847642 -0.04661575
0.014419768 -0.11524954 0.092829034 -0.08499424 0.023011055 -0.10774597 -0.095394194 0.08484013
-0.18660688 0.041547857 -0.050319977 -0.0024296872 -0.11033567 -0.09301765 -0.041920938 0.10006939

layers.4.weight f4 [3, 64]
00000000: a280 6ebc 61c3 453b 6c30 a0bd f292 47bd
00000010: fc48 443d d3b7 8c3d 08a5 fabd 1437 38bd
00000020: 2556 983d 06b6 f1bd 6ea4 d33c 3d2a 59bd
00000030: c795 dfbc ec3b 89bd 548a 8abd 2a45 d0bd
00000040: 80ee 763b aae2 873b 6be8 86bc a136 68bc
00000050: e428 8a3d 4a58 92bd 191d f73d bed5 7e3c
00000060: c4bf 213d d913 7d3c 68df 9abc f449 bebb
00000070: 3cb0 0cbd c4d1 a5bd aab7 86bd 52d6 91bd
00000080: d986 d4bc 34ae 06be d463 82bc 4a60 cc3d
00000090: 373c 21bd d2c3 9f3d 555b 96bd d17a 443c
000000a0: 4b61 b93d 1bf8 4b3d c9be 853d bad6 97bc
000000b0: 18c1 783d b0d6 0bbc 7c0b a13d 51ef f4bd
000000c0: 96d1 99bd a963 04bd c014 a53d f007 02bd
000000d0: b9c6 783b 4a77 d13d 7ab0 d63d 1bf0 a3b9
000000e0: abe4 a93b 8fca 823d 603c e13d 1021 e9bc
000000f0: 7520 893d 6036 8e37 7d5f 40bd 2793 803d
00000100: bf17 833d a963 8a3c 6041 d63d fbb6 38bd
00000110: 352b c1bd 03ba 02bd 4ea1 a63d ef52 2d3d
00000120: 9779 163d cf2e 85bc a6b1 2ebd fee6 113e
00000130: 4ced e73c 6e5d 8e3b ad31 7bbd 303b e23d
00000140: e3c6 c9bc 8224 eabd 6cb4 3abd d006 8f3d
00000150: 4980 c4bd 15ef cfbd 7945 403d 0ae1 a03d
00000160: f4e3 a83d cc3d 91bd 60af 00bd b571 2abd
00000170: ccca 97bd 698b 9fbc bd0b e73c c96f bd3d
00000180: 481d d7bc ce6a a6bd 3866 3fbc eb01 bebd
00000190: 5ea0 f13d f8c2 95bc 6864 d53d b2a4 a73c
000001a0: 387b e93d eeb4 47bd 0c54 013e 833b 623d
000001b0: 5a21 57bd e8aa 7d3d a240 903b bd49 8a3a
000001c0: a920 a3bd 58a3 cdbd 57c3 723d 44f8 693d
000001d0: 6026 dc3d 4cec aebd 97ff 58bd 91af 813c
000001e0: 5f73 56bd 2d08 7ebd e5f0 c53d ff5b d53d
000001f0: a8eb 593d e5da 963d f3f1 ffbc 1f2d a3bd
00000200: ec2e 8fbd 325a 163d 6abc dc3d c033 5b3d
00000210: 6faa 8cbd 1c35 8d3b 23ad b8bd 5713 403d
00000220: a26c f4bc d1cf ba3d 0332 35bd 08c6 a1bd
00000230: 52a0 6f3d 7454 d13c 5817 d63c 32bb ec3d
00000240: 8851 843c b629 823d faea 8bbb 7f7b 5c3d
00000250: 86e2 42bc 6bc2 24bd b50b 043e 1049 0a3c
00000260: d814 92bc 4cc3 fe3d 9084 9b3d 9c53 403c
00000270: f4b1 dd3d 65f7 ee3c 1049 bb3d 4fbf c03d
00000280: 6432 d8bd 1a6a 8dbd 8015 b33a 9cc8 e23d
00000290: 16c6 533c 00ac 383a 14dc 80bb 4a0b f73c
000002a0: a721 a23d 8363 b23d b703 a13d 6f7f 233d
000002b0: 5911 4bbd f5fc afbd 3ecb 393b 10bd cf3d
000002c0: 0284 23bd aa27 71bd 6fb4 94bd 5cec a93d
000002d0: 4bd5 23bc 17fe 943d 8fea 2a3b f34c 2bbd
000002e0: bf53 0b3d 5694 e13d a3fe 76bc 81ab b3bd
000002f0: 3d16 cfbd 2a25 ac3d 3a94 3439 13a4 993d
-0.014557036 0.003017627 -0.07821736 -0.048724122 0.047921166 0.06870999 -0.122385085 -0.0449744
0.07438306 -0.11802296 0.025835242 -0.053018797 -0.0272931 -0.06700882 -0.06764665 -0.10169442
0.0037678778 0.0041468935 -0.016468247 -0.014173181 0.067460805 -0.07145746 0.12066097 0.01555389
0.039489523 0.015446627 -0.018905357 -0.0058071557 -0.034347758 -0.0809665 -0.06578 -0.071209565
-0.025943207 -0.1315239 -0.015916742 0.09979303 -0.039364066 0.07801022 -0.07341639 0.011992172
0.0905176 0.04979716 0.0653053 -0.018535007 0.060731024 -0.008535072 0.078635186 -0.119597085
-0.075106785 -0.032321606 0.080605984 -0.03174585 0.0037960245 0.10227831 0.10482879 -0.00031268675
0.00518473 0.06386291 0.10997844 -0.028458148 0.06695644 1.695304e-05 -0.046966065 0.06278067
0.064010136 0.016893225 0.10461688 -0.04509638 -0.09432069 -0.031915676 0.08136235 0.04231542
0.03673705 -0.016257672 -0.042649888 0.14248273 0.028311394 0.004344634 -0.06132667 0.11046445
-0.02463097 -0.114327446 -0.04558222 0.06983721 -0.09594781 -0.10153023 0.046941254 0.07855423
0.082466036 -0.07091865 -0.03141725 -0.041612346 -0.07411727 -0.019475656 0.02820384 0.09249837
-0.02625908 -0.0812584 -0.011682086 -0.092777096 0.11798166 -0.018281445 0.104195416 0.020464275
0.11400455 -0.048756532 0.12629718 0.055232536 -0.05252204 0.061930567 0.004402236 0.001055054
-0.07965214 -0.10040921 0.05926832 0.05712153 0.10749507 -0.08541164 -0.052978124 0.015830787
-0.05235612 -0.062019516 0.096650876 0.104179375 0.053203255 0.073659696 -0.0312433 -0.079675905
-0.069913715 0.03670711 0.10778125 0.05351615 -0.06868445 0.0043093096 -0.09017398 0.046893444
-0.029836956 0.09121669 -0.044237148 -0.078990996 0.058502503 0.025552966 0.026134178 0.11559142
0.016152158 0.06355612 -0.0042699547 0.053828713 -0.011894828 -0.040224474 0.12895091 0.008440271
-0.017832205 0.12439594 0.07593644 0.011738684 0.108249575 0.029170701 0.09144795 0.09411489
-0.10556486 -0.06905003 0.0013663024 0.110734195 0.012925645 0.0007044673 -0.0039324854 0.03015675
0.07916575 0.087103866 0.07862037 0.039916452 -0.04957709 -0.085931696 0.0028349902 0.10143483
-0.039920814 -0.058875717 -0.072609775 0.08297035 -0.0099995835 0.07275026 0.002607975 -0.04182143
0.034015413 0.11014621 -0.015075359 -0.08772946 -0.101116635 0.08405526 0.00017221356 0.07501998

layers.4.bias f4 [3]
00000000: 9e7c 20bd 8182 283e 65f0 c8bd
-0.039181344 0.16456033 -0.098114766
