weights/trained_agent_model_BNB-USD.pth (torch, 22672 bytes, 6 tensors)

layers.0.weight f4 [64, 8]
00000000: 06f4 883e af08 143f a092 ab3e 6b59 0f3f
00000010: dba1 193e 1933 843e 2173 013f 9bc6 743e
00000020: 338a e93e 24ff 99bd c401 293e 870b 1c3f
00000030: 36d2 c03e 5c5d f93d f7ab 69bb ebf4 113f
00000040: b25a 65be 0e94 a9bc 0d85 5fbe 5a83 423e
00000050: 6f71 8b3e f712 d7bc 7509 c1bd be54 f2bd
00000060: 2608 abbe e201 6a3e 6940 05be 6ce5 7fbe
00000070: faea 01be 4f86 debd 4dd4 a4bc de57 873e
00000080: 8762 183f 1bad ed3e c08c 0a3f d9e3 de3e
00000090: cceb ee3d 9025 703d 3f02 143e e271 a43e
000000a0: 9daa 0d3c 87d6 0ebe cafc 7bbe 9c1e 91be
000000b0: dc5f 873e 6107 e63d 5f80 763e c457 8bbe
000000c0: 3f53 e63e 5a63 fd3d a59a 47bd a625 0d3f
000000d0: 9d50 e1bd cda8 063f d05f 083f 7aa9 1d3e
000000e0: edab 2e3e 78ff aebe b269 ebbd e805 8bbe
000000f0: 42b0 f7bd 9a29 66be 034d f5bc f5e9 d53d
00000100: 9c04 bf3e a97f 573c a1f8 e03e dfbc ca3e
00000110: 396b 093e 811c aa3e b0c3 193f b73c 573e
00000120: 3fb9 b03e 4c30 7cbd c1e7 f13e 1cbe 913e
00000130: e313 903e 4a93 1b3f 3694 c13e 7c26 8c3e
00000140: 7976 f43e 1989 133f 1ada f63e 5f68 eebc
00000150: 9314 f63e bf81 1c3e 1704 273f 2cbe 0f3f
00000160: e40e 083f a99a 3f3e 2359 aa3e a21e 9e3e
00000170: dcb8 aebd eeac cd3e 12aa 033f 4f98 103f
00000180: a869 8f3c 4242 44bc 5383 303e 2665 ab3e
00000190: ad6e e53e fc12 253f e06a d03e 6bea 353e
000001a0: 649e 963e 71d7 c53e b3bc fa3e 6aba bb3e
000001b0: 3f71 e63e 4ddf f23e ab21 063d 0f49 6a3e
000001c0: 0ac8 8abe f84e cfbd 7dbc 74ba af3d 57be
000001d0: b401 193e 08ce 8e3e 9571 6dbe aa09 abbd
000001e0: 3301 413e 7a8d 99be 9b0b 4a3e 86a4 a5be
000001f0: 4878 4bbb 1452 903e 4f61 a0bd 4550 74bd
00000200: a8ed ad3e e16c 093d 82b3 ee3e 1daa 70bc
00000210: e878 473e 0aa5 013f 5068 153e e873 d63e
00000220: e3ed 76be b68b 6dbd 5cd0 0ab9 e427 713e
00000230: d364 7dbd b468 98be f208 a53d 5a4c 9fbe
00000240: de5c 193f 088b cc3e 8ae1 a53d 8d0c 0c3f
00000250: 74bb 023f 37ca 3e3e 20c6 313e 89fe 473e
00000260: 59bc 6fbe 7015 00be c196 83be 3e42 a9be
00000270: 4718 8ebe 2c6a cbbb 1212 3abe bdd6 98be
00000280: 6dfb 193e cf6f e63e 90ce 073d 310d 343e
00000290: 5a05 073f 58fe 1d3f f865 893e b56b 5d3e
000002a0: b00d 823e cf8f 953e d209 103f 98f2 8cbc
000002b0: 81fb 0a3f 26ed dbbc 5b3c 093f 8915 3b3e
000002c0: 9a55 2abd b76c 1dbe f006 f8bd ed34 9bbe
000002d0: c146 c3bd f86e 073d 893a 153e a41d a03d
000002e0: 94f9 a6be ae32 13be 5d8b 53be 11c6 a6be
000002f0: 5f03 a2bd 7464 61be 0ad7 9a3e cb5f 90be
00000300: 6e4e dfbc 977c f63e e7df ba3e b83b 563e
00000310: 1529 f33e a8a1 933e 4eb7 0a3f 7c74 e43e
00000320: 59cd 78bd d195 b03e 079a 9ebe a233 b3be
00000330: a0aa 43be 78cc 30be 5c68 36bd daf8 1fbe
00000340: c371 e33e bef4 743e 7dcb cc3e 975c cc3e
00000350: 0e53 883e f53b 073f 2f26 713e 1c51 993e
00000360: 9c63 1a3f d0c0 163f b4e1 053d d3ad b73e
00000370: ab66 253f 0fbf d43e 27d4 433e 80b9 323e
00000380: e4d6 1abe b928 0dbe 9112 4bbe 2c95 473e
00000390: 64ea d5bd d8c3 9cbc 1b0d 41bd 3f35 fabd
000003a0: 7b51 c33e f05b 053f 572b 093f e0c8 e43c
000003b0: 9534 1f3f 95c5 db3e 47b1 153f 0015 153f
000003c0: 3bd3 973e 0ace d9bd 5f66 113e abc0 8f3e
000003d0: 4c70 bcbe d54a 47be 4bb0 98bd 159b 8fbe
000003e0: 400b f63e 4e63 4f3e a678 633e 9df7 ff3d
000003f0: 4302 bf3e 7fd7 273e 4172 dd3e 83a5 033f
0.26748675 0.5782575 0.33510303 0.55995816 0.15003149 0.25820234 0.505663 0.23903887
0.4561325 -0.07519367 0.1650458 0.6095509 0.37660378 0.1217601 -0.0035655478 0.5701434
-0.22397879 -0.02070048 -0.21828099 0.18995419 0.2723498 -0.02625416 -0.09425632 -0.118325695
-0.33404654 0.2285228 -0.13012852 -0.24989861 -0.12687293 -0.10865461 -0.020120764 0.26434225
0.5952534 0.46421131 0.5412102 0.4353321 0.116660684 0.058629572 0.14453982 0.32118136
0.008646634 -0.13949023 -0.2460815 -0.28343666 0.26440322 0.11231876 0.24072407 -0.27215397
0.44985387 0.123724654 -0.048731465 0.5513557 -0.11001704 0.5260132 0.532712 0.15396681
0.17057772 -0.34179282 -0.11494769 -0.27152944 -0.120941654 -0.22476807 -0.029943949 0.104450144
0.37308204 0.013152995 0.4393969 0.39597222 0.13419808 0.33224872 0.6006422 0.21019255
0.34516332 -0.061569497 0.47247127 0.28465354 0.28140172 0.6077162 0.37808388 0.2737311
0.47746637 0.5763107 0.48213273 -0.029102502 0.48062572 0.15283869 0.65240616 0.56149554
0.5314772 0.18711342 0.3327113 0.30882746 -0.08531353 0.40170997 0.5143138 0.56482404
0.017506436 -0.011978688 0.17237596 0.33475608 0.44811 0.6448209 0.4070654 0.17765205
0.29417717 0.3864093 0.4897209 0.3666566 0.45008275 0.4743599 0.032746952 0.22879432
-0.27105743 -0.10122484 -0.0009335948 -0.21019624 0.14942056 0.27891564 -0.2318786 -0.08351453
0.18848114 -0.2999075 0.1973099 -0.32352084 -0.0031047035 0.2818762 -0.0783106 -0.059646863
0.3397038 0.0335511 0.4662133 -0.014688996 0.19479716 0.50642455 0.14590573 0.41885304
-0.24114184 -0.057994567 -0.00013238325 0.23550373 -0.06186373 -0.29767382 0.08058347 -0.3111294
0.5990733 0.39949822 0.08099659 0.5470665 0.5106728 0.18631826 0.17360735 0.19530691
-0.23411693 -0.12508178 -0.25700954 -0.3305835 -0.27752897 -0.006207725 -0.18170956 -0.29851332
0.15037318 0.45007178 0.033155978 0.17583157 0.5274254 0.6171622 0.26835608 0.21623118
0.25401068 0.2921128 0.56264985 -0.017205521 0.54290015 -0.02684648 0.5360772 0.18269934
-0.041585542 -0.15373503 -0.12110698 -0.30313817 -0.095349796 0.033064812 0.1457311 0.078181535
-0.32612288 -0.14374802 -0.20658632 -0.32572988 -0.07910799 -0.22010976 0.30242187 -0.28198084
-0.027259078 0.4814193 0.3649895 0.20921218 0.4749228 0.2883427 0.5418595 0.4462012
-0.06074271 0.344893 -0.3097689 -0.3500033 -0.19108057 -0.17265499 -0.04453312 -0.15622273
0.4442273 0.23921487 0.39999 0.3991439 0.26625866 0.5282586 0.23549722 0.29944694
0.6030824 0.5888796 0.03268595 0.35874805 0.64609784 0.41552016 0.19123898 0.17453575
-0.15121037 -0.13785066 -0.19831301 0.19490498 -0.10445097 -0.019136354 -0.04713164 -0.12217187
0.38148102 0.5209341 0.53581756 0.027927816 0.6218961 0.4292418 0.5847363 0.5823517
0.29653344 -0.10635002 0.14199208 0.28076681 -0.36804426 -0.1946214 -0.074555 -0.28048006
0.48055458 0.20252725 0.22213992 0.124984 0.37306413 0.16390799 0.4325123 0.51424426

layers.0.bias f4 [64]
00000000: 4802 c13e 605a 5a3e c759 0c3e 24fc be3e
00000010: 4827 0b3f 288a c43c f5cf 7c3e 4835 923e
00000020: 6df5 083f d13e 863d 5c80 1b3f b66e b23e
00000030: 7043 b73e 5be5 133f b498 723d 720e bebd
00000040: 6417 883e 32c3 e5bd 6887 e93e 86ed 9bbe
00000050: 2d6e aa3e 9e3f 4f3e abfa 903e 723d 213e
00000060: 2230 8a3e 4d8f 41be 7d81 d13e 09d0 a03e
00000070: fa66 d83d 01eb 2c3e e318 16be 832f 2b3d
00000080: c64e 92be e6e8 fa3e 3099 d13d 6571 d83e
00000090: b81d 2bbe 9de2 203d af89 cabd 1c28 1c3f
000000a0: 770c f03e d887 ac3e 1ef6 ee3e 723d 263f
000000b0: f491 9e3c b8ab a63e 521e 283e 04d3 193e
000000c0: 6ab7 123e 5514 193f 9ca8 603d 87f3 cbbc
000000d0: 2b97 0e3e 4362 253f 743a a63d a748 4fbc
000000e0: 1730 d73e 0a3f 073e b98b 1b3e 4fa8 703e
000000f0: 3a33 7a3e bddd 88bd f651 c53d a7ce 983d
0.37697053 0.21323538 0.13706122 0.37301743 0.54356813 0.02399166 0.24688704 0.28556275
0.5349949 0.0655495 0.60742736 0.3485009 0.35793638 0.57771844 0.05922766 -0.09280099
0.26580346 -0.11218871 0.4561112 -0.30454654 0.33287182 0.20239112 0.28316244 0.15746096
0.26989847 -0.18902321 0.40919104 0.31408718 0.10566516 0.16886522 -0.14657931 0.041793358
-0.28575724 0.49005812 0.10234296 0.42274013 -0.16710556 0.039278615 -0.09889542 0.609987
0.4688451 0.3369739 0.46672148 0.6493751 0.019356705 0.32552886 0.16417816 0.15021902
0.1432778 0.5979665 0.0548483 -0.024896396 0.13924854 0.6460306 0.08116618 -0.012651599
0.42028877 0.13207641 0.15190019 0.23501705 0.24433604 -0.06682918 0.096347734 0.07461291

layers.2.weight f4 [64, 64]
00000000: 7a31 c73e cd57 c93e f21f 0b3b f42f a4bd
00000010: 8c7a 933e f546 aa3c a6d1 d23e cdc4 d23d
00000020: f81a a93e a30a 9f3e 8e2f 9c3e f8a2 8f3e
00000030: c6cc de3e 8a41 5a3e 5b49 8d3d 3bbb 17bd
00000040: 75d3 cb3e c049 fdbb e7cb c53e 0c15 e6bd
00000050: 59a9 b63e 0720 c03e 63cf 153e 2746 143e
00000060: a177 763e 08c1 d9bd 1915 503e b061 c83e
00000070: 557b 87bc 8380 bc3e 4514 6ebd 3586 863e
00000080: a00a 84bc d4c7 523e c855 303e c4d9 b73e
00000090: 1832 c03c d037 883e 868d 81bd 6d5a 893e
000000a0: f9f3 b43e 0bc6 483e 0e96 6b3e 6b57 c23e
000000b0: 5249 11bb b5f6 b33e 9629 c63e 0581 7a3e
000000c0: 3aa6 c13e c209 b23e d279 b93e fc08 fb3d
000000d0: d936 25bd 9808 823e d39d b63e f279 f83d
000000e0: 93c9 4b3e 5ebf f23d 8544 db3d d6a3 69bd
000000f0: 941a 81bd 3265 d6bd 6705 a83e ba4c 853e
00000100: f4c4 82bd ea39 333c 7b5a edbd 1471 8ebc
00000110: 3874 6dbd eed9 d83b 30a2 d3bd 0b44 c1bc
00000120: fec7 ad3d f404 4cbd 2131 ac3d 48df 87bd
00000130: 64a8 463d 9118 03bc 9450 bc3c 681e 04bd
00000140: 5253 aa3d 9c70 76bd 9cb4 413d 0077 443c
00000150: e405 73bd 3773 5abd e530 8a3d 386e 94bd
00000160: 293a 7bbd ac34 a5bd 475a a0bd 64da 05bd
00000170: 7ee7 86bd d759 5c3d 481f c13d 8d43 68bd
00000180: 04d9 32bd 2ec4 7dbd 3345 953d ca8d ccbc
00000190: ce7c cf3d 697b ab3d f37c 3a3b 3227 e2bd
000001a0: 4873 9f3d 41ca 503d 8b08 7dbd b0b1 fbbc
000001b0: 32c8 61bd cb80 683d 5351 8abd 04bd 093d
000001c0: 75ec e73d 5116 de3d 387c f7bc 28bf e53c
000001d0: ad9a b93c c43d 81bd a500 da3d f038 ccbc
000001e0: f1c4 e5bd 6fb8 413d 564a 86bd 19b8 0abe
000001f0: fa9f 87bd 1c76 e1bd 2913 ffbd c92b bd3d
00000200: abce 763e 1d70 753e 168e 053e f1bc a43d
00000210: 69c6 2c3e 53d8 83bd 29dd 223e ae61 b13d
00000220: 03ad 5b3e 27c7 a83e 0a71 153e 90dd 613e
00000230: 24c5 a13e 8559 a73e 55bb e33d adc8 23bf
00000240: 8d42 5c3e b024 063d 73fb 9b3e a0db ddbc
00000250: 6411 943e 9559 853e e5d2 0c3e 82cc 9b3d
00000260: 1ea0 463e deff b03d ddae c23e e0a9 913e
00000270: a285 f53d 0431 733e 0d75 48bd 65fe ac3e
00000280: 90a4 1cbd c143 8a3e 92b7 eb3d b9ae b63e
00000290: 4985 e63d e74a 503e 7b52 923e f347 a83e
000002a0: 484d 1e3e 643b 983e a462 823e 5cff bf3e
000002b0: 239f 94bd 82fd ee3d 47f4 0c3e 6fa8 143e
000002c0: 0867 933e 0426 5c3e 38ae 603e 14ad 573d
000002d0: a854 803c 7bde 283e fa84 4b3e c017 873b
000002e0: b9e3 bf3e 71cd 8c3c aa33 1d3d 5564 c53d
000002f0: a885 b43d 9e76 98bd 9d4a dc3d cd54 2e3e
00000300: 229c a23d 8a89 fbbd a045 983d f4c0 563d
00000310: 7cd4 6a3d 80e8 2fbd b8f9 34bd 10ba 523c
00000320: 1c78 48bd 886d 223d 8004 173c 7cf0 9fbd
00000330: 0688 ae3d 547a 35bd 380b 4abd e4b2 5abd
00000340: ce4a 88bd 34e8 6fbd a06b 2bbd a8c9 e53c
00000350: ee05 dcbd 3caf 353d 3aad ecbd dc49 b63d
00000360: d844 26bd 3833 b03d 2c47 cfbd 58f4 a4bd
00000370: a26a f1bd 38af eebd 16e2 d7bd 10e6 1a3c
00000380: e670 8f3d 4819 9fbc 2230 a3bd 660a 8abd
00000390: 2a8d b2bd 9c6b 463d f05f 57bc 6439 853d
000003a0: 4827 f3bd 2a53 bd3d 5216 84bd a06a 87bb
000003b0: 88d5 69bd 709f 30bd 40e4 3fbb 146c 57bd
000003c0: 0cc2 773d 5a09 aabd dc84 733d 0cdd 59bd
000003d0: d0ea ef3d c205 f63d b652 89bd 4243 d33d
000003e0: 6038 2b3d ead3 f7bd 80dc 623d 309b e6bc
000003f0: b056 92bc 46f3 8abd e07d e73c a45f 7e3d
0.38904935 0.393248 0.0021228758 -0.08016959 0.28804433 0.020785788 0.41175574 0.10291443
0.33028388 0.31062803 0.3050503 0.28054023 0.43515605 0.21314064 0.06898757 -0.03704379
0.39809766 -0.007729739 0.38632128 -0.11234483 0.35676077 0.37524435 0.14629893 0.14479886
0.24069072 -0.10632521 0.20320548 0.3913703 -0.016538301 0.36816797 -0.0581248 0.26274267
-0.016118348 0.20584041 0.17220223 0.3590833 0.023461387 0.26605082 -0.063258216 0.26826802
0.35342386 0.19606797 0.2300646 0.3795732 -0.0022168946 0.3514916 0.38703603 0.2446328
0.37822133 0.3477307 0.36225754 0.12257573 -0.04033551 0.25397182 0.35667285 0.12132634
0.19901113 0.11852907 0.107064284 -0.05704101 -0.063038975 -0.1046852 0.32816622 0.260351
-0.06385222 0.010939101 -0.115895234 -0.017387904 -0.057972163 0.006617776 -0.10333669 -0.023592016
0.08485411 -0.04980941 0.08407808 -0.066343844 0.048500434 -0.008001463 0.022987641 -0.03225556
0.08316673 -0.060165986 0.047291383 0.011991262 -0.05933179 -0.053332534 0.06747607 -0.07247585
-0.061334763 -0.08066687 -0.07829719 -0.032678977 -0.065871224 0.053796615 0.094297945 -0.056705046
-0.043663993 -0.06195467 0.07288589 -0.024969954 0.101312265 0.08373148 0.0028455823 -0.11042632
0.0778566 0.050974134 -0.061775725 -0.030724376 -0.05512256 0.05676345 -0.067537926 0.033627525
0.113243975 0.108441 -0.0302106 0.028045252 0.022656763 -0.06310609 0.10644654 -0.024929494
-0.11219204 0.04729503 -0.06557147 -0.1354679 -0.0662231 -0.11008856 -0.124548264 0.09236867
0.24102275 0.23968549 0.13042483 0.0804385 0.16872562 -0.06437745 0.15904678 0.08661209
0.21452717 0.3296444 0.14593902 0.22057176 0.3159572 0.32685485 0.11119715 -0.6397808
0.21509762 0.03274983 0.30465278 -0.027082264 0.28919518 0.26044908 0.13752325 0.07607366
0.19397017 0.08642553 0.38024035 0.28449917 0.11988379 0.23749167 -0.048939753 0.33787838
-0.038242877 0.27004817 0.11509623 0.35680178 0.11255891 0.20341073 0.28578553 0.32867393
0.15459168 0.2973281 0.25465882 0.3749951 -0.072569154 0.116694465 0.1376506 0.14517377
0.28789544 0.21498877 0.21941459 0.052655295 0.015665367 0.1649112 0.19874945 0.0041227043
0.37478426 0.017187806 0.03837935 0.096382774 0.088145554 -0.074444994 0.10756419 0.17024536
0.07939936 -0.12282093 0.07435155 0.05243011 0.057331547 -0.04294634 -0.044183463 0.012861744
-0.04894267 0.03965524 0.0092173815 -0.07809541 0.08522038 -0.044306114 -0.049327105 -0.05339326
-0.06654893 -0.058571056 -0.041850686 0.028050259 -0.107433185 0.04435657 -0.11556478 0.08900806
-0.040593 0.08603519 -0.10120997 -0.08054417 -0.11787917 -0.11654514 -0.10541169 0.009454265
0.070039555 -0.019421235 -0.07968165 -0.067402646 -0.08718331 0.048442468 -0.013145432 0.06505087
-0.11872727 0.09244378 -0.0644957 -0.0041325837 -0.057088405 -0.0431208 -0.0029280335 -0.052593306
0.060487792 -0.08302565 0.059452876 -0.053189322 0.11714709 0.12012817 -0.06705229 0.10315563
0.04180181 -0.12100966 0.055386066 -0.028150171 -0.017863601 -0.06784682 0.028258264 0.06210293

layers.2.bias f4 [64]
00000000: 57a8 bb3e 83a9 393d 0464 af3e a0bf e0bb
00000010: 5316 f6bc 2dd9 893c 61f5 edbc cfb6 933e
00000020: 667e ac3e 6abe 7e3e b683 923d 66f6 2a3c
00000030: 3332 7c3c 3554 463d c13b 94bd 745c 60bd
00000040: 710b 9f3e 80ab c2bb e5ff b13e 8303 c23d
00000050: a00b 83bd 2dc8 8f3e d626 ad3d f4ec 3fbd
00000060: 29ec 9a3e 8772 5ebd 2720 533e c9fa 4b3e
00000070: cfcc 00be af45 8e3d 69a0 8fbd 2fc2 48bd
00000080: c4ba 64bd 2a15 f23d 305b 113e ba74 8a3a
00000090: 67ad 1dbb e4e9 5fbc 2098 27bc 05dd ad3e
000000a0: be95 613e 8094 ecbb 3881 ac3c c079 773e
000000b0: 62ef cd3d 501b 06bc 6030 68bc 9eff edbd
000000c0: 9cf1 04be 6db4 853e c026 d7ba 99b8 843e
000000d0: cdbc fcbd 705d 30bd 3028 bdbc 183a 913d
000000e0: 2fa6 8cbd 052c b63d 983b a23e f63c 453e
000000f0: 30c5 c63e 9369 5c3e 347e c93d ef4d d93e
0.3665187 0.045327675 0.34255993 -0.006858781 -0.030039942 0.01682719 -0.02904767 0.2885041
0.33690184 0.24877325 0.07154028 0.0104347225 0.015392828 0.04842015 -0.0723796 -0.05477567
0.31063417 -0.0059408545 0.34765545 0.09473326 -0.06398702 0.2808241 0.08454673 -0.046856835
0.302583 -0.05430844 0.20617734 0.19919886 -0.12578128 0.06946885 -0.07013018 -0.049013313
-0.055842176 0.11820443 0.14194942 0.0010563352 -0.0024059655 -0.013666604 -0.0102291405 0.33957687
0.22029778 -0.007219851 0.02105771 0.24167538 0.10055424 -0.008185223 -0.01417169 -0.11621021
-0.12982792 0.26114216 -0.0016414747 0.25922087 -0.123406984 -0.04305786 -0.023090452 0.07091159
-0.068676345 0.08895115 0.3168609 0.19261536 0.38822317 0.21524648 0.098385245 0.4244227

layers.4.weight f4 [3, 64]
00000000: 31e9 b1bd e255 b73d 5ca4 a6bc b457 433d
00000010: e0c2 9abe 52bb ecbd 7e4b c43c b00f dabd
00000020: b7b7 7c3c a4e3 a6bb 6897 fbbd 777a 32bd
00000030: 3961 83bc 2cb2 9a3d a077 e53b 4834 c53d
00000040: 7e96 a5bd 0cde b4bd 4dfc d7bd d418 b5bd
00000050: bc03 763d 81f6 0b3e 00a1 d93b 501a 413c
00000060: f40f e93d 011c 053e 24f8 ccbd d5b4 d93d
00000070: 7aaf d2bd 9f82 a6bd 8690 ba3d 4ace 153e
00000080: 9697 df3d 5d32 a7ba ac22 babd 62a6 bb3d
00000090: f27b 013e 689a debe b4b1 bd3d e23a bb3c
000000a0: 46dd 7a39 14e1 213d b8e9 af3d a2f6 08bc
000000b0: ce83 ce3d b4de 693d 4058 9abd 01cb 0dbf
000000c0: 40f5 753d cd38 ccbd ee45 b0bd be66 0b3e
000000d0: 2c2f d43d 004e 35ba 2abc 9f3d 3fe7 b13c
000000e0: 10c0 d33a 0889 ac3d 147a 22bd 58e7 e03d
000000f0: 6e1f b6bd 1a6f 443d 40b1 373d ed66 ad3d
00000100: 43a5 b2bd aa11 a3bd 949f 693d 7475 223d
00000110: e238 743d dea5 d2bd 2dba 833d 4e47 06bd
00000120: 2652 d4bb 6d03 7bbd 10fb a93d 82bb edbc
00000130: a257 f6bc f424 ce3d 3aba b33d 5c1e 123d
00000140: 72a9 a2bd 100f 573d 1475 303c c355 1f3d
00000150: 0048 393b b32e 063e 60e2 0a3d 7234 e2bd
00000160: 6d14 41bd 78c9 66bd 8f13 9f3d 79a7 8fbd
00000170: 5b55 a03d 03d6 c23d 1a4d b53c 6ebb bb3d
00000180: 2cce c7bd 00e6 873a 775f e9be 42d3 bd3c
00000190: 00d4 dd3b bbd1 983d 80e0 e13c bc01 54bd
000001a0: e533 7e3c a01b bd3b 5497 2c3d 97bf c13d
000001b0: d691 b8bd f013 57bd d2c0 bfbd 6ae3 2cbc
000001c0: f0fc 4ebd f4a5 e0bd 79d3 19be 4d27 eabc
000001d0: beb0 813d fe9f 913d 28b2 ff3d fea3 10be
000001e0: dc27 353d b6ff 85bd fda5 ec3b 6d16 c23d
000001f0: 2f31 033d 03b9 223d 941e 763d ab12 b33b
00000200: cf7a b5be 2f6a bd3d 42d7 c3be c07f 4ebb
00000210: 8dca 793d f647 9c3d 5550 873c 5a38 b0be
00000220: 075e c5be e3c6 abbe d42e 373d a28f 85bc
00000230: 5d8d 8e3d e0e5 ce3c f162 ba3d 704f 05bd
00000240: 0563 d2be c0d4 fdbb f9fc cebe 5f03 183d
00000250: 9c15 19bd 3c9e c6be 7803 d8bc 58b9 b4bc
00000260: c87c d7be 0c3b 3a3d 4b99 c6be fe18 b2be
00000270: 443e 2cbd 1ed3 003d 107b 5cbd a2ee 123d
00000280: 0475 15bd 4e4f 98bd 185d 6ebd e049 8bbd
00000290: 4a1a 953d ec22 533d 0898 413d 4c11 c7be
000002a0: 60cf cfbe aedc 8ebd e21a f63d 5034 c2be
000002b0: ac2c 483d 1080 993c 6c59 4fbd ad7e 493d
000002c0: c06d d13d 750f aabe f803 713d 9480 8cbe
000002d0: 629b 633c aa64 f93d 42d3 dcbd f9e9 9c3d
000002e0: 8f3a 07be 7bb4 253d 4a4e aebe b01e bebe
000002f0: 04ef aebe 10c0 bebe 008a 7c3a fe71 98be
-0.08687056 0.08951928 -0.020342045 0.047691062 -0.30226803 -0.11559166 0.023961779 -0.106475234
0.01542466 -0.005093055 -0.12284738 -0.043573823 -0.01603757 0.07553515 0.007002786 0.096291125
-0.08085345 -0.088314146 -0.105461694 -0.08842626 0.060062155 0.13668253 0.006641507 0.011786059
0.11379996 0.12998964 -0.100082666 0.10630194 -0.10287376 -0.08130383 0.09109597 0.14629474
0.109175846 -0.0012756098 -0.090886444 0.091625944 0.12644938 -0.43477178 0.0926241 0.022855226
0.00023924289 0.03952129 0.085895 -0.008359583 0.100837335 0.057097152 -0.075363636 -0.55387884
0.06004834 -0.099717714 -0.08607088 0.13613412 0.1036056 -0.0006916225 0.07799561 0.021716712
0.0016155262 0.08424574 -0.039667204 0.10981625 -0.088927135 0.047957517 0.044846773 0.08466897
-0.087229274 -0.079623535 0.05703695 0.039662793 0.05962456 -0.10285543 0.064319946 -0.032782845
-0.0064795194 -0.061282564 0.082998395 -0.029020075 -0.030071083 0.10065642 0.08775754 0.035673484
-0.079424754 0.0525046 0.010770101 0.038900148 0.0028271675 0.13103752 0.033907294 -0.110451594
-0.04713862 -0.05634448 0.077674024 -0.07014365 0.0782878 0.09513476 0.022131491 0.09166609
-0.09756121 0.0010368228 -0.45580646 0.023172025 0.006769657 0.07461878 0.02757287 -0.051759467
0.015515302 0.0057711154 0.042136505 0.09460371 -0.09012191 -0.05250925 -0.093629494 -0.010552267
-0.05053419 -0.10969153 -0.15022077 -0.028583193 0.06332539 0.07110594 0.124851525 -0.14125058
0.044227466 -0.065429136 0.007221936 0.09476934 0.032029327 0.039727222 0.060087755 0.005464872
-0.35445258 0.092487685 -0.38250166 -0.003150925 0.060984183 0.07630913 0.016517797 -0.34417993
-0.385483 -0.33550176 0.044722393 -0.016303841 0.06960557 0.025256097 0.09100903 -0.03254646
-0.4109117 -0.007746309 -0.40427378 0.03711259 -0.037374124 -0.38792598 -0.026368842 -0.022061035
-0.42087388 0.045466468 -0.38788828 -0.34784693 -0.04205157 0.031451337 -0.0538283 0.03587211
-0.036488548 -0.07437001 -0.05819425 -0.068012 0.07280405 0.051546976 0.04726413 -0.38880384
-0.40587902 -0.06975685 0.12016846 -0.37930536 0.048870727 0.018737823 -0.05062239 0.049193073
0.10226011 -0.33214918 0.058841676 -0.27441847 0.013892027 0.12177403 -0.10782482 0.07661814
-0.13205932 0.040455323 -0.34044105 -0.37132788 -0.3416673 -0.37255907 0.0009633601 -0.2977447

layers.4.bias f4 [3]
00000000: 1018 78be e071 9abd 180a 81be
-0.24227929 -0.07541251 -0.25203013
