weights/trained_agent_model_BTC-USD.pth (torch, 28304 bytes, 6 tensors)

layers.0.weight f4 [64, 30]
0.3579665 0.36920783 0.1621674 0.23361512 0.17481026 0.030993812 0.09333672 0.14193983
0.10278984 0.05713259 0.2484773 0.18434925 -0.0867058 0.031918604 0.17007004 -0.013168859
0.25743693 -0.051722176 0.007022162 0.044763617 -0.03196512 0.07154259 0.05759248 -0.007872096
0.16001211 0.17339377 -0.07834382 0.07662718 0.23509541 0.056786235 0.024264839 0.11693026
0.055458307 0.07974916 0.12980878 -0.18324909 -0.1174032 0.048175983 0.07567266 0.112905174
-0.03492115 0.126703 -0.17898938 -0.072003394 -0.1810851 0.13558555 -0.19232309 0.02047518
0.04236604 -0.09339905 -0.17456986 0.022152519 -0.22348163 0.06251027 0.10476427 0.018864201
-0.07681249 -0.07010329 0.06232925 0.078538045 -0.3008195 -0.21718845 -0.30878896 -0.16766681
-0.23748548 -0.07917047 -0.2013377 -0.19221337 -0.1542199 -0.15648194 -0.085770905 -0.22640444
0.09498146 0.026797967 0.07489428 0.038579736 -0.16746506 0.07054436 0.004536149 -0.031274762
-0.11093103 0.012649991 0.002597464 0.11604753 0.08384247 0.12690835 0.20203581 0.2710765
0.25064802 0.18337834 0.13204929 0.38057658 0.27479705 0.25217494 0.24852513 0.042010896
0.10604451 0.27871117 0.13290371 0.12469405 0.0031536818 0.2779863 0.23689388 0.21308285
0.29365945 0.2789054 0.29828832 -0.038994722 0.25941193 -0.046096228 0.267411 0.18509154
-0.049387544 0.17308447 0.111339994 0.042881068 0.06778484 0.228846 0.15820561 0.16170813
-0.22543551 -0.16402248 -0.17063916 -0.14137189 0.058274914 -0.016690208 -0.17321575 0.13362274
-0.16580153 0.15818839 -0.11264365 -0.15418813 0.16176957 0.1405232 -0.012065866 0.07641667
-0.13926396 -0.16896069 -0.09229656 0.18771282 0.01944195 0.13270167 -0.08965553 0.053247407
-0.003259031 0.034025393 0.17522122 -0.05761724 0.15566757 -0.049749356 -0.07457684 0.119472064
0.09480697 -0.114401676 0.16397822 -0.026472598 -0.053316418 0.045629974 -0.15422669 0.008139109
-0.0013170252 -0.17160985 -0.106672585 0.033185393 0.09838245 0.009885002 -0.16345938 -0.007742064
-0.03004886 -0.018082457 0.10354345 0.08303012 -0.036937278 -0.0132920025 0.11660183 0.15603751
-0.018846683 -0.16314906 -0.028769784 0.03217155 0.1313137 0.3386816 0.20195699 0.2392332
0.24404213 0.10604324 0.018302558 0.0018464661 0.15347521 0.13770844 -0.014008106 0.070327096
-0.05963345 -0.016261179 0.23033775 0.20272201 -0.039095264 0.1595167 0.24399702 0.27974245
0.27620396 0.19029614 0.08732013 0.24516128 0.13025336 0.12842976 0.20916165 0.19720566
0.17939925 0.26881889 0.20671485 0.27510044 0.31097192 0.042455003 0.06545626 0.3030294
0.19887814 0.1739076 0.27795562 0.016763018 -0.060203433 0.16202986 -0.03786121 -0.041235007
0.2020569 0.25075948 0.26715195 0.21121468 0.010804301 0.21994467 0.12597941 0.19135477
0.06512494 0.27256316 0.031887807 0.03352949 0.20045543 0.26505825 0.26963684 0.13336128
0.08904155 0.025663532 -0.21398689 -0.049447928 -0.029324315 -0.056827202 -0.09790531 0.084443174
-0.15424587 -0.23811014 0.109175384 -0.09194754 -0.10675855 0.04777492 -0.23024099 -0.13434301
00000000: 6347 b73e cf08 bd3e 360f 263e cd38 6f3e
00000010: 7601 333e bce6 fd3c 5227 bf3d ad58 113e
00000020: 7b83 d23d dd03 6a3d d570 7e3e 0dc6 3c3e
00000030: cf92 b1bd 15bd 023d d726 2e3e 33c2 57bc
00000040: c6ce 833e a2da 53bd 2a1a e63b 0e5a 373d
00000050: dced 02bd ec84 923d 18e6 6b3d f7f9 00bc
00000060: 37da 233e 238e 313e ba72 a0bd b6ee 9c3d
00000070: dabc 703e af98 683d 0ec7 c63c 2279 ef3d
00000080: 4028 633d 8753 a33d 98ec 043e a6a5 3bbe
00000090: 1771 f0bd 2e54 453d 44fa 9a3d d43a e73d
000000a0: 7b09 0fbd 6ebe 013e fe48 37be 8476 93bd
000000b0: 5f6e 39be f0d6 0a3e 58f0 44be 91bb a73c
000000c0: 0388 2d3d 0048 bfbd 71c2 32be 3379 b53c
000000d0: 5ed8 64be 6205 803d a68e d63d 1989 9a3c
000000e0: de4f 9dbd 5092 8fbd f54c 7f3d 8ed8 a03d
000000f0: 0305 9abe a666 5ebe 9619 9ebe d9b0 2bbe
00000100: 652f 73be 2124 a2bd 782b 4ebe 95d3 44be
00000110: d2eb 1dbe cd3c 20be a8a8 afbd 91d6 67be
00000120: a485 c23d 6987 db3c 2c62 993d c905 1e3d
00000130: f67b 2bbe 9079 903d faa3 943b f719 00bd
00000140: cf2f e3bd e841 4f3c 373a 2a3b 54aa ed3d
00000150: 9ab5 ab3d 43f4 013e 7ae2 4e3e 8aca 8a3e
00000160: f054 803e 88c7 3b3e ee37 073e efda c23e
00000170: 33b2 8c3e 131d 813e 5f7d 7e3e 9e13 2c3d
00000180: dd2d d93d 3bb3 8e3e e917 083e 985f ff3d
00000190: 00ae 4e3b 3854 8e3e 4f94 723e 6432 5a3e
000001a0: 885a 963e b0cc 8e3e 3fb9 983e eeb8 1fbd
000001b0: a4d1 843e 66cf 3cbd 18ea 883e a388 3d3e
000001c0: 984a 4abd 0e3d 313e 3906 e43d 0fa4 2f3d
000001d0: c7d2 8a3d 9b56 6a3e a700 223e d196 253e
000001e0: 91d8 66be 82f5 27be 08bc 2ebe cbc3 10be
000001f0: adb1 6e3d e7b9 88bc 785f 31be 66d4 083e
00000200: e0c7 29be 23fc 213e b7b1 e6bd 7ee3 1dbe
00000210: eca6 253e 50e5 0f3e e9af 45bc 5880 9c3d
00000220: 369b 0ebe 0804 2dbe fb05 bdbd ca37 403e
00000230: b944 9f3c f2e2 073e 529d b7bd f419 5a3d
00000240: 7895 55bb 365e 0b3d 316d 333e 0e00 6cbd
00000250: 5267 1f3e fbc5 4bbd bebb 98bd c5ad f43d
00000260: 282a c23d 6d4b eabd e8e9 273e 10dd d8bc
00000270: 5162 5abd 7fe6 3a3d 9aed 1dbe e659 053c
00000280: 08a0 acba 7eba 2fbe 2877 dabd 68ed 073d
00000290: bd7c c93d b4f4 213c e561 27be 24b1 fdbb
000002a0: 0729 f6bc a921 94bc 970e d43d b20b aa3d
000002b0: 8b4b 17bd b3c6 59bc f1cc ee3d 4cc8 1f3e
000002c0: 5c64 9abc 8c10 27be 9cae ebbc 51c6 033d
000002d0: 1977 063e ad67 ad3e d0cd 4e3e 8cf9 743e
000002e0: 2ee6 793e 332d d93d 3fef 953c 1f05 f23a
000002f0: 9b28 1d3e 7103 0d3e 4182 65bc a707 903d
00000300: 3442 74bd 2a36 85bc a9dd 6b3e 5c96 4f3e
00000310: 5b22 20bd 5958 233e 5bda 793e 673a 8f3e
00000320: 9b6a 8d3e fedc 423e e5d4 b23d 8f0b 7b3e
00000330: 2361 053e 1783 033e 792e 563e 48f0 493e
00000340: 70b4 373e a1a2 893e 0fad 533e f7d9 8c3e
00000350: b637 9f3e 4ce5 2d3d ef0d 863d ab26 9b3e
00000360: b6a6 4b3e d514 323e 3350 8e3e 9952 893c
00000370: e097 76bd 28eb 253e 5b14 1bbd 0ae6 28bd
00000380: 01e8 4e3e 8c63 803e 24c8 883e a948 583e
00000390: 8604 313c 2d39 613e bf00 013e 81f2 433e
000003a0: 3960 853d 668d 8b3e ca9c 023d 3856 093d
000003b0: 3044 4d3e b7b5 873e d70d 8a3e dc8f 083e
000003c0: 6b5b b63d 543c d23c 611f 5bbe e989 4abd
000003d0: 8c39 f0bc a4c3 68bd 9482 c8bd 8bf0 ac3d
000003e0: a1f2 1dbe 25d3 73be 5897 df3d fe4e bcbd
000003f0: 3aa4 dabd a2af 433d 4bc4 6bbe 3791 09be

layers.0.bias f4 [64]
-0.37956434 -0.3041638 0.55347985 -0.5091312 0.26223204 -0.23020594 -0.28259197 -0.44307896
0.33088326 -0.5370249 -0.009630744 -0.30254865 -0.17402893 -0.075514026 0.25740126 0.4400022
-0.17326656 -0.48630622 -0.421385 -0.13760029 -0.5371828 -0.5152096 0.09697908 -0.51655895
0.30891895 -0.60289687 0.15704945 -0.44991332 0.31505162 0.2685397 -0.6025086 -0.61574185
-0.5387305 0.326011 -0.6181962 0.287987 -0.023886442 -0.4940504 -0.29003152 0.08055095
-0.58593076 -0.53111994 0.0606424 0.19694081 0.30073583 0.14299119 -0.57886475 0.020506993
0.14560305 -0.38324755 0.33854157 -0.008684453 -0.049459282 0.5665202 -0.31774634 0.2078354
0.4224366 -0.4806566 -0.5809143 0.30730033 0.32919988 0.55184925 0.37791792 0.07754118
00000000: 4256 c2be 5cbb 9bbe dbb0 0d3f 6c56 02bf
00000010: 4743 863e 1bbb 6bbe e5af 90be 3fdb e2be
00000020: 8869 a93e 777a 09bf 45ca 1dbc a8e7 9abe
00000030: a434 32be 19a7 9abd 19ca 833e f847 e13e
00000040: ca6c 31be 21fd f8be c6bf d7be 17e7 0cbe
00000050: d084 09bf c7e4 03bf f89c c63d 353d 04bf
00000060: a02a 9e3e 7357 1abf 92d1 203e 0a5b e6be
00000070: 724e a13e 097e 893e 013e 1abf 42a1 1dbf
00000080: 3eea 09bf eaea a63e 1b42 1ebf 0873 933e
00000090: 80ad c3bc 2df4 fcbe 037f 94be e5f7 a43d
000000a0: 8fff 15bf 7af7 07bf 2a64 783d daaa 493e
000000b0: 0cfa 993e 486c 123e 7b30 14bf 48fe a73c
000000c0: f718 153e 0639 c4be 5255 ad3e 3c49 0ebc
000000d0: d195 4abd 7807 113f a6af a2be ced2 543e
000000e0: 9c49 d83e 9f18 f6be cdb6 14bf 7856 9d3e
000000f0: e38c a83e fe45 0d3f 757e c13e e9cd 9e3d

layers.2.weight f4 [64, 64]
-0.08271032 0.08106215 0.01267685 0.095377654 0.07831851 -0.0816316 0.007301359 0.11553451
-0.08249839 0.08712402 -0.0644542 -0.11879537 -0.11049853 0.007837191 0.119164646 0.11521372
0.09997402 -0.12728357 0.04590491 0.03337413 -0.09653985 -0.054148547 -0.06882192 -0.121850476
0.09587331 0.110342145 -0.086933285 -0.05037791 0.01314798 -0.0012051463 -0.058690418 -0.018219171
-0.13208227 -0.004155904 0.056371916 -0.114273354 0.050098464 -0.03869644 -0.0515288 0.06837067
-0.12389791 0.07365451 -0.017281368 -0.12214056 0.005256355 0.074542075 0.030825812 -0.05144143
-0.051798776 0.050234567 -0.09400073 -0.0519649 0.10147819 -0.065342605 0.10320173 -0.056750655
-0.08641185 -0.11918029 0.04385839 -0.026701353 -0.057692423 -0.10843246 0.02626045 -0.05873309
-0.10445297 -0.00089311315 -0.12743738 -0.13808516 0.008544258 0.04675823 -0.015976567 -0.07543238
-0.06460579 0.07063715 0.0016695112 -0.06599629 -0.074567966 0.1098023 -0.029632162 0.09965954
0.031965442 0.04118748 0.10134987 -0.060674414 -0.08696011 0.0134868985 -0.047875755 -0.08719851
-0.10693294 -0.07893176 0.12017396 0.05611096 0.0018727242 -0.019333147 0.010259835 -0.0008588631
0.055835404 -0.0782544 0.08972106 -0.04726638 -0.008783132 0.064664975 -0.11157653 0.04330746
0.067932285 -0.12627086 0.085805245 -0.07656921 -0.1416291 0.10315518 0.029068036 0.0010247827
-0.060703352 -0.052027807 -0.10558936 0.11591584 0.032895565 0.060140193 -0.079306155 0.042729937
0.06909193 -0.109797865 0.08436959 -0.034440104 0.015226018 -0.09983369 0.06946901 0.07503669
0.10192909 -0.08358269 0.08540602 0.036350936 -0.05205972 -0.1853325 -0.044074263 0.019397924
0.012854859 0.016242022 -0.095577136 -0.05030145 0.04136248 0.012772811 -0.15272938 -0.052512627
0.0124299675 0.076888815 -0.11148927 0.12232298 -0.12983921 -0.009194599 -0.16233714 0.032415926
-0.00019267201 -0.023041924 0.06899594 -0.03118158 0.010469972 -0.27057964 -0.12811834 -0.11008376
-0.094098665 0.0563054 0.08557682 -0.14257488 -0.10394021 -0.016630122 0.10923965 -0.08154724
0.024027858 0.04837043 0.08882599 0.07940295 0.022570034 0.09109433 0.020943586 0.081330135
0.014876851 0.1095028 0.069327146 0.12388547 -0.035512105 -0.0153680835 0.10901024 -0.12785079
-0.123717956 -0.06495156 -0.11526829 -0.057753462 -0.19207071 -0.042411026 -0.13348341 0.08532758
-0.10137971 -0.046340536 -0.13251598 -0.08263529 -0.35287306 0.005090097 -0.10309456 0.006941234
0.0005800724 -0.09009631 -0.0023513287 -0.0066821766 -0.097405024 0.029592954 -0.27140352 -0.08056481
0.11190735 0.107528836 0.033593036 -0.120055065 0.10580437 0.0773026 -0.210262 -0.013949164
-0.042958383 -0.012230678 -0.07583277 -0.068852805 -0.02776603 -0.31218666 -0.044183467 -0.040348582
0.105085604 0.09095726 0.045380272 -0.22079098 0.10399021 -0.08746235 0.110031195 -0.12541893
-0.13989657 -0.018708896 -0.08666495 -0.14301205 -0.094121635 0.025438413 0.015331327 0.050037336
0.050147668 0.0018479609 -0.10806312 0.10445364 -0.055848897 -0.14041246 0.043676432 -0.07373827
-0.040491454 -0.015844455 -0.011447599 -0.041506678 -0.25321501 -0.12186548 -0.090075575 -0.010663047
00000000: 0764 a9bd ea03 a63d 90b2 4f3c 5c55 c33d
00000010: 7465 a03d 782e a7bd 3d40 ef3b 5b9d ec3d
00000020: eaf4 a8bd 146e b23d 9000 84bd fd4a f3bd
00000030: 0e4d e2bd 9067 003c 980c f43d 2cf5 eb3d
00000040: 2ebf cc3d a056 02be c906 3c3d 50b3 083d
00000050: afb6 c5bd deca 5dbd 82f2 8cbd be8c f9bd
00000060: 3a59 c43d 10fb e13d 140a b2bd 1159 4ebd
00000070: a06a 573c 00f6 9dba 5d65 70bd 5f40 95bc
00000080: 9340 07be 402e 88bb 3de6 663d 2608 eabd
00000090: 0c34 4d3d 2980 1ebd dd0f 53bd ec05 8c3d
000000a0: 30be fdbd 2dd8 963d a891 8dbc d424 fabd
000000b0: 803d ac3b 84a9 983d 6a86 fc3c 40b4 52bd
000000c0: f42a 54bd c3c2 4d3d 7483 c0bd 26d9 54bd
000000d0: ccd3 cf3d 58d2 85bd 6e5b d33d 6073 68bd
000000e0: b2f8 b0bd cc14 f4bd dba4 333d ccbc dabc
000000f0: e44e 6cbd d611 debd 2820 d73c 1c92 70bd
00000100: 70eb d5bd cf1f 6aba f27e 02be 3266 0dbe
00000110: 37fd 0b3c 8f85 3f3d 4ae1 82bc 4b7c 9abd
00000120: 0a50 84bd 36aa 903d 80d3 da3a 1029 87bd
00000130: 17b7 98bd 07e0 e03d 26bf f2bc 4d1a cc3d
00000140: 32ee 023d 34b4 283d 8590 cf3d bc85 78bd
00000150: 2418 b2bd 27f8 5c3c 5e19 44bd 2295 b2bd
00000160: a8ff dabd f9a6 a1bd c41d f63d 9bd4 653d
00000170: 3276 f53a 8c60 9ebc de18 283c 5425 61ba
00000180: aab3 643d d843 a0bd adbf b73d 649a 41bd
00000190: 20e7 0fbc 126f 843d 3c82 e4bd 2a63 313d
000001a0: 1520 8b3d 264d 01be a9ba af3d 51d0 9cbd
000001b0: 3807 11be 0643 d33d 1720 ee3c 0052 863a
000001c0: 14a4 78bd 1c1b 55bd 3c3f d8bd 4965 ed3d
000001d0: 80bd 063d 9055 763d 446b a2bd 9605 2f3d
000001e0: 1280 8d3d b4dd e0bd f7c9 ac3d 1111 0dbd
000001f0: 8c76 793c 9b75 ccbd c545 8e3d d6ac 993d
00000200: 33c0 d03d 672d abbd 5ae9 ae3d b8e4 143d
00000210: 933c 55bd cec7 3dbe 3787 34bd 65e8 9e3c
00000220: 309d 523c fd0d 853c f2bd c3bd e508 4ebd
00000230: b46b 293d 0d45 513c 1765 1cbe 7b17 57bd
00000240: 10a7 4b3c e277 9d3d 7d54 e4bd 7884 fa3d
00000250: 92f4 04be f2a4 16bc b53b 26be 90c6 043d
00000260: 0008 4ab9 6bc2 bcbc be4d 8d3d 8370 ffbc
00000270: 3f8a 2b3c 6a89 8abe 7431 03be 9873 e1bd
00000280: cdb6 c0bd 7ea0 663d e642 af3d 26ff 11be
00000290: 9bde d4bd e53b 88bc 0ab9 df3d 3d02 a7bd
000002a0: 12d6 c43c 1220 463d 67ea b53d 049e a23d
000002b0: cbe4 b83c aa8f ba3d e291 ab3c 6a90 a63d
000002c0: 09be 733c 0143 e03d 64fb 8d3d aab7 fd3d
000002d0: 2475 11bd 6aca 7bbc c340 df3d 51eb 02be
000002e0: d75f fdbd 5305 85bd c811 ecbd e58e 6cbd
000002f0: 2fae 44be 2fb7 2dbd e0af 08be 3ac0 ae3d
00000300: 2aa0 cfbd 93cf 3dbd 45b2 07be b13c a9bd
00000310: c7ab b4be d4ca a63b 3e23 d3bd 4b73 e33b
00000320: 0010 183a 6a84 b8bd c018 1abb 29f6 dabb
00000330: 497c c7bd ec6c f23c 67f5 8abe 2aff a4bd
00000340: ae2f e53d 1438 dc3d da98 093d 6edf f5bd
00000350: f6af d83d d350 9e3d ec4e 57be 098b 64bc
00000360: 21f5 2fbd 2f63 48bc 364e 9bbd b302 8dbd
00000370: 9675 e3bc eed6 9fbe b9f9 34bd 8e44 25bd
00000380: 1f37 d73d cd47 ba3d aae0 393d 0817 62be
00000390: d2f8 d43d 761f b3bd 0958 e13d d26d 00be
000003a0: 0c41 0fbe 6643 99bc 657d b1bd c071 12be
000003b0: d8c2 c0bd 3864 d03c 3f30 7b3c f3f3 4c3d
000003c0: a467 4d3d 4737 f23a 3250 ddbd caeb d53d
000003d0: d0c1 64bd 49c8 0fbe 0fe6 323d 1704 97bd
000003e0: 5eda 25bd 3bcc 81bc b68e 3bbc e802 2abd
000003f0: 66a5 81be 9c94 f9bd 8b79 b8bd 10b4 2ebc

layers.2.bias f4 [64]
0.08703546 -0.007678528 0.07351755 -0.12676187 -0.11239905 -0.06445586 -0.070075676 0.047493976
0.125082 -0.2588929 0.18985029 -0.26501808 -0.047861535 0.10620401 -0.122234024 -0.071909755
-0.01843007 -0.15995984 0.00338747 -0.14182931 -0.14534643 0.035490897 0.11857823 0.070626654
-0.04269036 -0.15378821 -0.040023718 -0.40286568 -0.37552482 -0.24990919 -0.29698604 -0.23533031
-0.1730563 -0.034182597 0.18500488 -0.22531013 0.15277961 0.079687014 0.07565393 -0.07898182
-0.35161346 0.0064697117 -0.2628119 -0.051951516 0.06861739 -0.01679476 0.06106822 -0.17363259
-0.12245483 -0.021657318 -0.097610824 -0.33852512 -0.08407253 0.09248897 -0.29206502 -0.13979043
-0.40611967 0.11676705 0.019591555 0.0088013755 -0.015279387 0.022795638 0.07586499 -0.020148167
00000000: a63f b23d 299c fbbb 5f90 963d ddcd 01be
00000010: 7931 e6bd 6f01 84bd d683 8fbd 0b89 423d
00000020: 7f15 003e 9c8d 84be 1d68 423e 73b0 87be
00000030: 750a 44bd 7d81 d93d d555 fabd 6c45 93bd
00000040: a8fa 96bc 83cc 23be 5100 5e3b b43b 11be
00000050: b2d5 14be e75e 113d 25d9 f23d b5a4 903d
00000060: 16dc 2ebd a87a 1dbe e9ef 23bd 6944 cebe
00000070: ca44 c0be 32e8 7fbe 8e0e 98be 6efa 70be
00000080: ac35 31be 0d03 0cbd eb71 3d3e b3b7 66be
00000090: 4272 1c3e f232 a33d 73f0 9a3d 38c1 a1bd
000000a0: ae06 b4be e0ff d33b 488f 86be 1dcb 54bd
000000b0: 4687 8c3d 2a95 89bc ab22 7a3d becc 31be
000000c0: 99c9 fabd b06a b1bc 2fe8 c7bd 2a53 adbe
000000d0: 382e acbd db6a bd3d 8c89 95be 3925 0fbe
000000e0: ebee cfbe 9023 ef3d 787e a03c a533 103c
000000f0: 6556 7abc ebbd ba3c 1b5f 9b3d c50d a5bc

layers.4.weight f4 [3, 64]
0.004679526 0.068058714 0.06826237 0.10841702 -0.024715858 0.029765414 0.10242205 -0.00914517
0.073621824 0.17574503 -0.006030365 0.117002785 -0.101054266 0.18303354 -0.08498872 0.023495764
0.102244735 0.02676271 -0.022286415 0.08869822 0.0060884706 0.090365484 0.10111592 -0.011096646
-0.010901167 -0.0559017 0.03974928 0.123103596 0.21364187 0.171505 0.16299747 0.16767691
0.025028354 -0.055535935 -0.05664804 0.1672439 -0.10091702 -0.031283733 0.0020804103 0.06396845
0.10138001 0.034769103 0.16803099 -0.018397566 0.09230532 -0.03854613 0.034064613 0.17925157
0.037340432 -0.008307949 0.029880445 0.16442293 -0.13887823 -0.036381423 0.19316547 0.04388684
0.12483531 0.010563158 -0.020152805 0.09375169 -0.021389047 0.10812861 0.08726525 -0.003868999
0.06876487 -0.07547231 -0.01706146 0.1215089 0.08147306 0.04494914 0.13367487 -0.05307667
0.008307954 0.07055423 0.079349086 0.065150805 -0.109896824 0.27347082 -0.09074631 -0.09004521
0.0069102794 0.04044326 0.018263979 0.08545221 0.022836225 -0.073456064 0.115196474 0.04744672
0.05837907 0.30469725 0.06636492 0.082007535 0.06495886 0.08778822 0.10506671 0.25037733
-0.04786879 -0.031340398 -0.07313872 0.19792405 0.17528814 -0.012825139 0.4587058 0.072952166
0.24719967 -0.03597136 0.3443566 -0.06019986 0.06055047 0.02818286 0.11533332 0.16499375
0.109695494 -0.05238369 0.029066458 0.25944674 -0.047283713 -0.105402276 0.048042964 0.047154244
0.053486723 -0.12120973 0.019232543 -0.012294438 0.020106405 -0.047388718 -0.007140577 0.021558633
0.002314009 -0.00974408 0.0064578676 0.06280885 -0.101991065 0.01127885 -0.034956753 0.0799768
-0.11248322 0.11440287 -0.12706965 0.23961271 0.04193559 -0.08083719 -0.0071786353 -0.11720404
0.071973205 0.037943896 0.12220006 0.01883012 0.025637154 0.087793745 0.0026475978 0.038865976
0.05209589 0.038100377 0.09769742 0.11203081 0.1236242 0.22400495 0.14491932 0.29826522
-0.10164945 0.08343471 -0.36733738 0.1816365 0.00829428 0.045053422 0.10390113 -0.03210972
0.31078634 -0.061582536 0.1468471 0.012033182 -0.0152127 0.07856789 0.1283728 0.07971667
0.1504541 0.07509142 -0.0743512 0.11435347 0.12157582 -0.08659666 0.13609006 0.07224428
0.16662972 -0.035150245 -0.31980538 0.107986294 0.066082 -0.0038140952 0.11695513 -0.09753253
00000000: b656 993b 5e62 8b3d 24cd 8b3d be09 de3d
00000010: e978 cabc 99d6 f33c a7c2 d13d a0d5 15bc
00000020: 0ac7 963d 81f6 333e 5e9a c5bb 289f ef3d
00000030: 8af5 cebd 256d 3b3e 910e aebd 307a c03c
00000040: b065 d13d 793d db3c 0092 b6bc 6aa7 b53d
00000050: cb81 c73b 8a11 b93d dd15 cf3d b5ce 35bc
00000060: cf9a 32bc 2ef9 64bd 24d0 223d bd1d fc3d
00000070: efc4 5a3e 029f 2f3e cfe8 263e 7fb3 2b3e
00000080: 4308 cd3c a679 63bd c607 68bd fc41 2b3e
00000090: 95ad cebd 5f23 00bd 7e57 083b e401 833d
000000a0: 53a0 cf3d 0c6a 0e3d 5110 2c3e 7eb6 96bc
000000b0: 920a bd3d 8ce2 1dbd 5687 0b3d b98d 373e
000000c0: 48f2 183d 101e 08bc d6c7 f43c 7c5e 283e
000000d0: 1836 0ebe b004 15bd 2bcd 453e b0c2 333d
000000e0: a8a9 ff3d 1911 2d3c 7f17 a5bc e300 c03d
000000f0: 1538 afbc 8872 dd3d 20b8 b23d 088f 7dbb
00000100: 99d4 8c3d 3a91 9abd 7ac4 8bbc a8d9 f83d
00000110: 59db a63d 971c 383d 11e2 083e ec66 59bd
00000120: 161e 083c bc7e 903d c681 a23d c96d 853d
00000130: 9611 e1bd 5e04 8c3e 34d9 b9bd a069 b8bd
00000140: a06f e23b d5a7 253d 579e 953c 9101 af3d
00000150: 0913 bb3c 2270 96bd 21ec eb3d 7e57 423d
00000160: e41e 6f3d 4701 9c3e 55ea 873d 91f3 a73d
00000170: 2709 853d 4fca b33d 372d d73d 7531 803e
00000180: 1012 44bd ca5e 00bd c1c9 95bd 9aac 4a3e
00000190: bc7e 333e 8820 52bc 7ddb ea3e f267 953d
000001a0: e921 7d3e b456 13bd 824f b03e 2194 76bd
000001b0: c503 783d bedf e63c e033 ec3d 1ff4 283e
000001c0: 08a8 e03d 4890 56bd c81c ee3c 34d6 843e
000001d0: 91ac 41bd 26dd d7bd b3c8 443d cf24 413d
000001e0: e514 5b3d cf3c f8bd 918d 9d3c 9c6e 49bc
000001f0: 30b6 a43c ac1a 42bd 80fb e9bb bb9b b03c
00000200: a1a6 173b a2a5 1fbc 859c d33b eda1 803d
00000210: b1e0 d0bd edca 383c d02e 0fbd e0ca a33d
00000220: 9a5d e6bd 0d4c ea3d 8c1e 02be 095d 753e
00000230: a7c4 2b3d f88d a5bd c23a ebbb ac08 f0bd
00000240: b066 933d 0f6b 1b3d 0644 fa3d a041 9a3c
00000250: 0205 d23c 35cd b33d 5283 2d3b ee31 1f3d
00000260: 8062 553d 240f 1c3d 9615 c83d 6970 e53d
00000270: af2e fd3d 8e61 653e bb65 143e 38b6 983e
00000280: 962d d0bd d1df aa3d a513 bcbe ebfe 393e
00000290: bbe4 073c f089 383d 1eca d43d 7b85 03bd
000002a0: 631f 9f3e f83d 7cbd 165f 163e d326 453c
000002b0: b03e 79bc 34e8 a03d 2974 033e 7e42 a33d
000002c0: a410 1a3e 88c9 993d 7145 98bd 2732 ea3d
000002d0: befc f83d 9759 b1bd 315b 0b3e cff4 933d
000002e0: fba0 2a3e b4f9 0fbd 88bd a3be eb27 dd3d
000002f0: 0056 873d e6f5 79bb 2c86 ef3d 23bf c7bd

layers.4.bias f4 [3]
-0.26128334 -0.12828249 -0.09143335
00000000: eec6 85be 7c5c 03be 6941 bbbd
