weights/trained_agent_model_BTC-USD.pth (torch, 27831 bytes, 6 tensors)

layers.0.weight f4 [64, 30]
00000000: 3480 903e 741b 3c3d b0c7 843e 1845 163c
00000010: 692d b9bd 36ea 85bc dbfc 5b3d 11d8 713e
00000020: 8037 243e 58a3 6b3e ca9c 373e 64d8 e4bd
00000030: 91ad 0f3e a198 073e 461f 753d b05d 39bb
00000040: ab08 283e 6854 5e3c cf67 7e3d 5c35 343e
00000050: a7c8 93bd 65f5 dc3d 48b7 ffbd 8147 34be
00000060: 3101 2fbe 4050 38bd de72 9c3d a309 eebd
00000070: de5e 70bd 136c 343d 1a6f f33d 72cf 1ebe
00000080: 7fca 31be 806b 85bd 51d7 77bd 60ba b5bd
00000090: f6b1 ec3d 419a d6bc 7358 273e 34fb 12be
000000a0: e66f 7b3c 1b3a e4bd 4850 0abe 4438 6f3c
000000b0: 9844 0fbd dc88 1abd 9321 0dbd 1b94 5b3d
000000c0: bb5b 2d3d f2b1 bf3c 6d4d 3f3e 5878 43bd
000000d0: 9e69 12be 6633 313e 4789 17be 1635 a23d
000000e0: d7f1 17be 8049 653d e80a 033e 65ab 17bd
000000f0: 7029 a03d ec88 e73d 0c54 f23d d1bb 8dbc
00000100: f91e 263e 81d7 683d fc70 583e b62d 04be
00000110: 0c0d d03b 7d9e 4a3d 0715 863a d996 713d
00000120: d51a 113e f0ad 5a3d c903 273e 6d65 22be
00000130: 84c1 2b3e 1a17 123e b37a 20be 25fc 0ebc
00000140: 5c59 563d 1810 4ebe b62c 80bc 54a7 15bd
00000150: e788 afbd d994 0f3e de3b b63d 697f 2fbe
00000160: 3df3 fabd f164 10be 68dd 9c3c 7e6f 7abd
00000170: 6054 10bc 0b2e 08be 2400 d33d 6056 03bd
00000180: 3485 373d 4fad 2dbe 40ed 60bb 4071 36be
00000190: ac5b 1e3e d08b 703d 42d2 86bd 785a 89bc
000001a0: ca52 31be 943c 233e 70a3 16bd 3821 373e
000001b0: a291 cbbd 103b 593c 04d3 22bd 2066 d2bb
000001c0: 98e8 1d3e 386a 05be d562 cdbd 0acf e1bd
000001d0: c8fc b2bd d869 cabc 561c 2abe 4619 193e
000001e0: 78d5 aabc a463 863d 47ca c4bd 6cbb 913d
000001f0: 705b 9d3d 20e8 27bd 8ecb 003e 5c64 043d
00000200: abf8 1dbe e1a9 2cbe acbe 193e f8b2 d93d
00000210: dc30 0cbe aaf7 0a3e a44e 813d fc70 c33d
00000220: d0a9 06be 0883 05bd 2cff 36bd 2a71 1ebe
00000230: 548b 5a3d 5c83 1cbe 5853 d93c 309e d93c
00000240: 5d97 a2bd e3c7 1fbe bc9b 883d 66b7 26be
00000250: 953a 9bbd e048 0ebe 9481 683e 24cb 6b3e
00000260: 2577 ff3d 5901 02bd 8718 403e 3667 cbbd
00000270: c88a 62bd 3930 9ebd 1492 ea3c ae38 2d3e
00000280: f784 05be 7994 583e deee a7bd 5af9 61bd
00000290: d9ba 463d 671e 9bbd 85f0 b5bd f7bb fabd
000002a0: d8f6 febd a6bb 64bc d147 92bd d72e e33c
000002b0: 440c e53d 7488 1c3e a4a5 063e 1c19 a93d
000002c0: 50e9 183e e81a 7dbd 0241 c43d 4830 603d
000002d0: 006f d6bb 58e3 13be 4bef d6bd 6eca 353e
000002e0: 280e ab3c b4d7 05be 87f7 05be 9074 8fbc
000002f0: 4ca0 0c3d c470 643d a83c 2e3d 1452 bebd
00000300: 246c 0e3e 1c41 66bd 45ac 30be 4342 1dbe
00000310: 60a7 dc3d 5192 cebd 5880 4f3d d17c 07be
00000320: f4c9 b03d 4bac 8abd 4687 a1bd 4d8e 31be
00000330: ecf4 273e f211 0abe 1016 50bc 0040 a1b7
00000340: f2b2 97bd d79a 16be 9102 783e b9e2 943e
00000350: 4469 98bc d4a3 5b3e c4b5 eb3c 763f 6e3d
00000360: 0d79 b33c f7ea 9c3e b2e6 c13b d79c 7b3e
00000370: 8f63 9a3e b9af 8d3e bbaf 0d3e 6ab5 a33e
00000380: c5df 183d fc1e d63d f996 bb3d 090f c53d
00000390: abb0 d73d 5f52 153e 3e91 a93e a5db 8f3e
000003a0: c340 8f3e 4eb1 3b3e 4dd7 803e cd62 873d
000003b0: 4438 753e 7714 f73d dc50 ae3e c86c 333e
000003c0: fa1c a2bd 1448 c9bd c6ba 383d 4722 53be
000003d0: 0d5f b43c 5739 f13c 6240 37be 8776 be3d
000003e0: 00d9 0ebe 418d 52be e0ec 5fbe 52f4 05be
000003f0: 1f4e 4fbe 228c 18be 8891 553c 1fad 38be
0.2822281 0.04592462 0.259336 0.009171747 -0.090418644 -0.016347032 0.05370794 0.23617579
0.16036797 0.2301153 0.17930904 -0.11174086 0.14031054 0.13241817 0.059844278 -0.0028284602
0.16409557 0.013569929 0.06211072 0.1759848 -0.07216006 0.10788993 -0.1248613 -0.17605402
-0.17090298 -0.044998407 0.07639097 -0.11622932 -0.058684222 0.04404838 0.11886425 -0.15508822
-0.17362402 -0.065146446 -0.060508076 -0.08873439 0.11557381 -0.0261966 0.16342334 -0.14353639
0.015346503 -0.11143895 -0.13507187 0.014600817 -0.034977525 -0.037728176 -0.034455847 0.05360804
0.04232381 0.02340028 0.1868188 -0.04772219 -0.14298102 0.17304763 -0.14798461 0.079202816
-0.14838348 0.0559783 0.12797129 -0.03702869 0.078204036 0.11305413 0.11832437 -0.017301472
0.16222753 0.056846146 0.2113685 -0.12908062 0.0063492116 0.049467552 0.0010229655 0.05898175
0.14170392 0.053388536 0.16310038 -0.15859003 0.16773039 0.14266625 -0.15671806 -0.008727108
0.052331313 -0.20123327 -0.01564632 -0.03653653 -0.08571034 0.14021625 0.088981375 -0.17138447
-0.12253425 -0.14101006 0.019148543 -0.061141483 -0.008809179 -0.13298814 0.10302761 -0.032064795
0.044804767 -0.16960643 -0.00343211 -0.17816639 0.15464658 0.058727086 -0.06583072 -0.016766772
-0.17316738 0.15941077 -0.03677696 0.17883766 -0.09939887 0.0132587105 -0.03975202 -0.0064208657
0.15420759 -0.130288 -0.10028616 -0.11025818 -0.087396204 -0.024708673 -0.16612372 0.14951047
-0.020853743 0.06561974 -0.09608894 0.07115826 0.07683456 -0.040992856 0.1257765 0.032322273
-0.1542689 -0.16861679 0.15014142 0.10629839 -0.13690513 0.13571039 0.06313828 0.095430344
-0.13150716 -0.032595664 -0.044676945 -0.15472856 0.05335553 -0.15284485 0.026529 0.026564687
-0.079390265 -0.15603594 0.06670329 -0.16280898 -0.07579533 -0.13894987 0.2270568 0.23026711
0.12473897 -0.031739566 0.18759356 -0.09931795 -0.055308133 -0.077240415 0.028634109 0.16916153
-0.13039003 0.21150388 -0.08199857 -0.05516944 0.048518036 -0.07574158 -0.08883766 -0.12242883
-0.124494255 -0.0139607545 -0.07142604 0.027732296 0.1118398 0.15286428 0.13149124 0.08256742
0.14932752 -0.061793238 0.09582712 0.054733545 -0.006543994 -0.14442194 -0.1049486 0.17753002
0.020880774 -0.13070565 -0.13082705 -0.017511636 0.03433256 0.055771604 0.042538315 -0.09292999
0.1390844 -0.056214437 -0.17253216 -0.15357308 0.10774112 -0.100865014 0.050659508 -0.13231207
0.086322695 -0.067711435 -0.078871295 -0.1733944 0.16402024 -0.13483408 -0.012700573 -1.9222498e-05
-0.07407178 -0.14707504 0.24219729 0.29079226 -0.018604882 0.21449214 0.028773196 0.05816599
0.021908307 0.30648014 0.0059173936 0.24571548 0.30154082 0.27673128 0.13836567 0.31974345
0.03732278 0.104551286 0.09159655 0.09622008 0.105317436 0.14582203 0.33118623 0.28097263
0.27979097 0.18329355 0.2516426 0.06610642 0.23947245 0.1206445 0.34046066 0.17521966
-0.07915683 -0.09828201 0.045099996 -0.20618545 0.02201798 0.029446287 -0.17895654 0.09299951
-0.13949966 -0.20561697 -0.21867704 -0.13081482 -0.20244645 -0.14897206 0.013035186 -0.1803479

layers.0.bias f4 [64]
00000000: fb9a c0bd 592b d03c 2a81 42be ebab d9bd
00000010: 260a 02be 3c1a c9bd b421 173d b95f 863e
00000020: a983 e3bc 20d2 363e df32 273e 0ed5 8dbd
00000030: 6678 24be 5d0f a23e 756c bebe 1444 593e
00000040: fc4f 8ebd e054 8cbd a540 5d3e d8e3 b8bd
00000050: 730f 49bd ebcd 5b3e 163c 14be dc6f a6be
00000060: 297b bdbe 6ea4 ff3d a8d3 edbc 02f4 65bd
00000070: 8a44 ffbc 277b a7bd 8ff6 9a3e d67a 0fbe
00000080: d070 003f 7ff3 5bbe d44d b8bb 473a 003e
00000090: eb2d b0bb d2d6 a8bd 586d 9abd 478a 38bd
000000a0: 28fb df3d db74 2bbe 0ead 2c3d 657f a5bd
000000b0: 7c63 393c 8022 b43a beb1 a2be 08e7 34be
000000c0: b140 edbd 03f4 27be 004c d4be 8d31 9c3d
000000d0: c3dd 44bd 9d02 abbe dcb8 483e 2035 ca3d
000000e0: 2214 cdbd f0a2 73bd d4b4 01be 0f9f 84be
000000f0: b54c 053e 0b3e 80be 949d f2bd 3e31 f4bd
-0.0940456 0.025411295 -0.18994585 -0.10628494 -0.12699184 -0.09819457 0.036897376 0.26244906
-0.027772741 0.17853594 0.16328 -0.069254026 -0.16061553 0.31652346 -0.3719212 0.21217376
-0.069488496 -0.06852126 0.21606691 -0.09027833 -0.049087 0.2146527 -0.14476046 -0.32507217
-0.37008026 0.12482534 -0.02903159 -0.056140907 -0.031160612 -0.08177786 0.30266234 -0.14011702
0.5017214 -0.21479605 -0.005624512 0.12522231 -0.0053765676 -0.08244099 -0.07540387 -0.045053747
0.10936576 -0.16743796 0.042157225 -0.08080939 0.011315223 0.0013743192 -0.31776232 -0.17666256
-0.115846045 -0.16401677 -0.41464233 0.076266386 -0.04806305 -0.3340043 0.19601768 0.09873414
-0.10013606 -0.05948156 -0.12666637 -0.25902602 0.13017543 -0.25047335 -0.11846462 -0.11923455

layers.2.weight f4 [64, 64]
00000000: a75f eebd ed83 8abd 656e cdbd 00ca c33a
00000010: 62a4 843d b15d 34be 92d7 f13d 5ba9 30be
00000020: 784e 9a3c 7cf0 6a3d f3f1 6ebc b1c7 833d
00000030: e44a b4bd fc36 ecbd 65de 97bd eb72 7cbd
00000040: c553 3cba 6efb 8cbd d136 e1bd 2444 4abd
00000050: 1165 92bc 8421 cbbd 407c 803d 7699 2ebd
00000060: 350d 8abd 2daa 47bd acc9 fc3d 4d55 24be
00000070: e071 123c 1d12 8a3c 1e65 7e3d 202d 24bd
00000080: 2529 5b3d 8385 5cbd 0eed be3d 05d3 15bc
00000090: f781 f4bd 36db d7bc fbe8 b33d 6e36 c03c
000000a0: d81d 74bd 7cee 20bd 6aa1 1dbc bb82 883d
000000b0: 5037 f73b 500c 7dbd f205 29be 8e96 2abc
000000c0: b2ef 62bd 6650 a4bd 4ba7 673d 0428 db3c
000000d0: 007e a1bb bc62 44bb b90d a0bd b993 893d
000000e0: 7c52 98ba 100f 98bd 158c e1bd d99e 0ebd
000000f0: 30af 1cbd c118 cebd 1ea2 0bbe a0f4 c8bc
00000100: ea10 113d 3c41 14be c034 01bd 9c7e 47be
00000110: 2c6f 363d a121 b43c 9427 59bd d0de 6cbe
00000120: 304f 8ebe f071 ea3c e7a5 5ebd 0c0c 013e
00000130: 850b b5bd a2f9 c43d aefb 223e 4ece febd
00000140: 191c 64be 9705 183e c75a 69be 1082 c23d
00000150: 681d 323d 1565 06be be6d eabd 05ac c4bc
00000160: f538 d7bd 775b 9ebd 578e 763d 65d3 8c3d
00000170: e8b5 2cbc 1609 8dbd 6d1e bbbe b221 9f3d
00000180: 3fe8 b7be 102b eb3d e4fa 85bd 46b8 acbd
00000190: 50b5 89bc 9110 a23d 4e78 45bd 100a a4bd
000001a0: d0ef 573d a4c1 88bd 1f21 17be 2e3b 32be
000001b0: 4f79 b5be e052 8dbd 1762 173e 6031 253e
000001c0: 8291 45bd 2820 75be e508 5f3d 4f4a 413e
000001d0: 8e47 91bd 7823 b73d 85c2 90bd bd68 f1bd
000001e0: 0d5d c63d 0f0d 8ebd f4f1 c8bc eb77 063d
000001f0: 9180 e5bd 6706 a93c 2d2d 37be e6c8 e23d
00000200: e0e6 92bd aeab e83c ff09 483d d46e f7bd
00000210: 68e8 5dbd 69d7 c33d 8015 e43b 10ac bb3d
00000220: c22e b93c 8022 c3bc 5661 38be 35d8 a93a
00000230: 8b32 e53d c6ec 0f3d c0af 403d abad 9ebd
00000240: 76c0 83be 8db1 d83c bd47 52bd 56ae 943d
00000250: 1063 04be 1b8d 843a 7533 e9bc 18b5 79bb
00000260: db11 b93c 6ee0 f6bd 9382 0c3c b848 a93d
00000270: 2827 343d 4e60 d83d 8115 513e 0fb0 bdbc
00000280: 5038 c5be 367b e03d a05e 9dbd ec03 89be
00000290: 1aae 28be 0155 9e3c 9c21 83bd d4c0 de3d
000002a0: 0d0a 6ebd 5e63 9abd 1223 40be 535f 30be
000002b0: 7b08 233e 8816 f2bc d750 8abd 64b7 f2bd
000002c0: 2984 8dbe c24e b73c 764a aabd 5ef4 24be
000002d0: 8c6b 3a3d 1279 cfbd 0994 c9ba c583 5d3d
000002e0: 1cce d8bd 143a 3abd 42bf ecbc b52b 8a3d
000002f0: dcbf a23d 28fc 6ebd ad38 c2bd ec3d babd
00000300: 9863 92bd d278 9fbc 38d6 9cbd 3241 b7bd
00000310: b83f c8bc c3ee d4bd 8650 c13d 43a5 403d
00000320: 6e12 04be e859 d33d b5b9 75bd 63c5 bfbd
00000330: 0d2c dcbd d524 62bd f4d4 643d a245 383d
00000340: 7a7a ad3d 4b33 63bc 8a9a 793d 503d e63d
00000350: ecb0 adbc e2d2 a0bd 1871 21bd 20ae 303d
00000360: aa62 16bd 5614 8dbd 00e2 483a 2fe2 2ebb
00000370: 3845 183d 2c60 1cbe 0d60 fcbd 9abb f9bd
00000380: 6bbc 89bc a00b c1bb 002c 3f3a 9ace 07be
00000390: e6c7 ab3b 4efd 53bc 00d0 9c39 b743 f8bd
000003a0: fd6f d0bd 2e59 d2bd f8c2 97bd bdb2 f2bd
000003b0: 6b4f bc3d c0f5 d9bd 8110 0cbe 4200 963c
000003c0: 965e fb3b bdbb 95bd 59da d0bd 84b0 e13a
000003d0: 564b 8fbd 30f8 5c3c 8f30 a23d 65de b03d
000003e0: f84b e5bc 0094 6a39 24aa 7a3d a897 8b3c
000003f0: a0f9 36bd 2006 8fbb 3749 cdbd 204a dd3c
-0.11639338 -0.06763444 -0.10030822 0.001493752 0.06476666 -0.17613865 0.11808695 -0.17252104
0.018836245 0.05735825 -0.014584052 0.064345725 -0.08803347 -0.11533925 -0.07415465 -0.06163303
-0.00071841135 -0.06883894 -0.109967835 -0.04938139 -0.017870458 -0.09918502 0.06273699 -0.04262682
-0.067408 -0.048746277 0.12343153 -0.16048165 0.008938283 0.01685434 0.06210815 -0.040082097
0.053506035 -0.053838264 0.09322558 -0.009144549 -0.11938851 -0.026349645 0.08784672 0.023463454
-0.059598774 -0.039289936 -0.009621004 0.0666556 0.0075444356 -0.06177932 -0.16506174 -0.010411872
-0.055404373 -0.08023147 0.056556027 0.02675248 -0.0049283504 -0.0029966077 -0.078151174 0.06717629
-0.0011621262 -0.07424748 -0.11013047 -0.034819458 -0.03825301 -0.10063315 -0.13636062 -0.024530709
0.03541652 -0.1447801 -0.031544447 -0.19481891 0.044539616 0.021988692 -0.05301626 -0.23131871
-0.2779479 0.028618783 -0.054357436 0.12602252 -0.08840088 0.09617926 0.1591632 -0.12441693
-0.22276343 0.14845882 -0.22788535 0.09497464 0.043485075 -0.13124497 -0.11446713 -0.024007807
-0.105089106 -0.07732289 0.06019434 0.06876258 -0.010541417 -0.06886499 -0.3654665 0.07770099
-0.35919377 0.11482823 -0.06541994 -0.08433585 -0.01681009 0.07913316 -0.048210435 -0.08009732
0.052718937 -0.06677559 -0.14758728 -0.17405388 -0.35444114 -0.06900573 0.14783512 0.16132116
-0.04823447 -0.23938048 0.05445184 0.18876003 -0.07093726 0.08942312 -0.07068352 -0.11787555
0.09685717 -0.069360845 -0.024529435 0.032829206 -0.11206163 0.020632936 -0.17888327 0.110734746
-0.07172942 0.028402176 0.048837658 -0.12081686 -0.054176718 0.095625706 0.006960571 0.09163678
0.022605304 -0.023820162 -0.1800588 0.0012958111 0.11191281 0.035137914 0.04704261 -0.07747968
-0.25732774 0.02645185 -0.051337946 0.072598144 -0.12928414 0.0010112853 -0.02846692 -0.0038102325
0.022591522 -0.12054525 0.008576053 0.08265823 0.043982655 0.10565244 0.2041836 -0.02315524
-0.38519526 0.109610006 -0.07684064 -0.26760805 -0.16472664 0.019327642 -0.06402895 0.10876623
-0.058115054 -0.07538484 -0.18763378 -0.17223863 0.15921204 -0.02955176 -0.067537 -0.11851385
-0.27639893 0.022376422 -0.083149835 -0.16108844 0.04551272 -0.10130514 -0.0015379201 0.054080743
-0.10586187 -0.045465544 -0.028899793 0.06746618 0.079467505 -0.058345944 -0.09483466 -0.09093842
-0.07147902 -0.019466791 -0.076580465 -0.08947982 -0.024444446 -0.10397103 0.09439187 0.047032606
-0.12897655 0.10319883 -0.059991557 -0.093638204 -0.107505895 -0.055210907 0.05586715 0.044988282
0.08470626 -0.01386721 0.060938396 0.11242163 -0.021202527 -0.07852723 -0.039414495 0.04313481
-0.036715187 -0.068886444 0.0007663071 -0.002668511 0.037175387 -0.15271062 -0.12323008 -0.12193985
-0.016813478 -0.0058912784 0.0007292628 -0.13262406 0.0052423356 -0.0129388105 0.0002990961 -0.121222906
-0.1017761 -0.10270916 -0.07410234 -0.11850498 0.09194835 -0.10642576 -0.1367817 0.01831067
0.0076711876 -0.07311199 -0.101978965 0.0017218743 -0.06996791 0.013486907 0.07919418 0.086361684
-0.027990326 0.00022371113 0.061197415 0.017040089 -0.044671655 -0.004364744 -0.1002373 0.027012885

layers.2.bias f4 [64]
00000000: 9eb7 14be d92a 9dbe db7d 15be 7533 5ebd
00000010: 2cee 86be e6a3 b13d f257 e5bb 85f4 453e
00000020: c5f0 09bd b83c bcbd 9704 bcbd 421b 893d
00000030: 1c2f 1fbe b585 4bbc 5003 16bd 4ffe a83d
00000040: bc9c 09be 5d8b d13c cae5 82bd 2af4 643d
00000050: ed5e a2bc be10 07be e843 043c 73aa 0bbe
00000060: c31c 523c 5c53 79bc f7ea 113c cad5 db3d
00000070: de6d a53c 101c f1bc 3a81 03be 5e55 e1bd
00000080: b901 72bd d3a7 e4bd b3fa b1bd 4b86 14be
00000090: 6ddb 0cbe ac62 b63c 41d8 eb3b dfaa 34be
000000a0: 7a88 3bbd 9284 7dbc 50ff 5dbd 5fb4 b5bd
000000b0: d995 c23d ea4c ebbc bb7c 0a3e 3fb8 c53d
000000c0: 7311 133d 7226 073e 9940 f1bd c490 09be
000000d0: e936 01be 98cd 09bd fa66 503b 50b1 cc3d
000000e0: 10f0 e03c 4c3f 7abd 8f53 993d f1b4 f7bb
000000f0: f366 cdbd b071 193d f3bd 0fbe b9f1 29bc
-0.1452317 -0.30696753 -0.14598791 -0.054248292 -0.26353586 0.08673839 -0.0069990093 0.19331558
-0.03367688 -0.09191269 -0.09180563 0.06694652 -0.15545315 -0.012422015 -0.036624253 0.082516305
-0.13438696 0.025579149 -0.06391485 0.055896915 -0.019820655 -0.1318998 0.008072831 -0.1363924
0.01282424 -0.015217628 0.008906118 0.107341364 0.02019399 -0.029432327 -0.12842265 -0.110026106
-0.059083674 -0.111648224 -0.08690395 -0.14504354 -0.1375558 0.022263847 0.0071974103 -0.17643307
-0.04578445 -0.015473502 -0.054198563 -0.08872294 0.095012374 -0.028723199 0.13524143 0.09654283
0.035905313 0.1319826 -0.11779899 -0.1343413 -0.12618603 -0.033643335 0.003179966 0.09994757
0.02745822 -0.06109552 0.07486641 -0.0075594117 -0.10029402 0.037461936 -0.14037304 -0.010372573

layers.4.weight f4 [3, 64]
00000000: 8a7c cc3d 5117 233d eac2 883d fe28 d8bd
00000010: b018 403d 83b1 9a3c f64e 8cbd 11cb 173c
00000020: f31f aabc 8528 3fbd 7726 c93c 97ee 03be
00000030: efe5 063d 39c2 ac3d e800 97bc 65a0 a53c
00000040: a2ac 953b 00cb eb3c e42d 363e ce44 debd
00000050: 9333 ed3d 2a07 dc3d 4c22 3fbc b7c1 64bc
00000060: 15c9 36bd 3b56 16bd 4bab b1bd 9fbd dd3c
00000070: c417 9a3e 93bf 26bc fc01 363e 84b7 94bd
00000080: e2a4 82bd f51f 4f3e 8466 bc3c c057 31bd
00000090: ad33 7f3d 029d 9c3d 1a08 e3bb c01f df3d
000000a0: 4a7c fd3c 1d20 9b3a 7873 95bd b60f 713d
000000b0: 339d 0a3d 9e0d a4bd 7af2 423e 8390 bc3d
000000c0: 80c3 593d 7153 493e 1584 b039 8236 93bd
000000d0: e1cc 2c3d c0e3 ff3c 96c5 573d 3069 37bc
000000e0: a0a8 f1bc 29ec ea3d 7d1b 2e3e 3fa1 133d
000000f0: 6af4 fd3d 05cf bebd a489 973d 89f1 1c3e
00000100: bc59 08ba 5225 333e 55fd c83e a57e 4b3d
00000110: e533 083d 1616 07bd 30b0 0bbc 1eb5 56be
00000120: 4c0d 06be 89ba 46bb 45a7 9fbd 7996 11bd
00000130: 2873 f03d c56d 153e d079 e93d 4be5 c1bd
00000140: 41ef c33d 3340 15be eb42 8a3b 195a 383d
00000150: c9aa 573d 3b1c 083b b6c0 533e cff0 fcbd
00000160: 6205 563c a707 d8bd 28e9 a63d 07c3 f73d
00000170: 29d5 823d 85d5 443d 46a8 f03c 16e1 ccbd
00000180: 2593 2d3d 3061 18be 284c 5b3c 339d 353d
00000190: c47a f4bd 46a6 8c3d 5cf4 fabd 8227 8bbc
000001a0: 28ca d0bd bc4a 2f3d dab4 9a3d ddbc a33e
000001b0: 365c 5bbd b9d9 ab3e f993 c73d d442 033e
000001c0: 1a6f 483c 85a4 533e e2df 3b3b c7ee 1cbc
000001d0: 242e cabd f284 943c 8f93 643d 5465 0cbd
000001e0: aec5 da3d 5581 82bd 2840 fb3d c5bf 983d
000001f0: 5a1d 8d3d eca2 1cbe 8feb b0bd 6603 5cbd
00000200: 9b61 953d 563b fb3d 910a 0c3e de59 2b3d
00000210: 625f fd3d 23c4 e03d 9fc2 42be 3164 f7bc
00000220: 6c25 edbd 6e32 d5bd 5a03 a03d 8c1f 1fbc
00000230: 0d46 e33d fcb7 0cbd e840 fe3c 735d c03d
00000240: 587b b13c 0c01 e0bc 49bd 0c3e d95d b43a
00000250: 80c7 3d3e 0f07 b63d e0da 25be 5a89 d7bd
00000260: b1ca 8a3d 5966 3cb9 e34f 63be 4645 c73d
00000270: d5ce 8fbd 0406 dd3d f17a 173e 47e8 743d
00000280: 2fc7 a1bd b75a cc3d 6258 bf3d 6aad 383c
00000290: a5f1 18be 37c6 f3bd 42de df3d 5233 073e
000002a0: 006d 343d 48be b23d b845 893d 06ce 633e
000002b0: 8a28 b03d 31aa 6f3e 6737 703e 48da 683d
000002c0: b6e9 923d 402c 453c ee6b 1d3d 331e 04bc
000002d0: 593f 153d f7b6 cf3c f999 a83d 506e 47bd
000002e0: 4695 f03d c77f 903d 3f22 243e 9228 7cbd
000002f0: b3f3 dc3d 7230 693d be15 b83b c57c 023e
0.099846914 0.039817158 0.06677802 -0.10554694 0.046898544 0.018883472 -0.06850998 0.009264723
-0.020767188 -0.0466695 0.024554474 -0.12883984 0.032934126 0.084354825 -0.01843305 0.020218084
0.0045676986 0.028783321 0.17790943 -0.10852967 0.115821026 0.10743554 -0.011665892 -0.013962201
-0.04462536 -0.03670333 -0.0867525 0.027067957 0.30096257 -0.010177511 0.17774194 -0.07261565
-0.06379105 0.20227034 0.022998102 -0.043296576 0.06230514 0.07647134 -0.006928456 0.10894728
0.030943055 0.0011835132 -0.072974145 0.058852874 0.033841323 -0.0801041 0.1903781 0.09207251
0.05316496 0.19660737 0.00033667745 -0.07188131 0.042187575 0.03123653 0.052678667 -0.011194512
-0.029499352 0.11470825 0.17002673 0.036042448 0.12400134 -0.093168296 0.073993 0.15326513
-0.000520136 0.17494705 0.39255777 0.049681325 0.033252615 -0.032980047 -0.008525893 -0.20967528
-0.1309101 -0.0030323586 -0.07795576 -0.035543893 0.11740714 0.14592655 0.11400187 -0.09467562
0.095671184 -0.14575271 0.004219403 0.0450078 0.052653108 0.002076878 0.20678982 -0.12350618
0.013062807 -0.105483346 0.0814994 0.120977454 0.06388313 0.04805519 0.029377114 -0.10003869
0.042376656 -0.14880824 0.013384856 0.04433937 -0.11937478 0.06867652 -0.12253639 -0.016986612
-0.10194808 0.04279588 0.07554026 0.3198003 -0.053554736 0.33564547 0.097450204 0.12818462
0.01223352 0.20668228 0.002866738 -0.009578413 -0.09872082 0.0181298 0.055804785 -0.03427632
0.10682236 -0.063723244 0.12268096 0.07458452 0.06890364 -0.15296525 -0.08638679 -0.05371418
0.072940074 0.12267177 0.13675906 0.04183375 0.123717085 0.1097491 -0.19019555 -0.030199142
-0.11579403 -0.10410009 0.07813139 -0.009712111 0.110973455 -0.03435515 0.03103681 0.09392824
0.02166526 -0.02734425 0.13744082 0.0013760879 0.18533134 0.08888065 -0.16196775 -0.105242446
0.067769416 -0.00017967205 -0.22198443 0.0973001 -0.07021872 0.10792163 0.14792992 0.05979183
-0.078993194 0.0997824 0.093430296 0.011271814 -0.1493593 -0.11903041 0.10931064 0.13203171
0.044049263 0.087276995 0.06702751 0.2224656 0.08601482 0.23404767 0.23458634 0.056848794
0.07173483 0.012034476 0.038433008 -0.008063841 0.036437366 0.0253558 0.08232493 -0.048689187
0.11747222 0.070556216 0.16028689 -0.06156213 0.107886694 0.056930967 0.0056178262 0.12742908

layers.4.bias f4 [3]
00000000: b26b a1bd e91b a4be e016 0ebe
-0.078818694 -0.32052544 -0.13875914
