weights/trained_agent_model_ETH-USD.pth (torch, 27831 bytes, 6 tensors)

layers.0.weight f4 [64, 30]
000000 a9 cf a7 bd 4d 90 c2 3d 5c de ca 3d f0 db 26 be
       -0.08193905 0.095001794 0.09905693 -0.16294837
000010 d9 96 98 bd 8b 84 2a be 50 80 a9 3c 9f b5 4f 3d
       -0.07450647 -0.16652124 0.020691067 0.050710317
000020 66 05 13 3e 96 2a da bd 90 55 c9 bd 2b c4 90 bd
       0.14357528 -0.10652654 -0.09830773 -0.07068666
000030 ce 5b 43 bc 1d b5 58 3d 70 a1 27 be 8f 1a b7 bd
       -0.011923743 0.052907098 -0.16370177 -0.089406125
000040 31 42 6f 3d 8b 4c 16 3e f5 db 2e bd a8 84 04 be
       0.058412734 0.14677636 -0.042690236 -0.1294123
000050 14 31 f8 bb be e4 10 3e ca 3e 12 3d 87 46 fe bd
       -0.00757421 0.14149758 0.03570441 -0.12415796
000060 7d c2 6c b9 f7 67 0c 3e c9 f6 30 be ea c6 17 3e
       -0.00022579166 0.13711534 -0.17281641 0.14821973
000070 c1 7b 08 3e af 95 cc 3c df dc bf bd 4a 1c 18 3e
       0.13328458 0.024973718 -0.093683 0.14854541
000080 bc 30 37 be 2c 5f 2f bd 88 56 dc 3d 7c 10 15 3d
       -0.17889684 -0.042815372 0.10758692 0.036392674
000090 f0 a7 7b bc a4 23 2c bd 99 ee 28 be d1 8d 26 be
       -0.015359864 -0.042026177 -0.16497268 -0.16265036
0000a0 d4 dd 57 bd c9 e1 89 bd 34 31 0b 3d 70 ee 23 be
       -0.052701786 -0.06732518 0.03398247 -0.16008925
0000b0 77 67 9f bd 3c 0b b7 3d 40 57 15 3e 78 dc d7 bc
       -0.07783406 0.0893769 0.14584064 -0.026350245
0000c0 5f 08 93 bd 70 c5 75 bd e1 10 26 be 28 08 b6 bc
       -0.07179331 -0.060002744 -0.16217376 -0.022220686
0000d0 5c 1d 19 bd ec 68 f6 3d 50 5f f6 bc f8 84 5f bd
       -0.037381515 0.12031731 -0.030074745 -0.05457017
0000e0 12 99 29 be f0 fc 2f 3e e2 e5 b3 bd cd e7 2e be
       -0.16562298 0.17186332 -0.08784081 -0.17080612
0000f0 30 78 03 3f 8c 56 07 3f 4a c5 32 3f 44 c2 fe 3e
       0.51355267 0.52866435 0.6983229 0.49757588
000100 f1 ac 23 3f 6e 04 1a 3f fe 21 1a 3f cb 28 fd 3e
       0.6393576 0.6016301 0.6020812 0.49445185
000110 20 b5 d2 3e e2 6b b8 3e 48 c6 a3 3e 4a 76 90 3e
       0.41153812 0.36019808 0.31987214 0.28215247
000120 90 56 04 3f 79 40 e0 3e 10 21 8d 3e 92 6f f9 3e
       0.51694584 0.4379919 0.27564287 0.48717934
000130 12 0c 11 3f 60 b6 06 3f 80 07 14 3f fd 22 cb 3e
       0.5665904 0.5262203 0.57823944 0.3967513
000140 a9 3e 89 3e 25 06 8d 3e 90 dc 93 3e 05 89 89 3e
       0.26805618 0.2754375 0.28879213 0.2686235
000150 d6 a4 13 3f 05 03 18 3f d8 63 c5 3e 35 81 13 3f
       0.57673395 0.5937961 0.38552737 0.5761903
000160 98 d2 c0 3e 0c 3e b5 3e 36 c1 dd 3e 9c ce 28 3f
       0.3766067 0.353989 0.4331147 0.6594026
000170 69 18 cb 3e 6c bb 16 3f a6 d6 1b 3f a1 0e e8 3e
       0.3966706 0.58879733 0.608744 0.4532366
000180 56 e4 fe 3e f8 56 07 3f d9 01 a4 3e f0 9d c0 3e
       0.49783581 0.5286708 0.3203266 0.37620497
000190 67 85 a7 3e 56 98 ea 3e 34 ae cc 3e da a1 cf 3e
       0.32718965 0.45819348 0.39976656 0.4055317
0001a0 64 4d ec 3e 41 be db 3e 4c b9 56 3e 43 46 f2 3e
       0.46152794 0.4291859 0.20969123 0.4731923
0001b0 8b ba e2 3e cc 72 09 3f 9f 48 c2 3e 93 72 07 3f
       0.44282946 0.5369079 0.3794603 0.529092
0001c0 99 d1 61 3e 30 1b c4 3e da bf 95 3e ba 02 c2 3e
       0.22052611 0.38301992 0.29247934 0.37892705
0001d0 c6 ec e5 3e 43 ac 93 3e 58 1e ea 3e 7b 4f c8 3e
       0.44907206 0.28842363 0.45726275 0.3912314
0001e0 89 f3 13 3f ab 36 d6 3e 31 2a 1a 3f 3d 4d 0d 3f
       0.5779348 0.41838583 0.6022063 0.5519598
0001f0 b9 45 34 3f e4 14 28 3f 91 2c f3 3e b3 c9 c1 3e
       0.7041889 0.65656877 0.4749494 0.37849197
000200 23 fb 02 3f 1e ab 10 3f e2 73 18 3f 6d 8b d5 3e
       0.51164454 0.56511104 0.59551823 0.41707936
000210 92 dd e4 3e f9 2f 04 3f 1e 88 f8 3e d7 ab e3 3e
       0.44700295 0.516357 0.4854135 0.4446704
000220 3a ae a6 3e 02 db ca 3e 59 5b 11 3f ee db c5 3e
       0.325548 0.39620215 0.5678001 0.38644356
000230 aa 6a b1 3e 2e e0 f8 3e 4a da bd 3e ef 23 c7 3e
       0.3465169 0.48608536 0.37080604 0.38894603
000240 36 fa 91 3e 88 10 f4 3e 8a 6c 02 3f 68 65 14 3f
       0.28511208 0.47668862 0.5094687 0.57967234
000250 5d 4c 1a 3f fe fa ac 3e e9 e1 0a ba d8 67 32 bd
       0.6027277 0.33785242 -0.00052979455 -0.043556064
000260 04 61 12 be d4 86 12 3b ae 03 11 3d b9 8d 6a bc
       -0.14294821 0.0022358196 0.0354039 -0.014316016
000270 97 32 cd 3d 15 ff 39 3e 66 91 bd bd 63 7a 05 3e
       0.10019415 0.18163712 -0.09256248 0.13034968
000280 d0 fd b4 bd ed e7 17 3e 17 e2 c5 bc 87 b8 2e 3d
       -0.088374734 0.14834566 -0.02415566 0.042656448
000290 79 73 b0 3b 50 44 61 3e 93 9e 9b 3d 0b e5 7f 3d
       0.005384859 0.21998715 0.07598605 0.06247429
0002a0 da 9a 8a 3d fa e2 2a 3d a7 42 17 bc 50 ad b8 bc
       0.06767817 0.041720368 -0.0092322 -0.02254358
0002b0 be 1e 98 bd 19 5f 72 bd 46 03 4a 3d 99 37 84 bc
       -0.074277386 -0.059172723 0.049319528 -0.016139792
0002c0 7e e9 6f bc 91 8c cb 3d 2c 12 3a 3e 02 d4 96 3e
       -0.014643071 0.0993892 0.18170995 0.29458624
0002d0 79 1b 16 3f 86 00 19 3f 94 83 1d 3f 69 bb 04 3f
       0.5863567 0.59766424 0.615289 0.51848465
0002e0 88 fe a7 3e e8 11 29 3f 98 9b b4 3e 74 62 aa 3e
       0.3281138 0.6604295 0.3527496 0.3327824
0002f0 eb 11 fa 3e 9a 42 dd 3e ae 0f ed 3e d2 19 f5 3e
       0.48841795 0.43214875 0.46301025 0.47871262
000300 ce 94 93 3e d1 8e da 3e 6d b2 00 3f e2 dc d8 3e
       0.28824466 0.42687085 0.50272256 0.4235602
000310 82 6c c8 3e 1d e4 73 3e fb b6 e7 3e 3b 3c 05 3f
       0.39145285 0.23817487 0.4525679 0.5204503
000320 31 c0 85 3e 51 ca 0e 3f 23 e3 07 3f 9b 88 eb 3e
       0.26123193 0.5577746 0.5308096 0.4600266
000330 3f 0f d9 3e 76 ab 05 3f bf 88 bc 3e 4b 86 bd 3e
       0.42394444 0.52214754 0.3682308 0.3701652
000340 ee 74 fd 3e 36 3d 0c 3f c5 38 25 3f 2a 74 1a 3f
       0.49503273 0.547809 0.6453975 0.603335
000350 26 8f fe 3e 8c b0 b8 3e 41 5e 08 3f 24 2d 07 3f
       0.4971859 0.36072195 0.5326882 0.52803254
000360 f0 5f eb 3e d0 b7 cc 3e e7 14 50 3e e6 45 c8 3e
       0.45971632 0.39983988 0.20320474 0.39115828
000370 5b da be 3e dc 42 c1 3e 7c 41 69 3e 8e 7a 24 3e
       0.37275967 0.37746322 0.22778887 0.16062376
000380 50 d6 2d 3e 6f a2 cb 3e a9 88 80 3e 4a 1e 8b 3e
       0.16976285 0.39772364 0.25104263 0.27171546
000390 9d 86 cd 3e 62 6a 48 3e 9b 8f 90 3e a1 06 42 3e
       0.40141764 0.19571832 0.28234562 0.18947841
0003a0 59 56 7e 3e 68 ed 96 3e b9 6d ad 3e be 16 d0 3e
       0.24837627 0.29478002 0.33872774 0.4064235
0003b0 b6 5d 85 3e 2e 57 9a 3e 82 36 5f 3e a5 96 9c 3e
       0.26048058 0.30144638 0.21798137 0.30583683
0003c0 be 1a c9 3d d8 15 94 3d aa 8e f1 bd 2e 0f b2 3b
       0.09819554 0.07230729 -0.11794789 0.0054339385
0003d0 f3 56 fa 3c fb d4 70 bd b1 38 21 bd d8 52 a0 3d
       0.030559039 -0.058796864 -0.039360706 0.07828301
0003e0 48 76 07 be dc 67 2b 3d 39 80 46 3d c8 ad 26 be
       -0.13228714 0.041847095 0.048462126 -0.1627723
0003f0 b6 d0 66 3c aa b2 11 be 74 74 03 3e 36 40 5b 3d
       0.0140878465 -0.14228311 0.12837392 0.053528033

layers.0.bias f4 [64]
000000 ec 2e c9 3d 04 74 01 3e 3d 67 9a 3d 6e c7 45 bd
       0.09823403 0.12641913 0.075392224 -0.048285894
000010 2f 44 d1 3d 2d 2b 9e 3e 28 bb 49 be bd f2 a1 be
       0.10218083 0.30892316 -0.197003 -0.31630507
000020 4a 0d f6 bd 65 fa 9c 3d 0c 12 22 3d ed 66 71 bd
       -0.120142534 0.076649465 0.039567992 -0.05893605
000030 3c dd b6 3d 70 0d 61 be 52 04 28 be c2 59 42 3c
       0.08928916 -0.21977782 -0.16407898 0.01186222
000040 61 65 c4 bd e5 4b a6 3d c3 c5 5c 3f 95 93 3b be
       -0.09589649 0.081199445 0.8623926 -0.18318017
000050 7d 63 b9 3d 3f 93 df 3b b2 eb 1c be fd a3 87 3d
       0.09052179 0.006822973 -0.15324286 0.06623075
000060 97 8c 05 3b 27 81 09 3e 78 79 3a bc ed 53 c4 3e
       0.0020377988 0.13428174 -0.0113814995 0.3834528
000070 5e 34 24 3c 1d 17 42 be 18 b8 36 be f0 49 10 be
       0.010022251 -0.1895413 -0.17843664 -0.14090705
000080 84 42 b4 3e 29 5c 51 be 99 12 cd bd b8 3a d5 bc
       0.35206997 -0.20445313 -0.10013313 -0.026028976
000090 fe c5 7b bd 67 3d b6 3d 25 37 15 3e 11 14 f1 3d
       -0.061468117 0.0889843 0.14571817 0.117714055
0000a0 59 35 94 3d 02 26 a8 3d a5 d6 71 be d0 6b da 3d
       0.07236738 0.082103744 -0.23617037 0.10665095
0000b0 1c 2a f0 3e 63 60 a0 bd 40 9e 38 be 06 ce bf 3e
       0.46907127 -0.07830884 -0.18029118 0.3746187
0000c0 ae d7 1a bd ab 33 16 be a0 d9 32 be 61 c7 87 be
       -0.037803344 -0.14668147 -0.1746583 -0.26519302
0000d0 df 37 e6 bd ca 8c 87 3e b8 48 ce 3d 12 21 26 bd
       -0.11241125 0.264746 0.10072464 -0.040558882
0000e0 29 77 13 3f 22 d4 04 3e 54 ef b7 3e 58 a4 17 3e
       0.576037 0.12971547 0.3592478 0.14808786
0000f0 51 c3 0f bd af 7c dc 3d 9d 9d 98 bd 53 eb ba 3e
       -0.035098378 0.10765969 -0.07451937 0.36507663

layers.2.weight f4 [64, 64]
000000 b2 c6 8a bd 98 75 ec bc 3e aa 95 bc 82 98 7b 3d
       -0.067761794 -0.028864667 -0.018269654 0.06142474
000010 d4 0a c1 3d b0 11 55 3c ab 6a 93 3d 97 42 03 be
       0.094258934 0.013004705 0.0719808 -0.12818371
000020 93 21 93 bd 00 04 81 ba ad 2f b2 3d 72 ce 50 3d
       -0.07184138 -0.0009843111 0.087005 0.05097813
000030 80 ab bf bc 99 f9 8b 3d 36 b1 d5 bd dc 7d 7d bd
       -0.023397207 0.06834716 -0.10434191 -0.061887607
000040 63 df c4 3d ab 06 04 3d c6 d3 ac 3d 5c d9 8d bd
       0.0961292 0.03223292 0.0843883 -0.06926224
000050 44 19 87 bd d0 a6 76 bc 66 74 8d bd bc b9 82 3c
       -0.06596616 -0.01505442 -0.06906967 0.015957706
000060 3f 6b c7 3c ac 99 e3 3d 16 b5 49 3d 2e af 81 bd
       0.024343131 0.11113295 0.049244963 -0.06332241
000070 0c 3c f2 bd c1 dc c7 bd 3b eb 3a bd 0c 91 bb 3d
       -0.11827859 -0.09758902 -0.04563449 0.09158525
000080 fa 55 92 3d 5a ee 9b bd b4 88 d7 3d fc e3 a1 bd
       0.07145305 -0.07613821 0.10524121 -0.07904813
000090 ac 1d 6f bd 2a 87 06 be 87 df 8c bd 7b bc 9f bd
       -0.058377907 -0.13137498 -0.06878572 -0.07799622
0000a0 05 a1 12 3d d3 b4 9f 3c 42 24 42 bc 2d 4e 00 3d
       0.03579809 0.019495403 -0.011849465 0.031324554
0000b0 c6 9a b6 3d 52 00 22 3d 0c 39 c1 bd c7 3f 98 bd
       0.089162394 0.039551087 -0.09434709 -0.074340396
0000c0 04 99 87 3d 2f 79 02 bc f6 be 84 bd 5c 2b 96 bd
       0.06620982 -0.007963463 -0.064817354 -0.07332489
0000d0 fb 1e 05 be b8 8c 1d 3d 58 cd 27 bd 78 47 97 bd
       -0.130001 0.038464278 -0.040967315 -0.073866785
0000e0 00 74 1e 39 28 6f 85 bd 00 ee 19 bb f8 74 b6 bc
       0.00015111268 -0.06515342 -0.0023487806 -0.022272572
0000f0 78 1b da bd 84 5f e9 3d c8 a8 3f 3d ec e2 a7 bd
       -0.106497705 0.11395171 0.04679182 -0.08197579
000100 4c 24 43 bd 50 1a ec bc 89 5c 00 3f f1 c7 c5 3e
       -0.047642037 -0.02882114 0.501412 0.38629106
000110 32 aa 15 3f d5 c2 4e be f3 04 11 3f e9 c4 ea 3e
       0.5846282 -0.2019151 0.56648177 0.45853356
000120 32 58 f6 3d e8 a8 04 3f 22 c7 15 3f 11 a8 a1 3e
       0.12028541 0.5182023 0.5850698 0.31573537
000130 80 a6 d3 bb a9 cc e9 3e 1c 5e 13 be 84 8d cb bd
       -0.0064590573 0.45663956 -0.14391369 -0.09939101
000140 a5 7e 0b 3f ff c6 09 be e3 9b 05 bf 4e 6d fe 3e
       0.5449012 -0.13454817 -0.5219099 0.49692768
000150 03 76 c6 3e 92 e8 48 bd e9 f7 57 bd 52 14 0c 3e
       0.3876191 -0.04904992 -0.05272666 0.13679627
000160 09 07 fa 3e c8 df f0 3c a0 66 fe 3c ab 16 0e be
       0.48833492 0.029403582 0.031054795 -0.13875835
000170 29 56 d0 3e 38 5a df 3e b1 64 07 3e a3 e8 1f bc
       0.40690735 0.4362352 0.13222004 -0.009760055
000180 49 b0 0c be 93 6f a9 3d 09 e2 d2 3e 4c 39 ab bd
       -0.13739122 0.08273234 0.41188076 -0.08360538
000190 f0 cf 18 3f cd 27 f3 3e d8 1d ec bd 64 7b 01 3f
       0.5969229 0.47491303 -0.1152913 0.50578904
0001a0 37 b4 f8 3e 2d bd 16 3f 68 2d 0f 3f 66 2d ed 3e
       0.48574993 0.5888241 0.5592866 0.463237
0001b0 fa d0 26 be 15 ae c6 3e ce 49 07 3f 8f 8d 8c bd
       -0.16290656 0.3880469 0.5284699 -0.06862938
0001c0 50 36 11 3f 98 7e f4 3e 3a a8 c8 3e 38 53 ac 3e
       0.567235 0.47752833 0.39190847 0.3365724
0001d0 01 a3 0c 3f cd 5c 7f be ce f8 0c 3f e7 39 d5 3e
       0.54936224 -0.24937744 0.55067146 0.41645738
0001e0 dc 9d 05 be fd c0 bb bc 5c dd 86 bd 40 ea 7f 3d
       -0.130485 -0.022919172 -0.0658519 0.062479258
0001f0 63 63 e7 3a 2f b7 88 3d 17 a2 b1 3e dc 7c ec bd
       0.0017653521 0.066755645 0.34693977 -0.115472525
000200 41 23 e5 3a 70 e4 ea 3c 03 6c c6 bd 3a eb 85 bd
       0.001748182 0.02867338 -0.0968857 -0.065390065
000210 56 11 b6 3c ec 5a c5 bc a3 9c e9 bd 2f d8 1e 3b
       0.022225063 -0.024091206 -0.11406829 0.0024237742
000220 60 57 c3 bd c3 a0 a2 3d e8 7f 68 3c b5 30 43 bd
       -0.0953815 0.07940819 0.0141906515 -0.047653873
000230 00 e0 24 3a 33 a4 e9 bd d4 c6 3a bd 47 c6 c7 3d
       0.0006289482 -0.11408272 -0.045599774 0.09754615
000240 f1 c9 ad bd 80 9d 35 3c e3 bc ff bd a1 d2 b7 bd
       -0.08485783 0.011084914 -0.12487199 -0.08975721
000250 a9 0a d4 3d 60 0b 0f bd 39 85 01 be 00 47 76 3d
       0.10353596 -0.034922957 -0.12648477 0.060126305
000260 05 94 87 bd 8c 64 25 bd 84 33 c7 3d d5 88 2c bd
       -0.06620029 -0.040379092 0.09726623 -0.04212268
000270 79 2a a8 3d 98 9d e7 3c 88 ab 7a bd 94 9f 19 3d
       0.08211226 0.028273389 -0.06119874 0.0375057
000280 67 ec 1f 3d d8 d9 f8 3c 85 62 65 bd f8 ec 8e 3c
       0.03904381 0.030377313 -0.05600216 0.01744698
000290 45 dd d6 3d 71 57 63 bd 9c 3f f7 3d 47 9e 17 3d
       0.104914226 -0.055503312 0.120726794 0.03701618
0002a0 fd 94 9e 3c 85 fb 7b bd 47 21 6d bc cf 68 95 bd
       0.019358153 -0.061519165 -0.014473266 -0.07295381
0002b0 46 6f 2e bd cd 0b e0 bd 23 00 16 3d 68 32 08 be
       -0.042586587 -0.10939751 0.036621224 -0.13300478
0002c0 d6 18 d7 3c 0a 9a 80 bc 44 0d a7 bc 88 fc d0 bb
       0.02625696 -0.015698452 -0.020392068 -0.0063777603
0002d0 b9 9c a3 3d 2f 1f 41 3d f9 94 bc bd 32 93 8d bd
       0.07988877 0.04714888 -0.09208102 -0.06912841
0002e0 96 22 cf 3c 43 f9 bc bd d1 e5 c3 3d 88 29 80 3d
       0.025285047 -0.092272304 0.095653184 0.062579215
0002f0 5c 95 9f bc 00 96 3a ba 9c 27 e6 bc 0f 3d 21 3d
       -0.0194804 -0.00071176887 -0.02809506 0.03936487
000300 83 28 2c bd e0 0d b7 3d 9a e0 c2 3d c4 9b 7b 3d
       -0.042030822 0.08938193 0.095154956 0.061427847
000310 a9 dd b4 3d 5a 0e c1 3d 01 94 77 bd b1 7e dd 3d
       0.08831341 0.094265655 -0.060443882 0.1081518
000320 40 86 c1 3d 24 04 20 bd eb cc 38 3d 26 31 a5 3d
       0.09449434 -0.03906645 0.0451173 0.08066015
000330 f6 47 df bd 65 c6 5a bc 72 23 90 3d c8 42 f1 3d
       -0.10902397 -0.013352965 0.07038011 0.11780316
000340 cc 91 a0 bd 38 f7 b2 bd b0 a7 1c 3c b7 75 90 3d
       -0.078403085 -0.087385595 0.009561464 0.07053702
000350 5d 54 8b bc 50 a2 9e 3d e0 5f 84 bb a0 4e ba 3c
       -0.017008001 0.077458024 -0.0040397495 0.02274257
000360 71 1c a8 3a 36 fd de bd 4f db a7 3d 4a fa f7 3d
       0.0012825859 -0.1088814 0.08196127 0.12108286
000370 5a 32 00 be 01 0c df bd d7 60 2b 3c 99 3e d3 bc
       -0.12519208 -0.108909614 0.0104601 -0.025786685
000380 74 77 7c 3d 79 b4 a3 bd ec 7a ae 3d 18 5d 0b bd
       0.061637357 -0.07993407 0.08519539 -0.034024328
000390 c7 f9 6a 3d 23 c1 ea bb 1c f8 08 be 6c e8 06 be
       0.057367112 -0.007164137 -0.13375896 -0.131746
0003a0 87 6f cb bc 50 f6 b3 3d 30 fa 26 3d cb 02 90 bd
       -0.024833454 0.08787215 0.04076594 -0.07031783
0003b0 48 33 66 3d 41 8d dd 3d 71 49 05 3d 8b 51 4c bd
       0.05620125 0.10817958 0.032540742 -0.049882453
0003c0 df a9 e8 bd 10 e0 a0 bd 11 a5 d3 3d 1c 01 8c bd
       -0.11360525 -0.078552365 0.10334218 -0.06836149
0003d0 c2 8d 80 bd 00 7e 2e bd 5f 9b c9 bd b1 2f 59 bd
       -0.06277038 -0.04260063 -0.09844088 -0.053023998
0003e0 62 82 c5 3d c4 03 1f 3d 0c eb eb bd 7c c0 64 3d
       0.09644009 0.03882195 -0.11519441 0.05584763
0003f0 18 df bf 3c e4 b5 3a bd 6e 45 9f bd 14 aa 0f bd
       0.02342181 -0.04558362 -0.077769145 -0.03507431

layers.2.bias f4 [64]
000000 66 bc a6 bd 3b 56 b6 bd 91 dc c3 bd 9a ed 0b be
       -0.08141403 -0.08903166 -0.09563554 -0.13664857
000010 13 e6 85 be 19 e8 90 bd 4f f2 10 3e 27 62 ae 3d
       -0.26152095 -0.07075519 0.14154933 0.08514815
000020 20 06 f7 3b e4 85 61 3c 49 5e 69 3d b2 cc 90 bd
       0.007538572 0.013764832 0.056974683 -0.070702925
000030 f4 a6 1f be 36 b7 de 3d 39 62 86 3e 89 ff d6 bd
       -0.15591031 0.108747885 0.26246813 -0.10497958
000040 30 3c 9b bd ac 8b 8a 3d 5d 09 b0 bd 32 08 ad 3d
       -0.07579839 0.067649215 -0.08595536 0.08448829
000050 c8 fd 07 be 6f ae 23 3a b6 ce 4c 3d 18 36 e4 bd
       -0.13280404 0.0006243949 0.050001822 -0.1114313
000060 e0 9f d5 3c 16 92 ff 3d 9c 29 52 3d 23 52 8f bd
       0.02607721 0.124790356 0.051309213 -0.06998088
000070 c3 a1 70 bd 14 4d 01 bc a3 d0 d7 3d 48 e0 40 bd
       -0.058748018 -0.007891912 0.10537841 -0.04708889
000080 ee 81 c7 bd 87 9d a6 3d 73 1a 21 be 00 d8 79 bb
       -0.09741579 0.08135515 -0.15732746 -0.003812313
000090 38 1c 30 3d 4a a5 ad 3d 87 43 bc 3c 4a bd cc 3d
       0.04299566 0.08478792 0.022981418 0.099970415
0000a0 49 53 57 3e c2 54 9e 3d 21 48 94 3d f0 06 ac 3d
       0.21027865 0.0773101 0.0724032 0.08399761
0000b0 f0 72 b0 bc 54 c0 69 3d 14 b2 f2 3c af 70 19 3d
       -0.021539181 0.057068184 0.02962593 0.03746098
0000c0 df d2 d6 3c 54 48 64 bd a2 30 f7 bd e0 d0 c7 3d
       0.026223598 -0.05573304 -0.12069823 0.097566366
0000d0 4f e1 ed 3d 06 6d ad bd 17 18 9a 3d 53 bb 9b bd
       0.1161524 -0.0846806 0.07524126 -0.07604089
0000e0 43 a4 b9 3d 84 d5 b4 bd 7b 61 16 3d 23 80 09 be
       0.090645336 -0.088297874 0.03671406 -0.13427787
0000f0 a0 f9 dd 3b 8c ca 15 be 79 aa 28 bc f3 73 a3 bd
       0.0067741424 -0.14628047 -0.01029455 -0.079811

layers.4.weight f4 [3, 64]
000000 93 08 49 3d b1 c8 ce 3e 00 77 0c 3a 1c 44 d3 3d
       0.049080443 0.4038749 0.00053583086 0.10315725
000010 58 21 d1 3d 01 ea b1 bd d4 e8 e8 3e bf 3b c1 3e
       0.10211438 -0.08687211 0.45490134 0.37740895
000020 7e 6d c7 3d da 80 06 be 78 37 ac 3e 5a 03 f8 bd
       0.09737681 -0.1313509 0.3363607 -0.12110014
000030 92 0b 95 3d 00 f2 66 ba 74 94 2c 3e 97 df 80 3d
       0.072775975 -0.00088098645 0.16853505 0.062926464
000040 38 88 f4 3d e1 ca 05 be a3 4b ac bd 5f 98 7f 3d
       0.11940044 -0.13065673 -0.08412864 0.06240117
000050 80 81 d6 3d 93 ea 9b 3e f2 40 ad 3e 00 68 f6 38
       0.10473919 0.30452403 0.33838612 0.000117495656
000060 ff 01 81 3d e2 d1 fb bd ee 6a b5 bd e2 b9 e6 bd
       0.06299209 -0.12295891 -0.08858286 -0.11265923
000070 b0 a7 b8 3d d7 63 99 3e 1c 19 03 be 03 47 e2 3e
       0.09016359 0.29958984 -0.12802547 0.44194803
000080 d4 4c b5 bd cf 0d 63 bb 02 aa 97 3e d0 13 fc bd
       -0.088525444 -0.0034645682 0.29621893 -0.123084664
000090 00 cc ed bc 4e aa 25 bd b9 d0 8a 3e fe f5 9c 3e
       -0.029027939 -0.04044562 0.27112368 0.30656427
0000a0 bb 8d 9a 3d 06 de aa 3e fe 6e 21 bc b0 31 41 bd
       0.07546564 0.33372515 -0.009853123 -0.047166526
0000b0 c8 9a d3 3c e8 d6 11 be 62 2d 8c bd 80 5b ce 3d
       0.025830641 -0.14242136 -0.068445936 0.10076046
0000c0 12 b7 9a bd d4 5d cd 3d c0 95 31 bb 9a 14 ba 3e
       -0.07554449 0.10027662 -0.0027097315 0.36343843
0000d0 32 bb aa 3e 67 67 cd 3e 63 7f 21 bd e1 01 f3 bd
       0.33345944 0.40117952 -0.039428126 -0.11865593
0000e0 fc 79 de bc 29 1d 91 3e e2 a6 d0 bd b1 2b 9f 3c
       -0.027157776 0.2834256 -0.1018808 0.019430013
0000f0 8c 71 1d be 05 59 b1 bd af ec 58 bc 11 69 5e 3d
       -0.15375346 -0.08659557 -0.0132400235 0.054299418
000100 08 a9 e6 bd 1b 20 e4 3e 37 49 33 3d 14 52 ad 3d
       -0.11262709 0.44555745 0.043770995 0.08462921
000110 46 36 47 3d 6a f5 58 3c 5e 03 07 3f 0c ee 04 3f
       0.048635744 0.013242105 0.5273951 0.5192573
000120 a0 8b 23 3d ae 3f ef bc a0 a0 d4 3e b0 58 a6 bd
       0.03992808 -0.02920517 0.41528797 -0.081223845
000130 e4 f5 bc 3b 04 fc 1e bd 95 be 31 3c 47 f5 d0 3c
       0.005766617 -0.03881456 0.010848661 0.025507582
000140 a0 16 a2 3d 1b 8d 33 bd 17 33 c3 bd 4b a8 9d 3c
       0.079144716 -0.04383574 -0.09531229 0.019245287
000150 e7 87 31 3d 5e 8f ee 3e 0a f8 05 3f e4 26 d6 3d
       0.043342497 0.46593755 0.523316 0.104566365
000160 72 3e 08 bd ac d4 9b bd fc 96 76 bd 3d 1b d9 bb
       -0.033262677 -0.07608923 -0.060202584 -0.0066255615
000170 8d 70 4e bd 4a 4d b9 3e 21 a6 34 bd 4b 71 fb 3e
       -0.050400306 0.3619178 -0.044103745 0.49109873
000180 dd ab 7f bc 94 41 5e bd 03 46 b4 3e 90 13 a6 bd
       -0.01560494 -0.05426176 0.35209665 -0.081092
000190 54 5c 07 bd 52 da fb 3c 19 b9 0f 3f 39 41 e3 3e
       -0.033047035 0.030743752 0.5614181 0.44385698
0001a0 d6 a2 11 be 2e 19 f9 3e c4 71 00 be 30 c4 2c 3c
       -0.14222273 0.48652023 -0.12543398 0.010544822
0001b0 f2 97 d6 3d f3 61 5f 3d b3 d3 96 3d ca 37 ae bc
       0.104782 0.05453677 0.07364597 -0.021266837
0001c0 b3 4c 99 bd 64 08 8a 3d ac 83 1e 3d f7 8a f2 3e
       -0.07485332 0.06739882 0.03869979 0.47371647
0001d0 4c e5 06 3f fb 9e d9 3e 08 ba e4 3d 37 cf b4 3d
       0.5269363 0.42504105 0.11168295 0.088285856
0001e0 cf a0 8d bc c9 88 ef 3e 68 b2 4f 39 a3 62 a6 3d
       -0.017288594 0.46784046 0.0001980752 0.08124282
0001f0 56 8b 55 3c 8a 73 bc 3d be 66 e4 3c 89 7b d0 bd
       0.013033709 0.09201725 0.027881023 -0.101798125
000200 63 63 20 3d 94 05 a7 3e aa ba bb 3d 7c e3 c9 3d
       0.039157283 0.32621443 0.09166463 0.09857842
000210 e2 c4 d8 3d a5 c0 06 3d 14 73 94 3e db 53 a8 3e
       0.105844274 0.032898564 0.28994048 0.32876477
000220 94 d2 60 3d 0c 3b a1 bd 8d 77 8d 3e a4 8f b0 bd
       0.054888323 -0.078725904 0.27630273 -0.08621147
000230 d1 e9 f6 3d 56 96 98 3d 16 91 ec 3e 5e f6 1a 3c
       0.12056316 0.07450549 0.46204442 0.009458153
000240 fe 0c e1 bd 11 93 73 bb 4a fb 8d 3d 5f 8f 66 bd
       -0.10988806 -0.0037166516 0.06932695 -0.056289073
000250 15 9c cc 3d 9d c4 af 3e e4 82 75 3e 34 20 84 3d
       0.09990708 0.34329692 0.23975712 0.06451455
000260 6f ff 21 be 8c 92 55 3d ec b3 f4 3d c2 7d db 3c
       -0.15820096 0.05214171 0.1194838 0.026793364
000270 98 e3 8d 3c 93 9e 67 3e b7 66 dd 3d 3d e1 7b 3e
       0.01732044 0.22619085 0.10810607 0.2459764
000280 a6 2b bd 3d e0 bc 82 3d bd 02 86 3e 10 9e 52 3d
       0.09236841 0.06383681 0.26173964 0.05142027
000290 42 0e 9c bd f2 28 c0 3d 44 62 8a 3e 71 37 91 3e
       -0.07619907 0.0938281 0.27028096 0.2836261
0002a0 ce b2 cd 3e 6b 42 63 3e dc e6 d1 3d 20 51 38 3d
       0.4017548 0.22193305 0.10249111 0.04499924
0002b0 92 06 ec bd 9b 9b 4d 3d e0 e8 cc 3d 93 6c 8f 3d
       -0.11524691 0.050197225 0.10005355 0.07003131
0002c0 8e 7d eb 3c fe b6 c9 bd 2a 57 ca 3d 98 18 d3 3e
       0.028746393 -0.09849356 0.098799065 0.412297
0002d0 1f 38 9b 3e 26 51 7e 3e 17 f5 b8 3d 02 2e d8 3d
       0.30316254 0.24835643 0.09031122 0.1055565
0002e0 0f 6c 94 3d 75 de e0 3e 06 8b ed 3c 85 a6 3c 3d
       0.07247173 0.4391972 0.028996956 0.046057243
0002f0 2a a4 31 bd 2d 25 e5 3c e5 a9 8d 3d 3c 97 c8 3d
       -0.04336945 0.027971828 0.069171704 0.09794471

layers.4.bias f4 [3]
000000 c7 b2 9a 3e 75 fa ea 3d e9 e1 aa 3d
       0.3021452 0.11473552 0.0834387
