weights/trained_agent_model_BNB-USD.pth (torch, 28304 bytes, 6 tensors)

layers.0.weight f4 [64, 30]
0	0x3ec580e8	0.3857491
1	0x3e5f8ccd	0.21831055
2	0x3e8639f2	0.26216084
3	0x3e05a4dc	0.1305117
4	0x3e5eba6b	0.217508
5	0x3e38ee33	0.18059616
6	0x3ea44f83	0.32091913
7	0x3e89d91e	0.2692346
8	0x3e5070f5	0.2035559
9	0x3e3829b4	0.17984658
10	0x3ea7cadf	0.32771966
11	0x3ec2267c	0.37919986
12	0x3e38ec39	0.18058862
13	0x3e440983	0.19144253
14	0x3ea8de4f	0.32982108
15	0x3e5bb1eb	0.21454589
16	0x3e435e15	0.19078858
17	0x3d9a9447	0.07547813
18	0x3e92214c	0.28541028
19	0x3e98d3b9	0.29849032
20	0x3dbfa1f7	0.09357064
21	0x3e9f0e4a	0.3106559
22	0x3ebff4a0	0.37491322
23	0x3e083b22	0.13303807
24	0x3e88de88	0.26732278
25	0x3e176a1b	0.1478657
26	0x3e91e68a	0.284962
27	0x3d878ef8	0.06619066
28	0x3e31d68d	0.17367001
29	0x3eaf8bd3	0.34286365
30	0x3e0c3bfd	0.13694759
31	0x3e7bed93	0.24602346
32	0x3e8b749a	0.27237397
33	0x3e46a4e2	0.19398835
34	0x3e95d62d	0.29264966
35	0x3ed16b81	0.4090233
36	0x3e78ed86	0.24309358
37	0x3eb298bc	0.34882152
38	0x3eb8b6b0	0.3607688
39	0x3e03867d	0.12844272
40	0x3eb9253f	0.3616123
41	0x3ebec045	0.37256065
42	0x3defae0b	0.11703118
43	0x3ebde257	0.37086746
44	0x3e1a7f68	0.15087664
45	0x3ed4101c	0.4141854
46	0x3da2e25d	0.079533316
47	0x3e6ebc1e	0.23313949
48	0x3e96dfa7	0.29467508
49	0x3db0afe2	0.08627297
50	0x3e860b17	0.26180336
51	0x3e1f7e06	0.15575418
52	0x3e58dc92	0.21177891
53	0x3ec33ec5	0.38133827
54	0x3e9a90cb	0.30188593
55	0x3ed54abb	0.41658577
56	0x3e153532	0.14571074
57	0x3eb91d6e	0.36155266
58	0x3e2c848d	0.16847439
59	0x3e205963	0.15659098
60	0x3d8bc567	0.06824761
61	0xbe5de376	-0.216688
62	0x3c13e477	0.009026638
63	0xbcb2d99e	-0.021832284
64	0xbbc07a6c	-0.005873969
65	0xbe22c65d	-0.15895982
66	0xbe260a08	-0.16214764
67	0xbdf6dd64	-0.12053946
68	0x3dcf695b	0.10127517
69	0x3ddea0fb	0.10870548
70	0xbdef6628	-0.11689407
71	0xbe600317	-0.21876179
72	0xbd1e21cf	-0.03860646
73	0xbe1ba3ba	-0.15199175
74	0xbd186cdc	-0.03721319
75	0x3ce067f2	0.027393315
76	0xbe4fe97a	-0.20303908
77	0xbe0a93ef	-0.13532995
78	0xbe4659ce	-0.19370195
79	0xbdcd015d	-0.10010026
80	0xbe040bf5	-0.12895186
81	0x3e23e131	0.16003872
82	0xbe1b2336	-0.1515015
83	0x3d8f451b	0.06995603
84	0xbd9bfe1c	-0.07616827
85	0x3e0ff2ff	0.1405754
86	0xbe1abd9c	-0.15111393
87	0x3dbf0d6d	0.09328733
88	0xbde6df03	-0.11273005
89	0x3e1dbbc9	0.15403666
90	0x3dd69b54	0.10478845
91	0x3e6d6f1b	0.23186915
92	0x3eaa4b8f	0.33260772
93	0x3dcba8b6	0.099442884
94	0x3e8a2c2e	0.2698683
95	0x3ea80ac9	0.32820728
96	0x3e0bc816	0.13650545
97	0x3ec30bba	0.38094884
98	0x3edade09	0.42747524
99	0x3ed3c742	0.4136296
100	0x3e21e71a	0.15810814
101	0x3e026671	0.12734391
102	0x3ee44ca3	0.4458972
103	0x3ea12ef7	0.31481144
104	0x3ec3ee9b	0.3826798
105	0x3eb33cf2	0.35007435
106	0x3edd808e	0.43262142
107	0x3ecfdcf1	0.40598252
108	0x3edace5b	0.42735562
109	0x3ddb77fa	0.10716243
110	0x3eb2fd36	0.3495881
111	0x3e7c20e9	0.24621929
112	0x3ec69732	0.38787228
113	0x3ee1d312	0.44106346
114	0x3e9aa67e	0.30205148
115	0x3ec4fa99	0.3847244
116	0x3de09f98	0.1096794
117	0x3e9b6625	0.30351368
118	0x3ef08fa6	0.46984595
119	0x3e10200d	0.14074726
120	0x3ebce588	0.36893868
121	0x3ee0a777	0.43877766
122	0x3e72759d	0.23677678
123	0x3e25b875	0.16183646
124	0x3e127659	0.14302959
125	0x3e7dd026	0.24786434
126	0x3df0d8b6	0.11760084
127	0x3e2b7f37	0.16747747
128	0x3ed956c2	0.42449003
129	0x3df65520	0.12027955
130	0x3eaca2c2	0.33717924
131	0x3e0f13c8	0.1397239
132	0x3ed3480c	0.41265905
133	0x3e7fc9bb	0.24979298
134	0x3e45c4e3	0.19313388
135	0x3edf85a5	0.4365665
136	0x3dd84d4a	0.10561617
137	0x3e94d1f2	0.29066426
138	0x3e0f1eff	0.13976668
139	0x3dab6836	0.08369486
140	0x3e9aa8e8	0.3020699
141	0x3e883fe1	0.26611236
142	0x3e8670de	0.26257986
143	0x3ee188c1	0.44049647
144	0x3ec4ffd7	0.3847644
145	0x3ebfe6ab	0.37480673
146	0x3e858123	0.26075086
147	0x3ee5f127	0.44910547
148	0x3e75366a	0.23946539
149	0x3e49866b	0.19680183
150	0x3dae2db2	0.085048094
151	0x3e3c8465	0.1840988
152	0x3ec50f18	0.38488078
153	0x3e316800	0.17324829
154	0x3eb632db	0.35585675
155	0x3e4c4de8	0.19951594
156	0x3e9268ac	0.28595483
157	0x3d4d1b0f	0.050074633
158	0x3d9a1425	0.075233735
159	0x3e44167d	0.19149204
160	0x3ebc557c	0.3678397
161	0x3e1f781c	0.15573162
162	0x3d7f9dde	0.062406413
163	0x3eb0d4e5	0.34537426
164	0x3ed0915a	0.40735894
165	0x3da51b8c	0.08061895
166	0x3eab5423	0.3346263
167	0x3e973db6	0.2953927
168	0x3e3e6296	0.18592295
169	0x3e9eea16	0.31037968
170	0x3ea77684	0.32707608
171	0x3ed2a697	0.41142723
172	0x3e9d081f	0.30670258
173	0x3e8d96d5	0.27654138
174	0x3eaf728d	0.34267083
175	0x3dcdd5d3	0.10050549
176	0x3e16ca64	0.14725643
177	0x3e0eb390	0.13935685
178	0x3e963ca4	0.2934314
179	0x3e5b6c85	0.21428116
180	0x3e579a8a	0.21055046
181	0x3e43cdd3	0.19121484
182	0x3ea6adfd	0.32554618
183	0x3ed4aa23	0.41536054
184	0x3ea9301e	0.33044523
185	0x3e56de84	0.2098332
186	0x3ec9159b	0.39274296
187	0x3dc4166b	0.095745884
188	0x3e2fe3b9	0.17176713
189	0x3e7bd2c1	0.24592115
190	0x3e8f39fd	0.2797393
191	0x3ed0e809	0.4080203
192	0x3e838335	0.2568604
193	0x3ec30edf	0.38097283
194	0x3e187db6	0.14891705
195	0x3e2a54cb	0.16633908
196	0x3e3e10a2	0.18561032
197	0x3dc25e6d	0.094906665
198	0x3e9e054d	0.3086342
199	0x3e8e8775	0.2783772
200	0x3ecd4ada	0.4009617
201	0x3e87cf4d	0.26525345
202	0x3d9b12c2	0.07571937
203	0x3e82ab95	0.25521532
204	0x3ed5ab14	0.41732085
205	0x3ebeeac7	0.37288496
206	0x3ecb97a0	0.39764118
207	0x3ed1cb73	0.40975532
208	0x3e90279f	0.28155228
209	0x3ebf58e8	0.37372518
210	0xbe25d637	-0.16194998
211	0x3dfbabe0	0.12288642
212	0xbcb7e10e	-0.022446182
213	0xbde2bf25	-0.11071614
214	0xbc813375	-0.015771607
215	0x3de32681	0.110913284
216	0xbde3c6fa	-0.11121936
217	0x3df95828	0.121750176
218	0xbdb65b8f	-0.08904182
219	0x3e122f99	0.1427597
220	0xbdec1e11	-0.11529172
221	0xbdebf6c5	-0.11521677
222	0xbe113d8a	-0.14183632
223	0x3de3ba6f	0.11119544
224	0x3b93db48	0.0045122243
225	0x3dca3b28	0.098745644
226	0x3c1e6112	0.009666698
227	0xbe35b24b	-0.17743795
228	0xbe20a3d2	-0.15687492
229	0xbd0b5b51	-0.034022633
230	0x3e243c39	0.16038598
231	0x3d66d471	0.056354944
232	0xbdabfa2d	-0.083973266
233	0xbcd29d41	-0.02570975
234	0x3dc2d653	0.09513535
235	0xbd6cf0f6	-0.057846986
236	0x3d3b7cc4	0.045773283
237	0xbd8b8ed5	-0.068143524
238	0xbcecc64e	-0.028903153
239	0xbe10cc5d	-0.14140458
240	0x3b497469	0.0030739552
241	0x3dc9d9bc	0.09855983
242	0xbcbf035d	-0.023317033
243	0xbdfe04f1	-0.12403286
244	0x3e044622	0.12917379
245	0xbddb0029	-0.1069339
246	0xbd9770a0	-0.073945284
247	0xbd0909c3	-0.033456575
248	0x3c1b3514	0.009473104
249	0xbe3015e9	-0.17195858
250	0xbd867d6f	-0.06566893
251	0xbe4cd056	-0.20001349
252	0xbe54d609	-0.20784773
253	0xbd494a1a	-0.049142934
254	0xbe1b7687	-0.15181933
255	0xbdbb6164	-0.09149435

layers.0.bias f4 [64]
0	0xbd149352	-0.036273308
1	0xbd720f25	-0.059096474
2	0xbd8fe20c	-0.07025537
3	0x3c9ec1a2	0.01937944
4	0x3e26fe27	0.16307889
5	0xbe107684	-0.1410771
6	0xbd479c09	-0.04873279
7	0x3cea6e7e	0.02861714
8	0x3e1bf251	0.15229155
9	0xbdb1cf9c	-0.086821765
10	0x3caf7085	0.021415958
11	0x3e261ab1	0.1622112
12	0x3dcde755	0.10053889
13	0x3e190660	0.14943838
14	0xbdc26d86	-0.09493546
15	0xbe838f5e	-0.25695318
16	0xbd25793e	-0.04039883
17	0xbe451ef6	-0.19250092
18	0x3a49966f	0.0007689958
19	0xbeae295f	-0.3401594
20	0xbd062b2d	-0.03275602
21	0xbe10de22	-0.14147237
22	0xbc3e38c9	-0.011610218
23	0xbd488132	-0.048951335
24	0x3e26ddd5	0.1629556
25	0x3e0ba84e	0.13638422
26	0xbe0a198e	-0.13486311
27	0xbe56c944	-0.20975214
28	0x3c9fcfa1	0.019508185
29	0x3e008c25	0.12553461
30	0x3cae7edd	0.021300728
31	0xbd1f43c7	-0.038882997
32	0xbe2fabba	-0.17155352
33	0xbe861d08	-0.26194024
34	0xbeb66eff	-0.35631558
35	0xbe0579f7	-0.13034807
36	0xbce422b4	-0.027848579
37	0x3d0846ad	0.033270527
38	0x3df3f571	0.119120486
39	0xbde04997	-0.10951536
40	0xbda0464f	-0.0782591
41	0xbe2828cc	-0.16421813
42	0x3d850e85	0.0649691
43	0xbd1d34e7	-0.03838053
44	0xbd3f3aa5	-0.046686787
45	0x3ba5d014	0.0050602052
46	0xbdea315b	-0.11435195
47	0xbe0eb1c5	-0.13935001
48	0xbdfa7090	-0.12228501
49	0xbdd1e3fd	-0.102485634
50	0x3d177d48	0.036984712
51	0xbdbb7972	-0.09154023
52	0xbd30fd14	-0.043210104
53	0xbc55d280	-0.013050675
54	0x3d763aae	0.060114555
55	0xbe512b0e	-0.2042658
56	0xbe3a2f59	-0.18182124
57	0xbcdb1df7	-0.026747687
58	0x3e652a1a	0.22379342
59	0xbdab808a	-0.08374126
60	0xbbc0144d	-0.005861795
61	0x3de95ddb	0.11394855
62	0xbe345a74	-0.1761263
63	0x3e1eea37	0.15519033

layers.2.weight f4 [64, 64]
0	0xbd087f22	-0.03332437
1	0x3dd84b21	0.10561205
2	0x3cf47400	0.02984047
3	0xbde46ee3	-0.111539625
4	0x3dbd8230	0.09253347
5	0xbd6c2722	-0.057654507
6	0x3cc2c86b	0.023777207
7	0x3b7bcd40	0.00384219
8	0xbbddd080	-0.00676924
9	0x3cb95300	0.022622585
10	0xbdd3abbe	-0.103354916
11	0xbd85ec2d	-0.065391876
12	0x3d4fc508	0.050725013
13	0xbd90da51	-0.070728905
14	0xbd67cd80	-0.056592464
15	0xbd3b7f0d	-0.045775462
16	0x3db8fa92	0.090321675
17	0x3d2715e9	0.04079238
18	0x3d7e64cf	0.062107857
19	0x3dc6aa70	0.09700477
20	0x3dfb16ae	0.12260185
21	0x3d7a7389	0.06114534
22	0x3d67f124	0.056626454
23	0xbdcd7333	-0.10031738
24	0x3d8da1c8	0.06915623
25	0xbd5d3ee4	-0.054015055
26	0xbc84768f	-0.016169814
27	0xbdd161a4	-0.102237016
28	0xbd73cff6	-0.0595245
29	0xbdb80efc	-0.08987233
30	0xbbab44cf	-0.0052267085
31	0x3bfde249	0.0077479226
32	0x3cb1b83f	0.0216943
33	0x3d54c18c	0.051942393
34	0xbd8ac6b9	-0.067761846
35	0xbd996f8e	-0.074919805
36	0xbd659898	-0.056053728
37	0xbdb400a0	-0.08789182
38	0x3b30d904	0.002698482
39	0x3d8c6811	0.068557866
40	0x3d8aa8f3	0.06770506
41	0x3da5671b	0.080763064
42	0xbc973402	-0.018457416
43	0x3d97b1ca	0.074069574
44	0x3b213740	0.0024599582
45	0xbd7d20fc	-0.061799034
46	0x3df9835e	0.121832594
47	0x3aa9dd35	0.0012959602
48	0x3d24e4f4	0.04025741
49	0xbd22dc14	-0.039760664
50	0xbd0141b5	-0.031556804
51	0xbddf6174	-0.109072596
52	0xbd801efc	-0.0625591
53	0xbd6f9341	-0.05849004
54	0xbdb64ab4	-0.08900967
55	0xbde50692	-0.11182894
56	0x3c8bdf47	0.01707424
57	0x3d381988	0.044946223
58	0x3d820574	0.06348696
59	0x3ddbdf8e	0.10735999
60	0xbca2130a	-0.01978447
61	0xbdea55e7	-0.11442166
62	0xbcb47c85	-0.022032032
63	0x3cfd2bc0	0.03090465
64	0x3e4a8980	0.19779015
65	0x3ec002bc	0.37502086
66	0x3d90ac60	0.07064128
67	0x3eb61b50	0.35567713
68	0x3e795e03	0.24352269
69	0x3e9ba39e	0.30398268
70	0x3e6cbb4a	0.2311832
71	0xbdeca5c7	-0.11555057
72	0xbe1e1506	-0.15437707
73	0x3e1acea5	0.15117891
74	0x3d6be534	0.057591632
75	0x3ed9ab6a	0.4251359
76	0x3eb10ffc	0.34582508
77	0x3e90ed99	0.28306273
78	0x3e89053a	0.267618
79	0x3d2afbe1	0.041744117
80	0x3edf189e	0.4357347
81	0x3d2b70c4	0.04185559
82	0x3e9023c4	0.28152287
83	0x3e088807	0.1333314
84	0x3ddd485c	0.10804817
85	0x3ee00536	0.43753976
86	0xbdaa1018	-0.08303851
87	0x3ed5c1d0	0.4174943
88	0xbd560292	-0.052248545
89	0xbdbaec1b	-0.09127065
90	0x3eac1b82	0.33614737
91	0x3eb4daa1	0.3532305
92	0x3ec008dd	0.37506762
93	0x3ecc85ef	0.39945933
94	0x3edbdad8	0.42940402
95	0x3e5cc7d1	0.21560599
96	0x3e870df7	0.26377842
97	0x3e92ac0e	0.28646892
98	0x3d5f3472	0.054493375
99	0x3e49c376	0.19703469
100	0x3e774793	0.24148397
101	0xbdecbe60	-0.11559749
102	0x3eb4116e	0.35169548
103	0xbd37fb4d	-0.044917393
104	0x3e78c123	0.24292426
105	0x3e6d6b6c	0.2318551
106	0x3bbfcbe8	0.005853165
107	0x3e793cea	0.24339643
108	0xbdaacdae	-0.083400115
109	0xbbd2c80d	-0.0064325393
110	0xbd15a534	-0.036534503
111	0x3ec36b39	0.38167742
112	0xbbb8d156	-0.005640189
113	0x3ee5d3a0	0.4488802
114	0x3ecd6b16	0.40120763
115	0x3ebaa39f	0.36452958
116	0xbc9c7ff5	-0.019103983
117	0x3eb82363	0.35964498
118	0x3e4c933f	0.19978045
119	0x3d2b50e5	0.041825194
120	0x3e732d7f	0.23747824
121	0x3cbbb07c	0.022911303
122	0x3bef021a	0.0072939517
123	0x3d38f138	0.04515192
124	0xbddc9169	-0.10769922
125	0x3ebec126	0.37256736
126	0x3e693b5f	0.22776555
127	0x3d3b42cf	0.04571801
128	0x3d353806	0.04424288
129	0xbd2de42c	-0.04245393
130	0x3defe9a8	0.11714488
131	0x3dc289d3	0.09498944
132	0xbc6f2bcf	-0.014597847
133	0xbde92d4a	-0.11385591
134	0x3d720a6b	0.059091967
135	0x3d482b70	0.04886955
136	0xbc0e1350	-0.008671597
137	0x3d9e26a6	0.07722215
138	0xbd844a9a	-0.064595416
139	0x3ddbafb1	0.1072687
140	0x3b9d4a68	0.0048001297
141	0xbd8a287f	-0.06746005
142	0x3c6ed470	0.014577016
143	0x3d99070d	0.07472048
144	0xbdede914	-0.11616722
145	0x3d268fc4	0.04066445
146	0x3b6934ad	0.0035584376
147	0x3d1167a4	0.03549923
148	0x3c56b6a0	0.013105065
149	0xbd07198f	-0.03298336
150	0xbdd9268e	-0.10603057
151	0xbdb830a9	-0.08993656
152	0x3de460ae	0.11151253
153	0xbdc008d4	-0.09376684
154	0x3cdb198f	0.026745586
155	0xbde8c29b	-0.11365243
156	0xbd22eeae	-0.039778404
157	0xbd5e4138	-0.054261416
158	0xbd09bac6	-0.033625387
159	0xbd9fe234	-0.07806817
160	0x3cf9f56a	0.03051253
161	0x3debd628	0.115154564
162	0xbab3417b	-0.0013676131
163	0xbaf72165	-0.0018854557
164	0x3dc96a6b	0.09834751
165	0x3cc49278	0.023995623
166	0xbc10470e	-0.008806003
167	0xbd4233a8	-0.047412544
168	0x3ddb074d	0.10694752
169	0xbcb1df4b	-0.02171292
170	0xbdf0abb2	-0.11751498
171	0x3dcc5667	0.099774174
172	0x3d83005c	0.06396553
173	0xbd048810	-0.03235632
174	0x3d4188c0	0.047249556
175	0xbd6d4652	-0.05792839
176	0xbd0fa2c0	-0.03506732
177	0xbda6f29b	-0.08151742
178	0xbd8404f4	-0.06446257
179	0x3d928e3e	0.07156037
180	0xbdaee5da	-0.085399345
181	0xbda17d9a	-0.07885285
182	0xbdc3f038	-0.095673025
183	0x3dec9606	0.11552052
184	0xbcb776ae	-0.022395458
185	0x3ded3f5a	0.11584349
186	0x3d74f747	0.059806135
187	0xbdf9836c	-0.1218327
188	0x3cb67453	0.022272265
189	0x3d4fe28a	0.050753154
190	0xbd6153a1	-0.055011395
191	0xbcc23910	-0.02370885
192	0xbd62e3d7	-0.055393066
193	0x3d9036f6	0.07041733
194	0xbde7ff0e	-0.11327945
195	0xbc75ef11	-0.015010611
196	0xbcbfedf0	-0.023428887
197	0xbc3bbd56	-0.011458715
198	0xbd25f089	-0.040512595
199	0xbddf5e2a	-0.10906632
200	0x3dd5da76	0.10442059
201	0x3d1257f8	0.035728425
202	0x3afd8680	0.0019342452
203	0xbe040c9f	-0.1289544
204	0x3d55f83b	0.052238684
205	0x3d6e375f	0.058158275
206	0xbd270d4a	-0.040784158
207	0x3dba969a	0.09110756
208	0xbc864272	-0.016389105
209	0xbc4bc52b	-0.012437145
210	0xbd4d613a	-0.05014155
211	0xbe005e4b	-0.1253597
212	0xbe06991c	-0.13144344
213	0x3d62a1e3	0.05533017
214	0xbe01d9a7	-0.12680684
215	0xbdeab3eb	-0.11460098
216	0xbbecdde9	-0.007228602
217	0x3d2a5474	0.041584447
218	0xbdd6cebc	-0.1048865
219	0xbcf8817e	-0.030335184
220	0xbdcdbd20	-0.10045838
221	0x3dc20af4	0.094747454
222	0x3d24b1a7	0.040208485
223	0xbc9a36b6	-0.018824916
224	0x3c723dfe	0.014785288
225	0x3d70a8fa	0.0587549
226	0xbdeee968	-0.116656125
227	0x3d9363b0	0.07196748
228	0xbdb64e34	-0.08901635
229	0xbddc0c44	-0.10744527
230	0xbd953f40	-0.072874546
231	0xbdfbaf06	-0.122892424
232	0xbdf2bc40	-0.11852312
233	0xbddce261	-0.10785366
234	0xbdbee314	-0.093206555
235	0x3da0982c	0.078415245
236	0xbdce3692	-0.10069002
237	0x3d9fd9c4	0.07805207
238	0xbd3fa900	-0.04679203
239	0xbdf50e80	-0.11965656
240	0xbc83e568	-0.0161006
241	0x3b04d961	0.002027117
242	0xbd852d4e	-0.06502782
243	0x3b2019c0	0.002442941
244	0xbe01be36	-0.12670216
245	0xbdb09b28	-0.08623344
246	0xbdbd9674	-0.09257212
247	0xbcd990a8	-0.026558235
248	0xbdefeb5c	-0.11714813
249	0xbd90506c	-0.07046589
250	0xbaae5a00	-0.0013301969
251	0x3d2d9bc4	0.042384878
252	0x3bba5160	0.00568597
253	0x3d20b269	0.039232645
254	0x3ccb9579	0.024851548
255	0x3cc583a0	0.024110615

layers.2.bias f4 [64]
0	0x3d0d2d40	0.034466982
1	0x3e8c8681	0.27446368
2	0xbcb5d2ad	-0.022195185
3	0xbdeed790	-0.11662209
4	0xbdcd71e8	-0.100314915
5	0xbd67735b	-0.056506496
6	0xbd4bb1f4	-0.049730256
7	0x3d3abb55	0.04558881
8	0xbda298d4	-0.07939306
9	0x3cc9416f	0.024567334
10	0xbcbe68b2	-0.023243282
11	0xbd8814b8	-0.06644577
12	0x3d19e16b	0.03756849
13	0x3c7b39ac	0.015333574
14	0x3dff42dd	0.12463925
15	0x3d095bfd	0.033534992
16	0xbda67848	-0.081284106
17	0x3c0c6479	0.008568876
18	0x3c91338f	0.01772478
19	0xbd205d64	-0.039151564
20	0xbd361b4b	-0.044459622
21	0x3d7d9644	0.061910883
22	0x3bf236a1	0.007391766
23	0x3d96a0b8	0.073548734
24	0x3e6d9ba0	0.23203897
25	0x3dd8b8ce	0.10582124
26	0xbd502985	-0.050820846
27	0xbe09fbfa	-0.13475028
28	0x3e7c15fa	0.24617758
29	0xbdeaa41a	-0.11457081
30	0xbd87d2a0	-0.066319704
31	0x3d1c7fce	0.03820782
32	0xbd1e71a4	-0.038682595
33	0x3d6f92db	0.05848966
34	0xbc9bc63b	-0.019015422
35	0xbd810e57	-0.06301563
36	0xbda56e5d	-0.08077691
37	0x3e804a0f	0.25056502
38	0x3d307230	0.043077648
39	0xbd73d39f	-0.05952799
40	0x3e06dac0	0.13169384
41	0x3d0adbc8	0.033901006
42	0x3e72cc07	0.23710643
43	0x3d098bc0	0.03358054
44	0xbac77710	-0.0015217979
45	0x3dcd994e	0.10039006
46	0xbd82e846	-0.06391959
47	0x3db1b1c0	0.08676481
48	0x3d8488a6	0.06471376
49	0xbceafab9	-0.028684007
50	0x3e85e235	0.26149145
51	0x3df5234e	0.119696245
52	0x3e8009fa	0.25007612
53	0x3d7f3dcd	0.062314797
54	0xbd945bf4	-0.07244101
55	0x3d082d84	0.033246532
56	0x3de57da8	0.11205608
57	0xbde2430c	-0.110479444
58	0xbda7ee02	-0.08199693
59	0x3e614164	0.21997601
60	0xbdb3aee3	-0.08773591
61	0x3c3ec770	0.011644229
62	0xbd4fc473	-0.050724458
63	0x3de74c82	0.112938896

layers.4.weight f4 [3, 64]
0	0x3d8c74ca	0.06858213
1	0x3ef54ed8	0.47911716
2	0xbdc3d4e9	-0.09562094
3	0xbdce4cd2	-0.10073246
4	0x3eddc288	0.43312478
5	0x3e6c1596	0.2305511
6	0xbd7dfd7e	-0.062009327
7	0x3f010536	0.50398576
8	0x3de5ae8e	0.11214934
9	0xbcd87e2d	-0.026427353
10	0xbdcbc856	-0.099503204
11	0xbdf001b2	-0.11719073
12	0xbbb049e0	-0.0053799003
13	0x3ef48623	0.47758588
14	0x3e991df9	0.2990568
15	0xbd801203	-0.062534355
16	0xbdfd212a	-0.12359841
17	0x3c7fbf1e	0.015609531
18	0x3da743bf	0.081672184
19	0xbce0d9a8	-0.027447537
20	0x3e0d904b	0.13824575
21	0x3efb549d	0.49087992
22	0x3ef3bcc2	0.47604948
23	0xbdc60b6c	-0.09670147
24	0x3ee08ff6	0.43859833
25	0x3eab906a	0.33508617
26	0xbde40eee	-0.1113566
27	0x3d603f00	0.05474758
28	0x3ee68ad5	0.45027795
29	0x3d858e14	0.0652124
30	0xbc1af590	-0.009457961
31	0x3f0823a4	0.53179383
32	0xbdca5fc6	-0.098815486
33	0x3ee7f8e0	0.45307064
34	0x3dbc7cf6	0.09203522
35	0x3e97f1c8	0.29676652
36	0x3e8f4ce6	0.27988356
37	0x3ea5a096	0.3234908
38	0xbd747fd4	-0.05969222
39	0xbc28148f	-0.010258808
40	0x3ed1d915	0.40985933
41	0x3d3135d8	0.04326424
42	0x3eff6596	0.4988219
43	0x3cd5f2a0	0.02611667
44	0x3d08cf8e	0.033401065
45	0xbd634568	-0.055486113
46	0xbd6d2b02	-0.057902344
47	0xbdf924e4	-0.121652395
48	0xbdcf27aa	-0.10114987
49	0x3cf38e9d	0.02973109
50	0x3ebfe36c	0.37478197
51	0x3d9e5bc6	0.07732348
52	0x3ee351bd	0.443983
53	0x3d5896d4	0.052878216
54	0xbd2dc6d0	-0.04242593
55	0x3e921999	0.28535154
56	0x3dfd470a	0.12367065
57	0x3d314ee8	0.04328814
58	0xbd9d1440	-0.07669878
59	0x3ed2d30a	0.41176635
60	0xbd229273	-0.039690446
61	0xbdf34830	-0.11879003
62	0xbe2d219d	-0.16907354
63	0xbd824750	-0.06361258
64	0x3d662788	0.056190044
65	0x3ecfd583	0.40592584
66	0x3d1b39eb	0.03789703
67	0x3d8bb45a	0.06821509
68	0x3e4b3065	0.1984268
69	0x3d477202	0.04869271
70	0xbcd65184	-0.026161917
71	0x3ddc9e45	0.10772375
72	0xbce43c98	-0.027860925
73	0xbb4b06a6	-0.0030979305
74	0x3ca9194d	0.020641947
75	0xbda35334	-0.07974854
76	0xbb617acf	-0.0034405475
77	0x3e508ec5	0.20366962
78	0x3e9d1e20	0.30687046
79	0xbc18398e	-0.009291066
80	0x3cfff500	0.031244755
81	0xbd1fa845	-0.038978834
82	0xbbdc05f6	-0.006714578
83	0x3ddad240	0.10684633
84	0x3d0b8c32	0.034069248
85	0x3e8b93e2	0.27261263
86	0x3e313e68	0.17308962
87	0xbcbe1680	-0.023204088
88	0x3ee297de	0.4425649
89	0x3e950c86	0.29111117
90	0xbd938f28	-0.07205039
91	0x3ceb8d13	0.028753793
92	0x3ec4739d	0.38369456
93	0xbbe8ef00	-0.007108569
94	0xbcf6438e	-0.03006151
95	0x3e6c977b	0.2310466
96	0xbd3c26e0	-0.04593551
97	0x3ebaf0a2	0.36511713
98	0x3d5f2eeb	0.054488104
99	0x3d1e3091	0.038620535
100	0x3dd010ab	0.10159429
101	0x3eca69dd	0.39533892
102	0x3de987fa	0.114028886
103	0xbd92e86b	-0.071732365
104	0x3e613a70	0.21994948
105	0xbc985470	-0.01859495
106	0x3e904bdb	0.28182873
107	0xbd032174	-0.032014325
108	0x3d004f33	0.03132553
109	0x3dd46332	0.103704825
110	0x3c8f70cf	0.017509846
111	0x3ad3c65c	0.0016157138
112	0x3d0ae0c4	0.03390576
113	0x3de83fad	0.1134027
114	0x3ed251ec	0.41078126
115	0xbd20545c	-0.03914295
116	0x3e906974	0.28205454
117	0x3dc1137c	0.094275445
118	0x3c4959a0	0.012289435
119	0x3e3d2b91	0.1847365
120	0xbd7b99d0	-0.061425984
121	0xbb6e4900	-0.003635943
122	0x3c701c14	0.014655132
123	0x3ed75421	0.42056373
124	0xbdaedada	-0.085378364
125	0xbc097c30	-0.008391425
126	0x3c8c1880	0.017101526
127	0xbd82cf06	-0.06387143
128	0x3b6831a2	0.0035429974
129	0x3deefb33	0.11669006
130	0x3db8ba19	0.0901987
131	0x3dfd8baa	0.123801544
132	0x3e9f09e4	0.31062233
133	0x3e1159ef	0.14194463
134	0x3d9efdcc	0.07763252
135	0x3e54e31f	0.20789765
136	0x3dee6ed2	0.11642231
137	0x3d0e2f29	0.034712944
138	0x3d023051	0.03178436
139	0x3d0a1eb0	0.033720672
140	0xbd0bf720	-0.034171224
141	0x3d9a68a3	0.07539489
142	0x3de2a65f	0.11066889
143	0x3ca37d0c	0.019957088
144	0xbdce09de	-0.10060476
145	0x3bcbad9e	0.006215765
146	0x3d71b4c4	0.059010282
147	0xbdc5511a	-0.096346095
148	0x3cbc5cd0	0.022993475
149	0x3e0db961	0.13840248
150	0x3dea3d99	0.1143753
151	0x3cc9cff0	0.024635285
152	0x3e213d51	0.15746047
153	0x3e1c1f16	0.15246233
154	0xbd838752	-0.06422295
155	0xbd3a19bc	-0.0454347
156	0x3d90fb12	0.07079138
157	0x3deed9a4	0.116626054
158	0xbda1c7c2	-0.07899429
159	0x3e9aa000	0.30200195
160	0xbd8a3eac	-0.06750235
161	0x3da6667a	0.081250146
162	0xbd16cb20	-0.03681481
163	0x3db87381	0.090064056
164	0x3df0e6b8	0.11762756
165	0x3e0d59d6	0.13803801
166	0xbd989b60	-0.074515104
167	0x3d1e10bd	0.03859018
168	0x3e2118ad	0.1573207
169	0x3d2bb30c	0.0419188
170	0x3de10f1d	0.10989211
171	0x3d851bfe	0.0649948
172	0x3d94aadb	0.072591506
173	0xbdf058b2	-0.11735667
174	0x3d883e70	0.06652534
175	0x3d3deabb	0.046366435
176	0x3dbb5bd0	0.09148371
177	0x3d015e5a	0.03158412
178	0x3e0301a1	0.1279359
179	0xbdf48c9c	-0.119408816
180	0x3df7c57a	0.120982125
181	0xbddec22e	-0.108768806
182	0xbdff832e	-0.124761924
183	0x3e028b4a	0.12748447
184	0xbda63176	-0.08114903
185	0x3d146798	0.036231607
186	0xbd094644	-0.033514276
187	0x3e15cb5e	0.1462836
188	0x3cd40bb3	0.025884485
189	0xbcde1838	-0.027111158
190	0xbd48693b	-0.04892848
191	0x3d376d34	0.04478188

layers.4.bias f4 [3]
0	0x3e81da87	0.25362036
1	0x3ec9133e	0.39272493
2	0x3e1cf0cb	0.1532623
