weights/trained_agent_model_BNB-USD.pth (torch, 28304 bytes, 6 tensors)

layers.0.weight f4 [64, 30]
0.013413772 -0.1446931 -0.100156456 -0.124193214 -0.043075636 0.09436814 -0.12886515 -0.02098302
0.029825466 0.10269807 -0.11166658 0.002756701 -0.014605779 -0.09276499 -0.019277683 0.13241456
-0.16220438 -0.12666409 -0.11861933 -0.046936926 0.05625637 0.13801225 -0.14303981 -0.13402584
-0.18120432 0.09425558 -0.06930926 -0.14553192 0.03983269 0.13969521 0.22444516 0.1638707
0.107929714 0.14269623 0.3582666 0.37116176 0.24385595 0.1757618 0.36352673 0.35720068
0.35941705 0.29464868 0.32959962 0.19347101 0.1239889 0.3428231 0.28494895 0.19226736
0.35077694 0.3549082 0.4038862 0.25117722 0.12496317 0.40682182 0.11588468 0.28027838
0.23733665 0.27212974 0.38786918 0.43687487 0.24050835 0.32148248 0.052086867 0.10130521
0.10997333 0.10114661 0.2582223 0.21459734 0.09253126 0.3142912 0.03347571 0.27630955
0.032514554 0.3019097 0.113921635 0.08626331 0.19270886 0.12516962 0.26358774 0.33517054
0.1773553 0.038511667 0.023355959 0.23500189 0.3202437 0.34339592 0.041098382 0.2598364
0.29928854 0.19475563 0.27475128 0.1319693 0.13430437 0.14856832 0.00254607 0.051701408
0.17976998 0.18906729 0.30138955 -0.011232725 0.14675897 0.3249696 0.16203654 0.24671485
0.16687912 0.21876764 0.13162467 0.1899654 0.13277304 0.2058303 0.29791945 0.33466896
0.14315031 0.053587396 0.31018573 0.015450251 0.13878661 0.28191295 0.17827177 0.22260797
-0.15869348 -0.106766574 0.07545354 0.14075117 -0.10587181 -0.1509608 -0.06844048 -0.0062550195
0.1512182 -0.095763534 -0.10995534 -0.06809808 0.15787089 0.08658182 -0.17659186 0.12985235
-0.12358155 0.044430368 -0.14123294 -0.007847291 0.057627667 -0.085168146 0.07367396 -0.17809197
-0.024696397 -0.07283409 -0.04264783 -0.07773625 -0.16406131 0.04639455 0.32431164 0.41803485
0.22173321 0.3182109 0.37407655 0.3950595 0.31497574 0.09342798 0.13117087 0.32589918
0.33635116 0.26119056 0.2620987 0.10559515 0.16550702 0.28128812 0.1305508 0.34673485
0.18397745 0.34406677 0.08435179 0.42710164 0.089293174 0.35285076 0.27443066 0.2934993
0.13530411 0.21364944 0.07905333 0.33249596 0.25818312 0.104073904 0.29522145 0.3907136
0.34277865 0.25991845 0.157492 0.13392188 0.34223652 0.32855156 0.41958025 0.2033052
0.20815471 0.3509572 0.3214519 0.09943381 0.4222603 0.14806014 0.30868167 0.26620486
0.14423731 0.3571688 0.4270392 0.09340078 0.20336935 0.2210339 0.31794992 0.3684139
0.19713683 0.25665972 0.38063827 0.40030771 0.19070399 0.40291867 0.24981016 0.14484078
0.18146545 0.38491985 0.23035477 0.15900339 0.13316976 0.16417438 0.31909087 0.32854965
0.38525182 0.14367115 0.34634265 0.2948626 0.35907173 0.37140945 0.07912213 0.0556015
0.28325832 0.063088246 0.07858516 0.22175924 0.39640018 0.39224255 0.2643469 0.07618816
0.17136486 -0.09073921 -0.08865204 -0.073809884 0.016883079 -0.096139975 -0.025244623 0.015407095
0.12434318 -0.024199316 0.07120186 0.096982025 -0.051205996 -0.121087335 0.06268675 0.014778666
00000000: 70c5 5b3c 6e2a 14be d41e cdbd 0359 febd
00000010: 1470 30bd 1544 c13d 3af5 03be 95e4 abbc
00000020: 8954 f43c 5e53 d23d 73b1 e4bd c5a9 343b
00000030: 144d 6fbc 92fb bdbd 3bec 9dbc af97 073e
00000040: e818 26be 3bb4 01be b1ee f2bd ef40 40bd
00000050: 146d 663d 1553 0d3e 0779 12be 123e 09be
00000060: a08d 39be 1209 c13d 03f2 8dbd 5206 15be
00000070: 9a27 233d 430c 0f3e f4d4 653e b9cd 273e
00000080: 410a dd3d f61e 123e b86e b73e ea08 be3e
00000090: 60b5 793e e7fa 333e 2d20 ba3e 02e3 b63e
000000a0: 8305 b83e 31dc 963e 48c1 a83e 441d 463e
000000b0: e4ed fd3d 8286 af3e d4e4 913e bce1 443e
000000c0: 0999 b33e 87b6 b53e 2cca ce3e 4d9a 803e
000000d0: b1ec ff3d f34a d03e f254 ed3d a680 8f3e
000000e0: 6108 733e 9754 8b3e ca96 c63e 10ae df3e
000000f0: d247 763e 5a99 a43e 0a59 553d 1b79 cf3d
00000100: b239 e13d f425 cf3d b735 843e 68bf 5b3e
00000110: 0781 bd3d c7ea a03e d31d 093d 7278 8d3e
00000120: fb2d 053d e893 9a3e bf4f e93d d1aa b03d
00000130: 7955 453e 772c 003e f9f4 863e 799b ab3e
00000140: a19c 353e 69be 1d3d ff54 bf3c 56a4 703e
00000150: fbf6 a33e 97d1 af3e c756 283d 4709 853e
00000160: 593c 993e 056e 473e 33ac 8c3e f622 073e
00000170: 1687 093e 4b22 183e f7db 263b dbc4 533d
00000180: 9f15 383e db9a 413e bb4f 9a3e 7709 38bc
00000190: fc47 163e 6a62 a63e e8ec 253e d1a2 7c3e
000001a0: 5ce2 2a3e a004 603e 9ec8 063e 4a86 423e
000001b0: a8f5 073e 2ec5 523e e688 983e bb59 ab3e
000001c0: ff95 123e 757e 5b3d aad0 9e3e 0d23 7d3c
000001d0: 141e 0e3e e556 903e e08c 363e 58f3 633e
000001e0: 8b80 22be 6fa8 dabd 6387 9a3d 1321 103e
000001f0: 52d3 d8bd 7895 1abe 862a 8cbd e8f6 ccbb
00000200: f2d8 1a3e ac1f c4bd 4430 e1bd 0277 8bbd
00000210: e8a8 213e cf51 b13d 7fd4 34be 04f8 043e
00000220: 5318 fdbd 9efc 353d 5e9f 10be ed91 00bc
00000230: fd0a 6c3d a36c aebd 60e2 963d be5d 36be
00000240: 1950 cabc 0a2a 95bd 7eaf 2ebd 2f34 9fbd
00000250: b0ff 27be 3608 3e3d 2d0c a63e aa08 d63e
00000260: 080e 633e 8aec a23e f686 bf3e 3d45 ca3e
00000270: 8044 a13e 2b57 bf3d a851 063e 42dc a63e
00000280: 3836 ac3e c5ba 853e cd31 863e 4542 d83d
00000290: ac7a 293e ff04 903e 1caf 053e 3b87 b13e
000002a0: 9664 3c3e 8529 b03e a2c0 ac3d 11ad da3e
000002b0: 57df b63d dba8 b43e 2d82 8c3e 8a45 963e
000002c0: 298d 0a3e ebc6 5a3e b6e6 a13d e93c aa3e
000002d0: 9430 843e b324 d53d 4427 973e 9d0b c83e
000002e0: af80 af3e 0814 853e 9545 213e d122 093e
000002f0: a039 af3e e937 a83e 39d3 d63e 3d2f 503e
00000300: 8226 553e aab0 b33e 5895 a43e f4a3 cb3d
00000310: 8132 d83e 149d 173e 860b 9e3e 014c 883e
00000320: f2b2 133e d4de b63e e2a4 da3e e848 bf3d
00000330: 0e40 503e b656 623e 55ca a23e bfa0 bc3e
00000340: 3dde 493e e768 833e 05e3 c23e 22f5 cc3e
00000350: e847 433e 5b4b ce3e 3cce 7f3e 2451 143e
00000360: 14d2 393e 3714 c53e 1fe2 6b3e c9d1 223e
00000370: a75d 083e 541d 283e e15f a33e a937 a83e
00000380: ba3f c53e 881e 133e d353 b13e 3bf8 963e
00000390: 40d8 b73e 6129 be3e c90a a23d 66be 633d
000003a0: 3c07 913e 6934 813d 42f1 a03d db14 633e
000003b0: f7f4 ca3e 04d4 c83e 7a58 873e 8a08 9c3d
000003c0: 457a 2f3e 7bd5 b9bd 338f b5bd a329 97bd
000003d0: 624e 8a3c 09e5 c4bd d0cd cebc 0a6e 7c3c
000003e0: a3a7 fe3d a53d c6bc 48d2 913d 839e c63d
000003f0: 61bd 51bd a3fc f7bd e961 803d 3822 723c

layers.0.bias f4 [64]
0.12553388 -0.08555283 0.044635013 -0.1468957 -0.14166287 -0.046914298 0.07018024 -0.11571754
0.1135237 -0.11173289 0.06860422 0.2361417 -0.093317814 -0.116915315 0.09277436 0.10406093
0.0010087822 0.044495076 0.11449732 0.039532673 0.13031806 -0.14850777 -0.008099039 -0.2562537
-0.009109561 -0.11336068 -0.16526885 0.091936685 0.05144332 -0.09799706 -0.24801105 0.07807122
0.14565293 -0.19708298 -0.06967651 0.015370764 0.07194162 -0.075650424 -0.12383483 -0.17233162
-0.048568584 -0.16233969 0.09889725 0.05941156 0.086380854 -0.10811749 0.018935794 -0.015248395
0.038675986 -0.110326715 0.08809062 0.022615675 -0.049849827 0.26001555 -0.12877747 0.01575059
0.13998637 -0.123494454 0.054515596 0.16899998 -0.023961611 -0.017419856 0.0741014 0.06194938
00000000: f48b 003e 5236 afbd 34d3 363d d46b 16be
00000010: 1210 11be 3529 40bd a8ba 8f3d 51fd ecbd
00000020: 1d7f e83d 37d4 e4bd 5f80 8c3d 21cf 713e
00000030: 691d bfbd 4c71 efbd 7c00 be3d e61d d53d
00000040: 1d39 843a 7840 363d 927d ea3d 03ed 213d
00000050: 1972 053e 6c12 18be d5b1 04bc af33 83be
00000060: 4540 15bc a529 e8bd 3d3c 29be 4d49 bc3d
00000070: 3bb6 523d afb2 c8bd 9cf6 7dbe cee3 9f3d
00000080: 0b26 153e 1fd0 49be 8fb2 8ebd a8d5 7b3c
00000090: 2156 933d 9cee 9abd 1e9d fdbd b377 30be
000000a0: daef 46bd 603c 26be a48a ca3d 8959 733d
000000b0: 72e8 b03d b46c ddbd 3d1f 9b3c 67d4 79bc
000000c0: b66a 1e3d f9f2 e1bd db68 b43d 8244 b93c
000000d0: 552f 4cbd c220 853e 3ede 03be 6207 813c
000000e0: 9658 0f3e a9ea fcbd bf4b 5f3d 550e 2d3e
000000f0: 244b c4bc 16b4 8ebc 7ac2 973d a2be 7d3d

layers.2.weight f4 [64, 64]
-0.10295253 0.34502506 0.16751502 0.2883552 0.029997073 0.39768597 0.22558059 0.27690598
0.06286009 0.26066232 0.039038677 0.0074066324 -0.042236935 0.3781335 0.36472973 0.2787868
-0.014163774 -0.07534731 -0.102215484 0.02086006 -0.09560668 -0.029619887 0.063103676 0.29052094
0.31504452 0.24110508 0.06695313 0.22906837 0.19549318 -0.014640206 0.17302668 0.3561543
-0.03456822 0.18779565 0.085668 0.22453108 -0.14276892 0.33040458 -0.06797252 0.07962498
0.29412344 0.05841128 0.37287417 0.012979594 -0.042726506 0.30370414 0.30679622 -0.10107324
0.37489164 0.20630239 -0.029551482 -0.10240604 -0.0074475855 -0.2607658 0.01966767 0.18066828
-0.028035693 -0.099508986 0.3065257 0.22244819 -0.19398087 0.032338254 -0.029708806 0.30031154
-0.113016844 0.08718089 -0.00686574 -0.12836684 -0.048990145 0.08701561 0.033985775 -0.028786277
-0.09062603 0.08404448 -0.060126767 0.06860192 0.06473729 -0.033184405 0.04599832 -0.07269346
-0.08528826 -0.03140478 0.045154005 0.022413239 -0.09824017 0.06786558 0.0073988587 -0.019815851
0.040039394 -0.052128684 0.06809637 -0.014933973 -0.0806833 -0.045225486 0.11468691 -0.017915031
-0.056612536 0.080641516 -0.03852296 0.09134572 0.0057627717 -0.014223464 0.11270197 -0.10757473
-0.07220421 0.026416168 -0.01026244 0.06998815 -0.10056816 -0.030324439 -0.06309795 -0.100467786
-0.14521626 0.07436785 -0.0028786007 0.028690785 -0.10509856 0.002277583 -0.09565875 0.032037366
0.12313239 -0.016166583 -0.016326882 -0.078351006 -0.06158195 0.04619861 -0.0038107932 -0.00023796773
0.03419435 0.18740784 0.16724968 0.22193407 -0.046506632 0.35041448 0.17607363 0.32388505
-0.10791257 0.27615163 -0.17439994 -0.056658484 0.07603882 0.3582479 0.18261483 0.32918125
-0.018498246 -0.15285234 -0.0934314 0.03822869 -0.077736564 0.019196061 -0.14053495 0.092757225
0.11319825 0.21122585 0.10981753 0.32262513 0.2830864 -0.11427162 0.08569741 0.21151137
0.05505674 0.08885412 -0.056533888 0.20818414 -0.07898207 0.19332464 -0.1242774 0.045488916
0.29132482 -0.009541034 0.21278317 -0.050848585 0.013935893 0.3221944 0.20148824 -0.117456615
0.2276876 0.122071415 -0.060447715 0.084159605 -0.08982432 -0.2792011 -0.06239947 0.16947228
0.049166862 -0.10503237 0.1827238 0.342995 -0.014136828 -0.014466204 -0.04805424 0.24537238
-0.005612597 -0.07312738 0.010952443 0.10087204 -0.042130917 0.0029399523 0.054381993 0.056850113
-0.052372277 -0.066962995 -0.08269128 0.11911303 0.07697272 -0.1217808 0.026081935 -0.09727366
0.081504166 -0.05218783 0.005195573 -0.10018624 0.067993775 -0.037743136 0.047142178 -0.0013922659
-0.03557535 0.09252849 -0.020354494 -0.096511304 0.047689065 -0.030445047 0.007632613 -0.103556156
-0.06343351 -0.02680965 -0.07912235 0.011606051 -0.026648626 -0.02699747 0.057734504 0.022031903
-0.061799224 0.105117545 0.07320546 0.058119163 0.061246186 -0.06281676 0.024672715 -0.06720166
-0.021422649 0.1132064 0.08856561 -0.0025120825 0.040114135 -0.048019424 -0.0504885 -0.0976521
0.10041843 0.00084733963 -0.09881903 0.104859665 -0.0017859592 -0.12438376 -0.003455907 0.003641732
00000000: c7d8 d2bd 20a7 b03e 0f89 2b3e 4ba3 933e
00000010: 6cbc f53c 7f9d cb3e 99fe 663e 9fc6 8d3e
00000020: cabc 803d 8875 853e 05e7 1f3d 56b3 f23b
00000030: a300 2dbd b79a c13e dbbd ba3e 25bd 8e3e
00000040: 2d0f 68bc b14f 9abd 5a56 d1bd b7e2 aa3c
00000050: 6fcd c3bd 68a5 f2bc 803c 813d 29bf 943e
00000060: 844d a13e 40e4 763e b91e 893d e690 6a3e
00000070: 5d2f 483e 79dd 6fbc e82d 313e db59 b63e
00000080: 6897 0dbd 814d 403e b472 af3d 7aeb 653e
00000090: 0432 12be ca2a a93e 2d35 8bbd 6c12 a33d
000000a0: 5997 963e ab40 6f3d 5de9 be3e 5da8 543c
000000b0: fd01 2fbd 1c7f 9b3e 6514 9d3e 7dff cebd
000000c0: ccf1 bf3e ef40 533e f315 f2bc 42ba d1bd
000000d0: e00a f4bb 1883 85be 181e a13c 1b01 393e
000000e0: 1cab e5bc 5ecb cbbd f0f0 9c3e 75c9 633e
000000f0: eca2 46be 1e75 043d e25f f3bc 6fc2 993e
00000100: 6075 e7bd e58b b23d 00fa e0bb 9972 03be
00000110: e4a9 48bd 3d35 b23d ab34 0b3d 33d1 ebbc
00000120: 249a b9bd 831f ac3d 7c47 76bd 2a7f 8c3d
00000130: fc94 843d 5fec 07bd bc68 3c3d 4fe0 94bd
00000140: 9cab aebd 4ca2 00bd 68f3 383d f89b b73c
00000150: 2432 c9bd 1cfd 8a3d 2072 f23b da54 a2bc
00000160: 5900 243d e384 55bd 1c76 8b3d 9fad 74bc
00000170: 493d a5bd 5c3e 39bd f8e0 ea3d 8bc2 92bc
00000180: 8ce2 67bd 6127 a53d 40ca 1dbd 7713 bb3d
00000190: a2d5 bc3b 8809 69bc 4ad0 e63d 2450 dcbd
000001a0: cddf 93bd b866 d83c cb23 28bc f255 8f3d
000001b0: aef6 cdbd f56a f8bc 7f39 81bd 0ec2 cdbd
000001c0: 92b3 14be 2c4e 983d e8a6 3cbb f008 eb3c
000001d0: ea3d d7bd 8043 153b bce8 c3bd 9d39 033d
000001e0: d62c fc3d c86f 84bc f4bf 85bc 7e76 a0bd
000001f0: 5b3d 7cbd c13a 3d3d 80be 79bb fa86 79b9
00000200: 600f 0c3d d7e7 3f3e 8043 2b3e af42 633e
00000210: bd7d 3ebd 8769 b33e a54c 343e 43d4 a53e
00000220: 4401 ddbd bf63 8d3e e695 32be ba12 68bd
00000230: 3eba 9b3d 456c b73e 62ff 3a3e 728a a83e
00000240: a289 97bc 5385 1cbe f658 bfbd b095 1c3d
00000250: 5934 9fbd 0f41 9d3c 65e8 0fbe 80f7 bd3d
00000260: 7cd4 e73d 974b 583e 03e8 e03d 1f2f a53e
00000270: b3f0 903e 3d07 eabd 2082 af3d 7096 583e
00000280: 2d83 613d 26f9 b53d 1490 67bd 392e 553e
00000290: 5ac1 a1bd e5f6 453e 2685 febd 9652 3a3d
000002a0: 8728 953e ff51 1cbc d5e3 593e 9b46 50bd
000002b0: 5f53 643c aaf6 a43e ef52 4e3e 188d f0bd
000002c0: f026 693e 9400 fa3d 0698 77bd df5b ac3d
000002d0: d0f5 b7bd 72f3 8ebe 9696 7fbd 248a 2d3e
000002e0: 3163 493d 361b d7bd f31b 3b3e 0a9d af3e
000002f0: 279e 67bc a803 6dbc 86d4 44bd e642 7b3e
00000300: e0e9 b7bb cfc3 95bd e071 333c 0096 ce3d
00000310: 7891 2cbd 37ac 403b a7bf 5e3d aadb 683d
00000320: 5084 56bd e523 89bd 0c5a a9bd 88f1 f33d
00000330: e0a3 9d3d 3668 f9bd c8a9 d53c 6a37 c7bd
00000340: a8eb a63d e8c2 55bd a03f aa3b 722e cdbd
00000350: 5240 8b3d 8c98 1abd 2818 413d b17c b6ba
00000360: 75b7 11bd 947f bd3d 78be a6bc b8a7 c5bd
00000370: 9c55 433d e467 f9bc 001b fa3b 4015 d4bd
00000380: 6ee9 81bd e99f dbbc e60a a2bd 4e27 3e3c
00000390: 384e dabc cc29 ddbc 047b 6c3d 407c b43c
000003a0: 2f21 7dbd de47 d73d bfec 953d 5c0e 6e3d
000003b0: 48dd 7a3d 13a6 80bd 6f1e ca3c 06a1 89bd
000003c0: 8d7e afbc c2d8 e73d e361 b53d c0a1 24bb
000003d0: b84e 243d 04b0 44bd 08cd 4ebd d3fd c7bd
000003e0: 2ea8 cd3d 0020 5e3a a261 cabd aac0 d63d
000003f0: d916 eaba eabc febd 807c 62bb 20aa 6e3b

layers.2.bias f4 [64]
0.13130221 0.035205632 -0.002006328 0.098179795 0.07519406 -0.12386514 -0.11537486 -0.008706052
0.08837416 0.15668848 0.12130053 -0.058558762 0.15285578 -0.10905387 0.55518013 0.06536957
0.0048271394 0.08635196 -0.100862235 0.018099964 0.101312526 -0.04754357 0.084012344 0.028180314
0.081254706 -0.12314958 0.08557261 0.08336453 0.06317645 0.17180781 0.056343555 0.016383244
-0.0057798754 -0.065592155 0.087178364 -0.11860308 0.10079484 0.09113764 -0.03667564 0.032410227
0.03965249 0.050827634 0.1281405 0.1508163 -0.094580986 0.04676482 0.1731013 -0.0738012
0.020863011 -0.13040276 -0.08433234 -0.09414534 -0.0194451 0.08088691 -0.08108883 0.02963967
-0.059628382 0.0049594482 -0.10510473 0.07251933 0.08769265 0.02863693 0.080305934 -0.06138167
00000000: 1674 063e c833 103d 997c 03bb 7d12 c93d
00000010: 58ff 993d 02ad fdbd a849 ecbd d4a3 0ebc
00000020: 83fd b43d f272 203e 6a6c f83d 50db 6fbd
00000030: 3a86 1c3e a357 dfbd 4920 0e3f 7be0 853d
00000040: fb2c 9e3b 4cd9 b03d dc90 cebd 6046 943c
00000050: f17c cf3d 0cbd 42bd aa0e ac3d 67da e63c
00000060: de68 a63d d935 fcbd b140 af3d 06bb aa3d
00000070: a862 813d 63ee 2f3e 80c8 663d 2736 863c
00000080: 1c65 bdbb 2e55 86bd 928a b23d 2ce6 f2bd
00000090: 866d ce3d 5fa6 ba3d 3239 16bd 96c0 043d
000000a0: a66a 223d a330 503d 4337 033e 976f 1a3e
000000b0: adb3 c1bd 788c 3f3d 7841 313e 1525 97bd
000000c0: e8e8 aa3c 4d88 05be 6fb6 acbd 46cf c0bd
000000d0: 554b 9fbc 09a8 a53d e711 a6bd e5ce f23c
000000e0: e43c 74bd de82 a23b 2641 d7bd 0485 943d
000000f0: 3498 b33d ff97 ea3c 7077 a43d 596b 7bbd

layers.4.weight f4 [3, 64]
0.4841862 0.096965924 0.3156683 0.10231319 -0.07234706 -0.10489081 -0.073304825 0.2872286
0.3712817 0.39281654 0.19541962 -0.025584206 0.40226412 0.037305307 0.17766201 0.5454072
0.33288562 -0.17261858 -0.01534757 -0.10219583 -0.097421326 0.0012011379 -0.096845105 -0.13450682
0.021949792 -0.007999291 -0.046277445 0.06732555 0.34982094 0.41063556 0.3746525 -0.0021423101
0.4072197 0.044801548 0.44077525 0.026677335 -0.05986832 0.409434 -0.027896995 -0.03701821
0.043476388 0.34409085 0.52068365 0.5394562 0.01781076 0.0033600181 0.35793102 0.031042509
0.06696384 -0.10176157 -0.056160092 -0.08310425 0.46971047 0.0012556731 -0.10574278 -0.016314745
-0.06934813 -0.10227442 0.06937817 0.3469797 -0.10759528 0.11349911 0.43935657 0.37592268
0.38472155 -0.087838724 0.24085644 -0.008862983 0.10120255 0.015487665 0.067454286 0.3977444
0.4158923 0.27351606 0.22021268 -0.06852274 0.29191464 0.041873336 0.39977458 0.23684576
0.2672873 0.01656777 0.118305236 0.10720864 0.06739337 0.058259293 0.0319157 -0.10193081
0.055966984 0.048951715 -0.047003 -0.0113776475 0.35268483 0.3106845 0.28855553 -0.098405644
0.15136805 0.07155217 0.2632056 0.02829751 0.11435825 0.32196695 0.006437136 -0.04110449
0.0053191977 0.305825 0.36260253 0.2542531 -0.069764 0.11483258 0.3527203 -0.100695156
-0.095805615 0.043180004 -0.0008825874 0.107333496 0.29487917 -0.112840466 0.0038667463 0.002673049
0.043860972 -0.09550469 -0.11706185 0.26014277 0.07001315 0.12588209 0.2024506 0.15189624
0.08225395 0.0007201202 0.06385826 0.073286735 -0.11579642 -0.030481651 -0.04644917 -0.013654745
0.027373102 0.09768253 0.1011989 0.035119772 -0.013426969 0.0011238813 0.08154559 0.216755
0.12623885 0.09694338 -0.046903998 0.11707945 0.102812625 -0.05493951 0.086058244 0.039122123
0.07965068 0.065536514 -0.0015901346 0.11961968 0.042647917 0.03302259 0.09061743 -0.073920175
0.0033121072 0.117986426 0.0945496 0.022503152 -0.049126714 -0.017563451 0.02461438 0.043992776
0.092761874 0.05959635 0.05519432 0.1629977 0.042079724 -0.09282772 -0.0005129499 0.014218629
-0.030030623 -0.0076654805 0.11693953 -0.087069035 0.042542126 0.035604935 0.06648958 0.019985154
0.05886811 -0.09063956 -0.12201175 0.10522848 -0.081829876 0.074479565 0.047004767 0.06716475
00000000: 41e7 f73e 1296 c63d 479f a13e 9489 d13d
00000010: b22a 94bd fed0 d6bd d720 96bd a10f 933e
00000020: a318 be3e 401f c93e 151c 483e f895 d1bc
00000030: 90f5 cd3e 73cd 183d 08ed 353e ce9f 0b3f
00000040: fc6f aa3e edc2 30be 6074 7bbc 0c4c d1bd
00000050: d584 c7bd 806f 9d3a ba56 c6bd 28bc 09be
00000060: 0dd0 b33c 750f 03bc 6b8d 3dbd fae1 893d
00000070: bb1b b33e d33e d23e 74d2 bf3e 0066 0cbb
00000080: 1a7f d03e d481 373d 4bad e13e 6d8a da3c
00000090: 7c38 75bd 55a1 d13e 3d88 e4bc 68a0 17bd
000000a0: 4c14 323d ad2c b03e 864b 053f cd19 0a3f
000000b0: dfe7 913c c033 5c3b bc42 b73e dc4c fe3c
000000c0: 5624 893d 5f68 d0bd 2008 66bd 9032 aabd
000000d0: e47d f03e 6695 a43a ac8f d8bd 80a6 85bc
000000e0: 6406 8ebd 4075 d1bd 2416 8e3d 53a7 b13e
000000f0: ea5a dcbd 3972 e83d 58f3 e03e f078 c03e
00000100: 39fa c43e cae4 b3bd 12a3 763e 0c36 11bc
00000110: 4843 cf3d fabf 7d3c 7925 8a3d 27a5 cb3e
00000120: d6ef d43e 4c0a 8c3e 6f7f 613e a655 8cbd
00000130: d675 953e 6083 2b3d 41af cc3e b287 723e
00000140: e2d9 883e 22b9 873c 044a f23d 3490 db3d
00000150: 8905 8a3d 4ca1 6e3d 09ba 023d 1ac1 d0bd
00000160: a33d 653d 9881 483d 3886 40bd 5069 3abc
00000170: 1b93 b43e 0a12 9f3e 8dbd 933e e688 c9bd
00000180: 3a00 1b3e f289 923d e2c2 863e 2ed0 e73c
00000190: a834 ea3d dad8 a43e 9cee d23b 2f5d 28bd
000001a0: aa4c ae3b 1895 9c3e 0aa7 b93e 762d 823e
000001b0: 6ee0 8ebd 582d eb3d c197 b43e 4339 cebd
000001c0: bc35 c4bd 84dd 303d 705d 67ba aad1 db3d
000001d0: 67fa 963e e718 e7bd 3d69 7d3b 522e 2f3b
000001e0: 90a7 333d f797 c3bd 20be efbd 6f31 853e
000001f0: 0e63 8f3d 3ce7 003e 364f 4f3e b08a 1b3e
00000200: c274 a83d 73c6 3c3a 1fc8 823d 5b17 963d
00000210: ac26 edbd a8b4 f9bc 7c41 3ebd 27b8 5fbc
00000220: 8e3d e03c c70d c83d 5e41 cf3d c0d9 0f3d
00000230: cafc 5bbc 334f 933a 6001 a73d 06f5 5d3e
00000240: c244 013e 408a c63d 681e 40bd 5ac7 ef3d
00000250: 6d8f d23d 4008 61bd 4e3f b03d 853e 203d
00000260: e51f a33d 0238 863d 106c d0ba 2afb f43d
00000270: 95af 2e3d b242 073d a295 b93d 7663 97bd
00000280: f00f 593b dea2 f13d 38a3 c13d 8858 b83c
00000290: 1839 49bd 3ae1 8fbc 19a4 c93c c531 343d
000002a0: f0f9 bd3d 4d1b 743d 7013 623d dee8 263e
000002b0: ca5b 2c3d 761c bebd 7c77 06ba 41f5 683c
000002c0: c802 f6bc b62e fbbb fe7d ef3d 4051 b2bd
000002d0: a740 2e3d 7bd6 113d b02b 883d e8b7 a33c
000002e0: b01f 713d 3ca1 b9bd 4ce1 f9bd 0882 d73d
000002f0: 6c96 a7bd be88 983d 1288 403d ac8d 893d

layers.4.bias f4 [3]
0.2715374 0.3620158 -0.08483011
00000000: f306 8b3e 235a b93e 69bb adbd
