weights/trained_agent_model_ETH-USD.pth (torch, 28304 bytes, 6 tensors)

layers.0.weight f4 [64, 30]
00000000: 2a84 9cbc 5bb1 15bd 2d63 ffbd c3f3 85bd
00000010: 6cbf 0fbe b95d a43d cf03 34be 3024 00bd
00000020: 848a c43d fa8f 143e b6c1 b8bd 7ee8 9dbd
00000030: 0200 7a3d 426c f7bc f878 25be c6aa 3fba
00000040: 690f 113e fb15 c83d 8ae7 f83c fb47 3cbe
00000050: cb8d d8bd 4f7e f3bc c6a6 ccbd c400 ca3d
00000060: f763 51be 2be8 05be 289c e6bd f231 dcbc
00000070: ea96 1a3e 95ce fd3d b1c2 febd 03ab a1bc
00000080: 81f2 bebd 38e0 e3bd fb39 74bc ed0b 863d
00000090: 1287 263e 225f 8abd 71ad 0f3d f210 37bd
000000a0: e64c 28be 0e52 343d c9ec debd 110b ec3d
000000b0: 2019 fd3d 36db 533c e169 85bc 401a 1e3e
000000c0: e8e0 0a3e 818c 01be a500 f9bd 335c 25be
000000d0: c5b2 a8bd 8554 febd 12e3 183e e7df f6bd
000000e0: ea45 893d 51af fbbc 79c6 e3bc cf2c d6bd
000000f0: 4266 c8bd f3d0 38be 87d9 373d c23f 04be
00000100: c895 003e f207 7bbd 3421 c03c 3492 10be
00000110: 0161 ee3d 76e9 27be 502a 833d 5018 dbbd
00000120: d4ee 3fbe 5454 a2bd 7db0 48bd 0b3c aa3c
00000130: 1461 4abe 0ab7 463c ba13 47be a492 693c
00000140: 1039 3a3e 2563 4dbd 04be bf3c 7511 ad3c
00000150: a09c abbd 7c85 193e fc3e 233e 8259 52bd
00000160: 2b6b 0e3e f6af 96bd c701 c6bd 6411 78bc
00000170: 9656 19be 46e5 a3bd 5d7f f7bd 49eb 4dbd
00000180: b26e 223e 7af3 8abd a47a 123e a56e 98bd
00000190: 6eed 123e 2dd2 023e 571e 62bd 2a71 06be
000001a0: 0e06 0c3d 00ed febd 4873 8e3b 2140 fcbd
000001b0: c172 1e3e 6c94 2dbd 18d0 f5bd 4675 38be
000001c0: cba2 d0bd d586 37bd fad5 e23d ece2 413e
000001d0: 988d c6bc 97d9 26be f9c3 023d ee96 c43d
000001e0: c34f 413f 9c51 0d3f 036b 0c3f dbc0 fc3e
000001f0: 6d08 ea3e cd78 013f 8188 b63e 9e23 0f3f
00000200: c16e d43e cd59 0f3f c3b4 a63e e522 0c3f
00000210: 0d66 fe3e d9d3 b53e 4e4a cc3e 8a0b a83e
00000220: b06a e63e f7ff c23e 9802 e93e 169a 0d3f
00000230: 04ed 813e 6526 f33e 590e 053f aebe 7f3e
00000240: 1439 033f eb77 0b3f 4245 053f f57e 5a3e
00000250: fb35 f93e f672 c33e 192a 64bd 9e2b 4fbd
00000260: 9660 9dbd a67a c73d 8908 23be 3358 a0bd
00000270: f8f5 2ebe f214 4dbd 363c 88bd 9e3b b93d
00000280: 1bb1 27bc e9f7 b13d 932a 913d 31f2 d83d
00000290: 66a8 4d3c be88 35bd 251d 043e 0ffe 13be
000002a0: 07b9 f8bd 48cb 5ebd c739 61bd f619 49be
000002b0: 1656 37be 0a5a 54bd 4e1c 663d 9521 38bd
000002c0: 6ec9 dbbd 520a ff3d 938d d23c 4be1 d23d
000002d0: 8f80 38be b83a efbd cab3 16be b1a0 27bd
000002e0: 1001 913d 06d1 89bd 9f3d 8e3d 680c f8bd
000002f0: 113a f9bd c784 703d 6dc1 18be b2f9 273e
00000300: c58c 30be 5382 50bd ac0b b7bb d31d 28be
00000310: 2ba6 0ebd 426e ae3d 86ce 053d e8b4 e43d
00000320: b2c0 0dbe aa03 b4bd d06f 2fbd 136d 17be
00000330: e25f 20be 024f debd a03a 28be 4c7d 27be
00000340: 9138 e3bd 5394 32be e7af 0f3f fc52 3d3f
00000350: 3043 e33e db96 263f b7ed 2f3f 8262 f03e
00000360: 2c84 e83e ceec 0e3f dead 143f 7c66 193f
00000370: 9807 be3e 4144 923e c581 ef3e 7bad 163f
00000380: 1fd9 fa3e 2ad6 933e 2260 fd3e ed85 013f
00000390: f55d c83e 7a79 0e3f cd32 8f3e 6067 553e
000003a0: b9ee 803e 0434 943e d5b4 a93e cde8 d43e
000003b0: ac0d 013f 3b72 ec3e 94c1 db3e 0355 9b3e
000003c0: f42a 36be 824d f23d d4a6 3f3d 6d8f 9f3d
000003d0: 8d9c 2bbd d133 48be b56c bd3d df66 26be
000003e0: 4b87 f6bd 942a fa3c 5673 6ebd cfc7 75bd
000003f0: 2d12 203e 0bed 813b 4431 8a3d a4dd 3abe
-0.01910599 -0.036546092 -0.12470088 -0.065406345 -0.14037865 0.08025689 -0.17579578 -0.03128451
0.09596732 0.14508048 -0.090213224 -0.0771036 0.061035164 -0.030202989 -0.16159427 -0.0007311519
0.14166035 0.097698174 0.030383844 -0.18386833 -0.1057392 -0.029723315 -0.09992747 0.09863427
-0.2044829 -0.13076846 -0.11260253 -0.026879285 0.15096632 0.12392918 -0.12439478 -0.019734865
-0.09323598 -0.11126751 -0.014906402 0.065452434 0.16262463 -0.067564264 0.035077516 -0.044693895
-0.16435584 0.044023566 -0.10885007 0.11525548 0.12358308 0.012930682 -0.016285839 0.15439701
0.13562357 -0.12651254 -0.12158326 -0.16148452 -0.082372226 -0.124184646 0.1493037 -0.12054425
0.06702788 -0.030723246 -0.0278046 -0.10457765 -0.09785129 -0.18048458 0.044885185 -0.12914947
0.12557137 -0.061286874 0.023453332 -0.14118272 0.11639596 -0.16397652 0.06404555 -0.106979966
-0.1874345 -0.079262406 -0.048996437 0.020780584 -0.19763595 0.012128601 -0.19441119 0.014256153
0.1818583 -0.05014338 0.023406036 0.021126488 -0.08379483 0.14992326 0.15941995 -0.051354893
0.13908069 -0.07357781 -0.09668308 -0.015140865 -0.14974436 -0.08002715 -0.120848395 -0.050273214
0.1586254 -0.06784721 0.14304596 -0.07442979 0.14348385 0.12775488 -0.055204716 -0.13129106
0.03418546 -0.12447548 0.0043472387 -0.12316919 0.15473463 -0.042377874 -0.12002581 -0.18013486
-0.101873 -0.04480632 0.11075969 0.1893422 -0.024237439 -0.16293941 0.031925175 0.095991
0.7551233 0.5520265 0.54850787 0.49365887 0.45709553 0.5057495 0.3565102 0.5591372
0.4149075 0.559964 0.32559785 0.54740745 0.49687234 0.3551319 0.3990044 0.32821304
0.4500327 0.3808591 0.4550979 0.5531324 0.2537614 0.4749023 0.5197502 0.24975082
0.5125897 0.54479855 0.52058804 0.21337493 0.48673996 0.38173646 -0.05570421 -0.050578706
-0.07684438 0.0974019 -0.15921225 -0.07829323 -0.17086017 -0.050068803 -0.06652109 0.09044574
-0.010235096 0.08689863 0.070881985 0.10593069 0.012552356 -0.04431986 0.12901743 -0.14452384
-0.12144666 -0.054393083 -0.05498674 -0.1963881 -0.17903933 -0.05184368 0.056179337 -0.0449539
-0.10731779 0.1245314 0.025702273 0.102968775 -0.18017791 -0.116811216 -0.14717022 -0.04092473
0.07080281 -0.06729321 0.06945347 -0.12111741 -0.121692784 0.058720376 -0.14917536 0.16403845
-0.172412 -0.050905537 -0.005586108 -0.16417627 -0.03482644 0.08517124 0.03266766 0.11167318
-0.13843039 -0.08789761 -0.042831242 -0.14787702 -0.15661576 -0.10854913 -0.16428614 -0.1635639
-0.110947736 -0.17439394 0.5612778 0.7395475 0.44387197 0.6507394 0.687221 0.46950155
0.4541334 0.55830085 0.580778 0.59922004 0.3711517 0.285677 0.46778694 0.5885846
0.48993775 0.28874332 0.49487406 0.5059498 0.39134184 0.5565411 0.27968445 0.20840216
0.2518213 0.28945935 0.33145776 0.41583863 0.50411487 0.461809 0.42921126 0.30338296
-0.17789823 0.1183119 0.04678996 0.07791028 -0.041897345 -0.19551016 0.0924925 -0.1625018
-0.12037524 0.030537881 -0.05821546 -0.060005005 0.15631934 0.0039650253 0.06747678 -0.18248612

layers.0.bias f4 [64]
00000000: 882b 70bd a822 04be 330f 853e 2c9a 763e
00000010: 6e4b 8fbe ad69 7f3d 389e 6b3c 41be 26be
00000020: 0797 2dbe cfa6 083d 5800 8dbd 9860 93be
00000030: fcfb e8bd 237e 84be 44eb 203e a012 54be
00000040: e1fd c4be 18da d33d 4290 9abd 2680 c7bd
00000050: d82a debd ca7e bfbe 441a 303e 2e33 62be
00000060: 0f74 193e e915 613d 536f 9e3c 44e9 f4bd
00000070: bad6 9d3e 216e 7cbe deaf ed3d de6d cebd
00000080: df86 ea3d 7bae d53d 5401 4ebe 6fa8 2abe
00000090: 6d6b fdbd 7049 183e 46c7 943d 7490 853e
000000a0: fe64 d9bc f359 86bd 6c9f 96bd e57a 88bd
000000b0: c406 353d f0eb a83a 1076 e53d 3b0d adbe
000000c0: 2eac e43d 3ca5 16be cc3e fe3d 8ca7 523d
000000d0: e17f 92be 8c17 8a3d 331b 94be 58f6 b4be
000000e0: a97a acbd bac1 1f3f f74d 003f 3efc a0bc
000000f0: 1ac3 a93e ae9f 0ebe 196a fdbd c003 963e
-0.058635265 -0.12903845 0.2598816 0.2408225 -0.27987236 0.06235664 0.014380984 -0.16283514
-0.16952144 0.033362206 -0.06884831 -0.28784633 -0.11376187 -0.25877485 0.15714747 -0.2071023
-0.38474944 0.103443325 -0.07547046 -0.09741239 -0.108480155 -0.3740142 0.1719752 -0.22089836
0.14985679 0.054952536 0.019340193 -0.119585544 0.30827886 -0.24651386 0.1160581 -0.10079549
0.11451506 0.1043367 -0.20117694 -0.16665815 -0.123740055 0.14871764 0.07264571 0.2608677
-0.026537415 -0.06560125 -0.07354626 -0.06664065 0.044195905 0.0012887698 0.11204159 -0.33799157
0.11165653 -0.1471147 0.12414321 0.051429316 -0.2861319 0.067427725 -0.28927 -0.35344195
-0.08421833 0.6240498 0.50118965 -0.019651528 0.33156663 -0.139281 -0.12373752 0.29299736

layers.2.weight f4 [64, 64]
00000000: eec0 45bd dbda dbbc 5228 0abe 7197 a1bd
00000010: 9028 c33e ef96 4c3d a81c 85bc 4d71 f63e
00000020: 8d7a b2bd 0d2c 1fbd 4b0a 89bd d900 d03e
00000030: 76ae 94bd 1c11 b63e 85c3 113d 49c1 d93e
00000040: eb8e 043f 9612 bcbd 6d0d a93d d564 be3e
00000050: 1856 9cbd e99e 123f d33e 99bc f279 d53e
00000060: fafb 44be dd1e 193c 391b f8bd 829f f63e
00000070: 7784 11be fda3 0d3f ec92 b7bd b312 e7bd
00000080: 31e3 73bd e940 aebc 79fd ec3e 275a 0e3f
00000090: 3847 153f 4c94 edbd de66 1cbe 861b d43c
000000a0: 0f99 90bc 47a3 e93e d455 b8bd 4f78 233b
000000b0: 402a 32be ec59 adbd dc3c 1bbe 1c47 113f
000000c0: f237 b43d da7a 9c3d c9e3 3bbd 7274 96bd
000000d0: bf9f 0f3f 4e2a bfbc dbcc 033f 801a e13e
000000e0: b20c fc3e 7eef 0dbf 1902 d5be 1d6a a7bc
000000f0: bb16 9ebe 2cb5 c93e f924 053f 7d0e c9bd
00000100: 756e da3d 7c44 6abd 37b0 813d 3b17 45bd
00000110: 82f7 83bc ddab 0a3d 76fe 8ebd 9344 dabd
00000120: d44b 94bd 9010 f0bd f4a7 94bd c0f4 763b
00000130: 0c40 6e3d 6a37 81bd b5eb cdbd 13c2 b4bd
00000140: a770 7b3d 4437 643d 88c1 b23c c1cc 8c3d
00000150: 0c25 93bd 3ac9 1abd d351 5fbc 7246 e3bd
00000160: 14bf 3f3d c032 c3bd a4bb 213d e08c 2a3c
00000170: d2db f1ba 0d9d 0ebe 68d4 babc 1644 dc3d
00000180: 003f 2ebc 8684 983c 6f8f 41bd a58f 103d
00000190: bd68 f7bd 24e5 d73d 089a cb3d e9ac 923d
000001a0: 34f2 c9bd 00c6 0b3c 4eb3 ccbd c43c a7bd
000001b0: e772 acbd 4200 903d a38d 37bd 07df bd3d
000001c0: b7b8 69bd d4c4 863d 1a0e 8bbd a834 0a3d
000001d0: 562c a2bd 8063 eebb 6650 efbd c048 7fbc
000001e0: c223 e2bd ad40 c73d 60bc 0e3c 359a a53d
000001f0: 7f1a c4bc 4024 5e3c 9d44 43bd 33bd b43d
00000200: 670a cf3d 6492 cc3d d528 dfbd dae0 21be
00000210: 11dc c33e 540c 2fbe 262c d9bd b107 d03e
00000220: 881c 56bd c3d8 f1bd ab3c c43c 8d97 163f
00000230: 807c 0dbc 6fa5 073f 7f01 05ba e0e9 bb3e
00000240: 2db6 033f 001e 4fbb 291f ad3d 9703 b33e
00000250: 85fd 433d 0144 a93e 98c9 be3c 9cad f13e
00000260: 6016 05bc 6bf2 85bd 7bac d1bc 3336 113f
00000270: e136 fabc 6316 023f 3445 d2bd cddd 8b3a
00000280: eb08 213e a179 f63d dc90 c53e f8af 073f
00000290: eb28 fe3e 65d0 8bbd 7ad7 70be 0925 6d3c
000002a0: d765 a4bd 7904 0e3f 6797 b0bc 98da d9bc
000002b0: 8162 a0bd d43e 853d 6cb3 d7bd 7664 c53e
000002c0: 3a7e a1bd f2d2 e2bd ca93 013d 9d4e f6bd
000002d0: a48b 093f 6ce4 6c3d 31bf 123f c1bf 143f
000002e0: 7511 c03e 17bf ccbe 6d77 cfbe 2fce 3d3c
000002f0: a1fd e1be a2c6 043f 6a49 f53e 5e0e bebd
00000300: cc16 c3bd 0008 c139 e8a9 f3bc 525a c93d
00000310: ecd1 d2bd ea82 b9bd a2ac 983d 8065 99bc
00000320: 6490 b6bd c005 033d b0af 3cbd 3274 84bd
00000330: a4a0 653d fc01 0ebd e2c3 92bd 70f2 9bbd
00000340: 9601 e5bd 6037 8c3d fc11 0abd 484a 56bd
00000350: f2c5 b4bd 2239 dcbd f09c 47bc c464 1e3d
00000360: f823 ed3d 3429 81bd 08fc e23d 605d b03c
00000370: 8464 133d 0014 a8bb 16de d8bd b89e 043d
00000380: e29f d43d 783d 873c 583c 553d 88c9 a23d
00000390: f0d9 a4bc f0ab 1dbc 8c09 00bd 08c7 84bd
000003a0: 0af8 ba3d c819 c2bd b478 6ebd 44cd ddbd
000003b0: 68d3 43bd 8083 f63d f03a 993d 4264 a9bd
000003c0: 6071 bfbc 9a17 d4bd 14a1 03bd 1063 d13c
000003d0: a0c8 d83d ec82 2ebd 546e 78bd 280e b1bd
000003e0: 1013 2fbc d883 2cbd 1097 4cbc 40fc 74bd
000003f0: 665d e8bd d482 cebd c0e9 0abb 8836 babd
-0.048279695 -0.026837757 -0.13491943 -0.07890213 0.38116884 0.04994863 -0.016249016 0.48133317
-0.08714781 -0.03886037 -0.06691416 0.40625647 -0.07259838 0.35559928 0.035586853 0.42530277
0.51780576 -0.091832325 0.08254514 0.37186304 -0.076336086 0.5727373 -0.018706715 0.416946
-0.19236746 0.009345737 -0.12114567 0.4816857 -0.14210688 0.5532835 -0.0896357 -0.112828635
-0.05954284 -0.021271186 0.46287134 0.5560631 0.58311796 -0.11600551 -0.15273616 0.02589203
-0.017651109 0.45632383 -0.090007454 0.0024943536 -0.1739893 -0.08464417 -0.15159935 0.5674913
0.08799733 0.076406196 -0.04587153 -0.07346429 0.5610313 -0.023335602 0.5148446 0.4396553
0.49228436 -0.5544356 -0.41603163 -0.020436341 -0.30876717 0.39396036 0.5200954 -0.098172165
0.10665599 -0.057194218 0.063324384 -0.048117857 -0.016109232 0.033855308 -0.06982128 -0.10657611
-0.072410256 -0.11721909 -0.07258597 0.0037682503 0.05816655 -0.063093975 -0.10054723 -0.08826079
0.06138673 0.055716768 0.021820799 0.06874991 -0.071848005 -0.03778956 -0.013630348 -0.11097421
0.046813086 -0.09531164 0.03948559 0.010409564 -0.0018452352 -0.13927098 -0.022806361 0.10755174
-0.010635138 0.01861788 -0.04725593 0.03529324 -0.12080524 0.10541752 0.099414885 0.07161886
-0.0986065 0.008531094 -0.09995137 -0.08165887 -0.084203534 0.07031299 -0.04481281 0.09271055
-0.057060923 0.06580511 -0.06789799 0.033741623 -0.07918613 -0.007275045 -0.11685257 -0.01558131
-0.110419765 0.09729133 0.008711904 0.08086053 -0.023938416 0.013558447 -0.047672857 0.088251494
0.10109406 0.09988859 -0.1089646 -0.1580843 0.38253835 -0.17094547 -0.10604124 0.40630868
-0.052273303 -0.11808922 0.02395471 0.58825 -0.00863564 0.52986807 -0.00050737703 0.3670187
0.51449853 -0.0031603575 0.08453209 0.34963676 0.047849197 0.33059695 0.023289487 0.47202766
-0.00812301 -0.06540378 -0.02559494 0.56723326 -0.030543746 0.5081541 -0.10267106 0.001067096
0.15726058 0.120349176 0.3858708 0.5300288 0.49640593 -0.068268575 -0.23519698 0.014474162
-0.08027237 0.55475575 -0.02155657 -0.026593491 -0.07831288 0.06506124 -0.10532269 0.38553208
-0.07885404 -0.11075391 0.031635083 -0.12026713 0.537287 0.057835028 0.57322985 0.58105093
0.3751332 -0.3998954 -0.40520802 0.0115848025 -0.44138816 0.5186559 0.47907573 -0.09280084
-0.095258325 0.0003681779 -0.029744104 0.0983168 -0.10293946 -0.09058173 0.07454802 -0.018725157
-0.08914259 0.031987906 -0.046065986 -0.06467475 0.056061402 -0.03466986 -0.07166268 -0.07614601
-0.11181943 0.068464994 -0.033708557 -0.052316934 -0.088268176 -0.10753085 -0.012183413 0.038670316
0.11579126 -0.06306687 0.110832274 0.0215289 0.03598453 -0.0051293373 -0.105892345 0.03237793
0.10382058 0.016508803 0.0520595 0.07948595 -0.020123452 -0.009623513 -0.031259105 -0.06483275
0.09129341 -0.09477574 -0.05822058 -0.10830167 -0.047809035 0.120368004 0.074819446 -0.08271076
-0.023369491 -0.10356064 -0.032136038 0.025559932 0.10585141 -0.042605326 -0.060652092 -0.08645278
-0.010685697 -0.042117923 -0.012487188 -0.059810877 -0.11345939 -0.10083547 -0.0021196455 -0.09092432

layers.2.bias f4 [64]
00000000: abf3 78be 3efc 8d3d b359 7fbe 9ce9 ec3d
00000010: ce68 95bc f7e0 94be a608 23bd a479 ba3b
00000020: 72ca b8be 4678 62bc 3096 aebd f00b 923d
00000030: 9b7c 5abe d4fc da3d 0373 7dbd ad2c 9ebc
00000040: 30f5 a93d c1b6 03be 6e3c bbbd 06cc c0bd
00000050: b95f 9abe 9ef1 9dbd 7187 7fbd dd57 06be
00000060: 643f 97bd a18a 2cbe 32d9 f7bd 726e b13d
00000070: 4f13 fc3c 506f b53d 6374 26be 0f33 c8bd
00000080: cb70 90bd 6445 d33d 4329 983d 14c9 43bd
00000090: 0896 c3bc c052 6c3d 0773 12bd 2a5d ae3d
000000a0: 066d 593d b15a a83c b99d adbd a508 eabd
000000b0: 55e6 bcbd 88c6 d3bd e33b f0bd 4a7e 69bd
000000c0: 43c6 23be 1223 7abe 7b40 a93d f40f 05bd
000000d0: b4ba 70bd c01c 42bd f7a8 f5bd 6e02 cc3d
000000e0: a802 82bc 5172 9abb f87b 8bbd b441 313d
000000f0: 0e37 50be 2120 66be a64c 1bbe aebb cabd
-0.24311702 0.06932877 -0.24936561 0.11567995 -0.018238451 -0.29077885 -0.03980317 0.00569077
-0.36091954 -0.013822621 -0.0852474 0.07131183 -0.21336596 0.106927544 -0.06187726 -0.019308412
0.08298719 -0.12862684 -0.091423854 -0.094139144 -0.30151156 -0.077121004 -0.062385026 -0.13119455
-0.07385138 -0.16849758 -0.121019736 0.08663644 0.030770926 0.08859122 -0.16255336 -0.09775364
-0.070527636 0.103159696 0.07429745 -0.047799185 -0.023875251 0.057696104 -0.03575423 0.085138634
0.05308249 0.020551058 -0.08477349 -0.1142743 -0.0922362 -0.10340601 -0.117301725 -0.057005204
-0.159936 -0.24427441 0.08264252 -0.032485917 -0.058771804 -0.0473907 -0.11995118 0.09961401
-0.015870407 -0.0047133346 -0.068107545 0.04327555 -0.20333502 -0.22473194 -0.15165958 -0.09899078

layers.4.weight f4 [3, 64]
00000000: 7901 083f fa60 1dbc 6906 0d3f 7057 1c3d
00000010: 5e38 5e3c 2ae0 0c3f 90dd 9ebd 4de1 013b
00000020: c5a4 103f 35d2 153f dd28 173f 6ea1 dbbc
00000030: bcce 193f d86f d43c eb69 fd3e 0507 503e
00000040: 7c13 68bd 089f 183f 2137 173f f859 89bc
00000050: 0534 173f 1320 bdbd 2e32 6b3d f67d 08bd
00000060: 15db dabd 2796 0b3f 9389 023f 2cf4 45bd
00000070: 5a2d a2bd d037 8ebc b6cd 0f3f 2a79 fb3c
00000080: e888 f23e f077 233c 2817 39bb baec d4bd
00000090: e2cb a03d f9c6 263b 2e5b dbbc d14b 09bc
000000a0: 0078 09bd e15f 1fbd d38f b7bd 7e5f 4cbd
000000b0: fb43 073f e1c6 55bd 39bf 053f b504 f9bd
000000c0: c646 133f 9611 0a3f 6dac b2bc 284a 583d
000000d0: 37f7 83be 63da ffbd 646f 49bd 4380 e83c
000000e0: f565 093f ad02 d63d 7b27 443e e0fb 57bd
000000f0: 2fa4 e83e e66a 1a3f 2cce fe3e 2536 f73e
00000100: 42b6 123f e88d 273c b6de 113f 0cfd 27bd
00000110: dc0e 9fbd 7194 e43e 49b6 4dbc 7bac b4bd
00000120: 0d32 d73e d71c 1e3f f260 e83e 90c4 013e
00000130: 8e3d 253f 7021 06bc 9edd 1e3f 295b f43e
00000140: 43d9 0d3e bbf0 d63e 84b5 143f 08b7 9c3c
00000150: dba5 ea3e 25cc 06bd c82e 773d 90c1 0e3d
00000160: a8b7 91bd 516f e03e 7bcf dd3e 02d1 ae3d
00000170: 2715 cf3d 514c c6bb 6755 1b3f 9a5b a3bd
00000180: 0fe7 173f 7ed6 d1bd 3ca7 25bd 20a9 02bc
00000190: 2832 b23c 8095 10ba 4aaf 88bd 5b12 023d
000001a0: 3106 c6bc 218a 3b3d 35c2 81bc 0c5f 063e
000001b0: 0f08 133f 97e3 bebd f428 073f fd7f 95bc
000001c0: 22fc 113f 45ca f63e d921 d33d 2635 d8bd
000001d0: cabd e6bc 6003 0abd bfba fa3b 4d98 02be
000001e0: 19ea 153f 0b06 acbd 652e 0b3f 4216 84bd
000001f0: 1896 e23e 362e 0f3f ed3d fa3e b56d f33e
00000200: e1b4 133f 4807 cabd f389 0d3f 28a8 d93d
00000210: 29ac d1bd d144 c63e 0060 923d 8a67 bb3d
00000220: 83bf 093f 6cc1 fc3e afd2 be3e f40d b9bd
00000230: 894d 013f 342a a3bd 04aa 173f f4c3 fd3e
00000240: d027 8c3c d851 cf3e 4efc 0b3f 801d 87ba
00000250: 2f3c c53e 72ed d9bd 8030 7cbc cc1a a1bc
00000260: 00e3 d13a 3417 0d3f f682 d03e f6f5 cfbd
00000270: aa6a 7dbd 412c db3c 8d64 dc3e 14ed 5c3d
00000280: 89ef bf3e 8c8f b33d 5fac c93d e805 c33d
00000290: b80b 29bd 98e0 0fbc ff8a b53d 62c9 923d
000002a0: 2a44 da3d dfdd e23d c0b0 50bd 012b ee3d
000002b0: 77d1 013f 8466 cf3d dab1 1c3f a878 053d
000002c0: f7bf 0a3f f614 1e3f 3467 333d a84e 89bd
000002d0: b412 0bbd 48b7 873d 5e03 aebd 5893 223d
000002e0: de4b fd3e 2a60 c9bd 62b2 da3e 257e b53d
000002f0: 4709 103f 59a9 cd3e f75e c53e f27c e93e
0.5312725 -0.009605641 0.55087906 0.038169324 0.013563244 0.5502955 -0.077571034 0.0019818128
0.5650142 0.58523875 0.5904673 -0.026810374 0.60081077 0.025932238 0.49494871 0.20315178
-0.056659207 0.5961766 0.59068495 -0.016766533 0.5906375 -0.09234633 0.057420902 -0.03332325
-0.10686318 0.5452599 0.5099117 -0.048328564 -0.079188064 -0.017360598 0.56173265 0.030697424
0.47370076 0.009977326 -0.0028242562 -0.103967145 0.078513876 0.0025448187 -0.026776876 -0.008379892
-0.033561707 -0.038909797 -0.08962979 -0.049895756 0.52838105 -0.05219162 0.5224491 -0.12159101
0.57529867 0.53933084 -0.021810735 0.052805096 -0.25774547 -0.12492826 -0.049178496 0.028381472
0.536712 0.10449729 0.19155686 -0.05273044 0.45437762 0.60319364 0.49766672 0.48283496
0.57309353 0.010226704 0.56980455 -0.04101281 -0.07766506 0.44644502 -0.012555667 -0.088219605
0.42030373 0.61762756 0.45386463 0.12672639 0.6454705 -0.008186683 0.6205691 0.477258
0.1385241 0.41980538 0.5808947 0.019130245 0.45829663 -0.03290953 0.06034735 0.034852564
-0.07115108 0.43834928 0.43322358 0.08535959 0.10111456 -0.006051578 0.6067719 -0.07976456
0.5933694 -0.10245989 -0.04044269 -0.007974893 0.021752432 -0.00055154413 -0.06674059 0.031755786
-0.024172874 0.045786027 -0.015839675 0.13122195 0.5743417 -0.09320753 0.52796865 -0.018249506
0.5702535 0.48201194 0.1030919 -0.10557012 -0.02816667 -0.033694625 0.0076516564 -0.1275341
0.5856033 -0.0839959 0.5436767 -0.06449558 0.44255137 0.5592989 0.4887537 0.47544637
0.57697874 -0.0986467 0.5528862 0.106277764 -0.10237915 0.38724378 0.07147217 0.09150608
0.5380785 0.4936632 0.37270114 -0.090358645 0.50508934 -0.07967034 0.592438 0.49563563
0.017108828 0.4049213 0.5468186 -0.0010308474 0.3852248 -0.10640992 -0.015392423 -0.019666098
0.0016013086 0.5511353 0.40724915 -0.10154335 -0.0618693 0.0267545 0.43045464 0.053937033
0.37487438 0.08767614 0.0984733 0.09522611 -0.04127094 -0.008781575 0.08864402 0.07167317
0.106575325 0.11077475 -0.050949812 0.11629296 0.50710243 0.10126975 0.6120888 0.03258577
0.54199165 0.61750734 0.043799594 -0.067044556 -0.033953384 0.06626755 -0.08496736 0.0396913
0.49471945 -0.09832795 0.4271422 0.08861951 0.56264156 0.40168265 0.38549015 0.45603138

layers.4.bias f4 [3]
00000000: d982 ac3e 6401 e23d f7fb 443e
0.3369358 0.110354215 0.19236742
