weights/trained_agent_model_ETH-USD.pth (torch, 28304 bytes, 6 tensors)

layers.0.weight f4 [64, 30]
0.044041544 -0.13347147 0.10293464 0.04903078 -0.046925936 -0.01294163 -0.15955919 0.02618731
0.07030653 0.10422406 -0.09658667 0.022047326 -0.1494641 0.053440932 0.09657733 0.051836994
0.074576646 -0.0642617 -0.16174626 -0.11755005 -0.021163097 -0.12866974 0.092548154 0.1219543
-0.058665708 0.032380983 -0.19051784 0.14700352 -0.18195707 -0.12758581 0.6279678 0.58708704
0.7636399 0.7349531 0.6538393 0.75747055 0.36676347 0.360171 0.5335601 0.6046904
0.55025715 0.40939927 0.47793517 0.32382515 0.4135033 0.4168999 0.2777719 0.50713956
0.43978786 0.32842022 0.4187864 0.5516084 0.27311298 0.42386177 0.5313217 0.42330846
0.52843666 0.57242835 0.4808835 0.5707848 -0.25508586 -0.0665242 -0.10212264 -0.16473924
-0.2287542 -0.09970171 0.14208664 -0.18190728 0.08171711 -0.058765326 0.11216859 0.043145113
0.0023167324 0.12851615 -0.027485762 0.017517498 -0.041509658 0.06889056 -0.12127084 -0.09776216
0.17271978 0.11592078 -0.11503633 -0.034266368 0.023566382 0.15482254 0.118673846 0.07612033
0.01730177 -0.063178994 0.6454535 0.6090803 0.4708469 0.45532548 0.54837835 0.4979993
0.49401686 0.5884813 0.52195466 0.2683906 0.55248106 0.31667286 0.48619586 0.4278293
0.3890742 0.27022216 0.33691862 0.38932577 0.2559928 0.21660025 0.45492545 0.27593222
0.1716382 0.47222745 0.44813392 0.5061542 0.34657276 0.3980558 0.2543077 0.28332898
-0.21175349 -0.21039037 -0.08073833 -0.085658774 -0.105447814 0.07369331 -0.18944813 0.022016007
0.052209374 -0.18803358 -0.0836396 -0.056914616 -0.14754522 -0.10019689 -0.122433014 -0.09428804
0.17769672 -0.11445643 0.052503772 0.1230041 0.11950184 0.08535587 0.08081209 0.2112733
-0.116093725 0.11412605 0.012843093 0.02832777 -0.020538436 0.028468532 0.8233148 0.8066058
0.8586412 0.63513803 0.65824413 0.6731542 0.75960696 0.42181674 0.49449408 0.5490588
0.5704838 0.599126 0.5656541 0.3423662 0.47574982 0.60487807 0.5026453 0.33031547
0.29833904 0.33169052 0.3773817 0.6057431 0.33054742 0.27570695 0.45845273 0.3374738
0.5257396 0.6011769 0.2850672 0.5466717 0.12688026 -0.050045095 -0.060320243 -0.04122332
-0.1598887 -0.07504315 -0.07711215 0.021071926 -0.1815047 -0.18008658 -0.064023376 0.0004873298
0.13220325 -0.1822695 -0.068236835 0.14383167 -0.16193809 0.07816303 0.116055205 0.13452241
0.00040372525 0.049587674 -0.032770965 -0.18682371 -0.115310475 0.14908884 0.027327893 0.054955892
-0.1468847 -0.119080946 -0.15383875 0.05114246 -0.14622678 0.10223022 0.10218686 -0.062006824
0.09881345 -0.0366258 -0.042186346 -0.16385305 0.101814136 -0.14005263 0.013264801 0.09378847
0.0050033205 0.12631994 0.110649765 0.0023930275 -0.017977564 0.02676868 0.013721813 0.09192095
-0.17649856 0.030082144 -0.06633529 0.12839632 0.07508837 -0.16889305 -0.1484574 -0.13697273
0.70213807 0.8539528 0.79336196 0.4857393 0.47486588 0.74225765 0.6855282 0.5659202
0.61762977 0.6399889 0.44787252 0.571907 0.43362582 0.28218323 0.40646374 0.47611856
00000000: e864 343d bfac 08be 66cf d23d 80d4 483d
00000010: 6935 40bd 2109 54bc 7c63 23be c586 d63c
00000020: dffc 8f3d 6d73 d53d 3bcf c5bd 989c b43c
00000030: 1e0d 19be e1e4 5a3d 56ca c53d 0753 543d
00000040: a4bb 983d a39b 83bd d0a0 25be 15be f0bd
00000050: 3b5e adbc 00c2 03be e389 bd3d 2dc3 f93d
00000060: 744b 70bd eca1 043d 1c17 43be 1788 163e
00000070: f452 3abe dba5 02be 7fc2 203f 564b 163f
00000080: e87d 433f e325 3c3f 0362 273f 97e9 413f
00000090: 6cc8 bb3e 5568 b83e 6597 083f fdcc 1a3f
000000a0: a7dd 0c3f c89c d13e ebb3 f43e 69cc a53e
000000b0: b4b6 d33e e773 d53e 1e38 8e3e e6d3 013f
000000c0: e02b e13e b226 a83e 2c6b d63e 3536 0d3f
000000d0: 77d5 8b3e 6904 d93e b304 083f e3bb d83e
000000e0: a047 073f aa8a 123f 5d36 f63e f41e 123f
000000f0: 9d9a 82be d73d 88bd ad25 d1bd 67b1 28be
00000100: 8a3e 6abe 6930 ccbd 297f 113e e745 3abe
00000110: 4d5b a73d e9b3 70bd a5b8 e53d eeb8 303d
00000120: 52d4 173b bd99 033e d229 e1bc db80 8f3c
00000130: 0806 2abd 7e16 8d3d d95c f8bd 8737 c8bd
00000140: 74dd 303e e067 ed3d 2b98 ebbd e45a 0cbd
00000150: 490e c13c cd89 1e3e 460b f33d fae4 9b3d
00000160: 71bc 8d3c fd63 81bd 713c 253f b0ec 1b3f
00000170: d812 f13e 6c20 e93e 8662 0c3f c4f9 fe3e
00000180: c7ef fc3e b6a6 163f d29e 053f 7e6a 893e
00000190: 666f 0d3f f222 a23e aaee f83e 710c db3e
000001a0: bc34 c73e 8f5a 8a3e 9980 ac3e b555 c73e
000001b0: 7d11 833e 75cc 5d3e fdeb e83e fd46 8d3e
000001c0: edc1 2f3e ccc7 f13e cf71 e53e 5293 013f
000001d0: fc71 b13e f8cd cb3e 9e34 823e 7f10 913e
000001e0: e8d5 58be 9370 57be 235a a5bd de6d afbd
000001f0: 06f5 d7bd 85ec 963d b1fe 41be ea5a b43c
00000200: 7fd9 553d e08b 40be 3d4b abbd 4d1f 69bd
00000210: 1816 17be 0734 cdbd 29be fabd 171a c1bd
00000220: 21f6 353e 2268 eabd 320e 573d 93e9 fb3d
00000230: 61bd f43d 0fcf ae3d cf80 a53d 0758 583e
00000240: 8cc2 edbd ebba e93d d66b 523c a40f e83c
00000250: 3940 a8bc d736 e93c c2c4 523f b87d 4e3f
00000260: e9cf 5b3f 6898 223f b082 283f d553 2c3f
00000270: 9a75 423f 5df8 d73e 542e fd3e 1e8f 0c3f
00000280: 3a0b 123f 5260 193f b5ce 103f 9f4a af3e
00000290: 7b95 f33e 4ad9 1a3f 5dad 003f 1c1f a93e
000002a0: e5bf 983e 57d3 a93e 2d38 c13e fb11 1b3f
000002b0: 833d a93e 7629 8d3e 51ba ea3e 5ec9 ac3e
000002c0: df96 063f bbe6 193f 54f4 913e adf2 0b3f
000002d0: e6ec 013e 16fc 4cbd 5c12 77bd c9d9 28bd
000002e0: ddb9 23be 39b0 99bd faec 9dbd 089f ac3c
000002f0: 5edc 39be 9e68 38be b01e 83bd 4c80 ff39
00000300: 4a60 073e dba4 3abe c1bf 8bbd 9c48 133e
00000310: 19d3 25be f013 a03d 5aae ed3d 3ec0 093e
00000320: 16ab d339 721c 4b3d d93a 06bd b74e 3fbe
00000330: e627 ecbd bfaa 183e bfde df3c 6e19 613d
00000340: f168 16be b6e0 f3bd e887 1dbe c27a 513d
00000350: 79bc 15be 145e d13d 5847 d13d defa 7dbd
00000360: b55e ca3d ef04 16bd 97cb 2cbd 18c9 27be
00000370: ee83 d03d f569 0fbe 9c54 593c 2b14 c03d
00000380: e5f2 a33b 045a 013e 589c e23d 57d4 1c3b
00000390: af45 93bc fe49 db3c 75d1 603c 0d41 bc3d
000003a0: 0abc 34be d46e f63c ccda 87bd 537a 033e
000003b0: eec7 993d 4df2 2cbe 3705 18be 9442 0cbe
000003c0: 52bf 333f a79c 5a3f c519 4b3f d2b2 f83e
000003d0: 9f21 f33e 9904 3e3f c77e 2f3f 25e0 103f
000003e0: fc1c 1e3f 50d6 233f 8c4f e53e 7f68 123f
000003f0: 3404 de3e 527a 903e 041c d03e d0c5 f33e

layers.0.bias f4 [64]
-0.029498132 -0.34199286 0.14351188 -0.3725397 0.29505524 -0.46381223 0.04349674 -0.094722316
-0.30887234 0.12813546 -0.124499395 -0.11252676 -0.35504493 -0.36738122 -0.2916205 -0.18733428
0.31248248 -0.20489004 -0.10758177 -0.12557779 0.16035019 -0.10221169 0.4444119 -0.02586922
-0.40224755 0.17131138 -0.1280176 -0.14845613 0.08304733 0.33052453 0.12092047 0.007782826
-0.45270175 0.038093667 -0.31305447 0.17926717 0.34809136 -0.37813917 0.26128155 0.027502326
0.1292877 -0.4291432 -0.13056238 -0.30060625 -0.432147 0.24802935 -0.104254454 0.28538814
-0.4114839 -0.18929815 0.28659257 -0.031769153 -0.46202543 -0.16721481 -0.16652736 0.27932912
0.018356973 -0.32776108 -0.4156513 -0.20360374 0.31912282 -0.15088461 0.37383947 -0.3779889
00000000: 11a6 f1bc b019 afbe c7f4 123e 86bd bebe
00000010: 7b11 973e cc78 edbe a329 323d c6fd c1bd
00000020: 8424 9ebe f135 033e 8af9 febd 6e74 e6bd
00000030: 73c8 b5be 6419 bcbe 484f 95be 8fd4 3fbe
00000040: b4fd 9f3e b2ce 51be d553 dcbd 7797 00be
00000050: d732 243e 5d54 d1bd f589 e33e b0eb d3bc
00000060: 64f3 cdbe 406c 2f3e 0c17 03be e204 18be
00000070: b814 aa3d 833a a93e 27a5 f73d 1407 ff3b
00000080: 86c8 e7be 1b08 1c3d ad48 a0be d091 373e
00000090: 0839 b23e 759b c1be b2c6 853e 8f4c e13c
000000a0: ff63 043e a8b8 dbbe 25b2 05be 10e9 99be
000000b0: 5f42 ddbe 68fb 7d3e 5c83 d5bd 651e 923e
000000c0: 05ae d2be 60d7 41be 43bc 923e 5f20 02bd
000000d0: 998e ecbe 5c3a 2bbe 2686 2abe 3a04 8f3e
000000e0: 5d61 963c 4dd0 a7be 3fd0 d4be 807d 50be
000000f0: 1164 a33e 7f81 1abe e367 bf3e c387 c1be

layers.2.weight f4 [64, 64]
0.0020422935 -0.024078872 -0.06430228 -0.09418689 -0.11356841 0.08747085 0.01096499 0.08615121
0.034687642 0.07213372 -0.08367977 0.04913163 -0.09337031 0.082600415 -0.058018748 0.0029403644
0.026910303 -0.011617687 0.071451984 0.090140566 -0.026832134 -0.009151757 -0.07214835 0.022612467
0.08009317 0.07560702 -0.11023455 -0.07345375 0.07126588 -0.055023447 -0.106138736 -0.0004182905
-0.14175947 -0.035434574 -0.05911626 0.036109164 0.032914028 0.08939714 0.0107435435 0.11314911
0.04621079 0.033366673 -0.043565914 -0.013806923 0.0021113202 -0.118028164 -0.08993395 -0.09826405
0.0785926 -0.027916385 -0.12098221 0.11396849 0.014222691 0.06400515 0.10879369 -0.01620847
-0.025425106 0.01394005 -0.09768666 0.028993104 -0.11093891 0.0757134 0.06679833 -0.107560515
-0.11296342 0.5111 -0.03058968 0.3601528 -0.044139564 0.44535866 -0.12332884 -0.03987156
0.60340524 -0.056045726 0.055392884 -0.10817574 0.5425391 0.613207 0.59364456 0.40964213
-0.15157282 -0.047150075 -0.060163103 -0.06224881 -0.0661255 0.046071634 -0.034161154 -0.062409014
0.62242025 -0.077901244 0.5165568 0.55940354 -0.12562114 -0.06484885 -0.09332453 0.10554798
0.42374828 0.010373622 0.38320002 -0.14314759 -0.2781026 0.46487078 -0.1301909 0.089792885
-0.0072116116 0.41699484 -0.12592846 0.49581286 0.43338454 -0.19830506 0.058020476 0.0020077946
0.4731309 0.4482787 -0.14680946 0.069216 0.4862616 0.4116409 0.5679261 -0.18735987
-0.12385208 0.5256879 0.56645924 0.42355996 -0.14303334 -0.10570902 -0.14433165 0.6155538
-0.10702699 0.4290666 0.008305523 0.544143 0.05075633 0.55386025 0.008357074 -0.0055981996
0.54113305 0.09796074 0.09803146 0.090548724 0.38689697 0.5659908 0.5422541 0.36123276
0.018484753 0.08569523 -0.023675123 0.066999614 0.02796401 -0.064996555 -0.11848151 0.01362961
0.45655286 -0.35381857 0.606918 0.5556406 0.06496925 -0.111076206 0.022274703 -0.091708675
0.5816378 -0.079100996 0.4686789 -0.020219592 -0.22022578 0.37007174 -0.07139043 0.0988466
0.033038754 0.51057905 0.0724707 0.54759455 0.4061447 -0.27123788 -0.1005364 0.048177592
0.5160552 0.59554845 -0.04653428 -0.031338662 0.509452 0.58133036 0.55794245 -0.22098684
-0.03590058 0.4755165 0.53850543 0.38527283 -0.09429897 0.042986833 -0.011955447 0.48419613
-0.05451454 0.09653955 0.013126461 0.015890632 0.15736717 -0.10848154 -0.050851204 0.08003251
-0.12757969 -0.08833459 -0.10443013 0.24390712 -0.07413342 0.044255223 0.085642725 0.04550218
0.16047701 -0.028747 0.08489536 -0.085602105 0.024484709 0.023062736 0.30213422 0.21240951
-0.12902704 0.006838699 -0.024558628 0.058796875 -0.039972764 0.13237418 -0.04288663 0.25481975
-0.08886593 -0.11559692 -0.087241106 0.013369534 0.36466122 -0.08393255 0.06782673 -0.08708755
0.17408039 0.057174675 0.12800737 -0.06559094 0.041806977 -0.017698692 0.33712357 -0.016713755
-0.076738216 -0.049853873 0.21222594 0.038873374 0.015435663 0.10042581 0.028368715 0.17868447
0.05311047 -0.0068424507 -0.037704915 -0.024085835 0.14928217 -0.037823945 -0.02105689 -0.035507392
00000000: 00d8 053b 0e41 c5bc eab0 83bd 0ee5 c0bd
00000010: 8e96 e8bd eb23 b33d 80a6 333c 0c70 b03d
00000020: a114 0e3d d8ba 933d 4d60 abbd 403e 493d
00000030: ef38 bfbd 682a a93d 11a5 6dbd 21b3 403b
00000040: ff72 dc3c 1c58 3ebc 6b55 923d 9e9b b83d
00000050: 10cf dbbc 40f1 15bc 84c2 93bd c83d b93c
00000060: e307 a43d dad7 9a3d a7c2 e1bd eb6e 96bd
00000070: d8f3 913d 4460 61bd 445f d9bd 004e dbb9
00000080: 6529 11be d823 11bd e423 72bd 34e7 133d
00000090: dcd0 063d d915 b73d b005 303c b8ba e73d
000000a0: 8647 3d3d 7eab 083d 2c72 32bd 6f36 62bc
000000b0: 135e 0a3b c0b8 f1bd 4a2f b8bd aa3e c9bd
000000c0: 28f5 a03d e7b0 e4bc 85c5 f7bd 5068 e93d
000000d0: 4a06 693c 2215 833d 3acf de3d a0c7 84bc
000000e0: 5048 d0bc cf64 643c f20f c8bd f282 ed3c
000000f0: f033 e3bd a10f 9b3d 90cd 883d b048 dcbd
00000100: 5e59 e7bd 73d7 023f 3597 fabc f365 b83e
00000110: b0cb 34bd 0d06 e43e d593 fcbd 5c50 23bd
00000120: c478 1a3f 3490 65bd a6e3 623d 3e8b ddbd
00000130: d8e3 0a3f 22fb 1c3f 17f9 173f 9dbc d13e
00000140: e835 1bbe 7020 41bd 966d 76bd 9cf8 7ebd
00000150: ce6c 87bd 9cb5 3c3d 91ec 0bbd 98a0 7fbd
00000160: ef56 1f3f b08a 9fbd 113d 043f 1235 0f3f
00000170: d4a2 00be 79cf 84bd ee20 bfbd 8a29 d83d
00000180: 89f5 d83e 20f6 293c cb32 c43e 4895 12be
00000190: 7763 8ebe 8b03 ee3e c350 05be 55e5 b73d
000001a0: 624f ecbb 5980 d53e 64f3 00be 2fdb fd3e
000001b0: 94e4 dd3e 7b10 4bbe e1a6 6d3d 3495 033b
000001c0: 373e f23e c984 e53e 3855 16be 1ec1 8d3d
000001d0: 48f7 f83e 99c2 d23e 9b63 113f 44db 3fbe
000001e0: 29a6 fdbd 7b93 063f 7903 113f dadc d83e
000001f0: 5577 12be f87d d8bd adcb 13be ef94 1d3f
00000200: f730 dbbd 9eae db3e e313 083c f54c 0b3f
00000210: dfe5 4f3d c9c9 0d3f 1cec 083c 1a71 b7bb
00000220: b287 0a3f a49f c83d b8c4 c83d 9c71 b93d
00000230: 5c17 c63e c6e4 103f 2ad1 0a3f 80f3 b83e
00000240: 566d 973c fb80 af3d 55f2 c1bc 1837 893d
00000250: c814 e53c ea1c 85bd 6fa6 f2bd ba4e 5f3c
00000260: 4cc1 e93e b527 b5be fa5e 1b3f 763e 0e3f
00000270: 990e 853d ec7b e3bd 7079 b63c c2d1 bbbd
00000280: 37e6 143f b4ff a1bd aef6 ef3e 8fa3 a5bc
00000290: de82 61be 0b7a bd3e 2535 92bd 1670 ca3d
000002a0: a553 073d 4fb5 023f 856b 943d 282f 0c3f
000002b0: 33f2 cf3e b1df 8abe 07e6 cdbd de55 453d
000002c0: 321c 043f dd75 183f bb9a 3ebd f85c 00bd
000002d0: 726b 023f 11d2 143f 51d5 0e3f 604a 62be
000002e0: 7d0c 13bd e676 f33e 7edb 093f 7b42 c53e
000002f0: d21f c1bd f612 303d c7e0 43bc 8ee8 f73e
00000300: a34a 5fbd 87b6 c53d 5e10 573c 122d 823c
00000310: dc24 213e 922b debd 5a49 50bd 16e8 a33d
00000320: 40a4 02be c4e8 b4bd 77df d5bd cac2 793e
00000330: 43d3 97bd f744 353d 7465 af3d 7e60 3a3d
00000340: 1654 243e d47e ebbc 9edd ad3d 2850 afbd
00000350: 2894 c83c 10ee bc3c 56b1 9a3e e181 593e
00000360: aa1f 04be 2a17 e03b 2d2f c9bc fed4 703d
00000370: 7bba 23bd 198d 073e e4a9 2fbd bc77 823e
00000380: 57ff b5bd 14be ecbd 77ab b2bd e40b 5b3c
00000390: e0b4 ba3e d4e4 abbd bee8 8a3d f55a b2bd
000003a0: 2142 323e fe2f 6a3d 5d14 033e 8b54 86bd
000003b0: cb3d 2b3d d9fc 90bc 769b ac3e 49eb 88bc
000003c0: ed28 9dbd 9333 4cbd c251 593e b039 1f3d
000003d0: dde5 7c3c 0cac cd3d 8265 e83c 10f9 363e
000003e0: 5d8a 593d a336 e0bb 7870 1abd a84f c5bc
000003f0: 6ddd 183e 48ed 1abd 807f acbc 3370 11bd

layers.2.bias f4 [64]
-0.1266036 -0.22103688 -0.30791423 0.11464835 -0.15172093 -0.23210771 -0.07563049 0.12568659
-0.10280958 -0.094561554 -0.13874926 -0.2666577 -0.06461173 -0.1603708 -0.0011055985 0.038789257
-0.08675103 0.111775406 0.06936298 -0.12348757 -0.27078658 0.079411335 0.43338463 -0.046751857
-0.10633807 0.060995936 -0.3102106 0.014367002 -0.1281437 -0.096357316 0.041617222 0.11629167
-0.13270284 -0.330337 -0.14209229 0.074981764 -0.11604643 -0.095896214 -0.05858431 -0.25836283
-0.09412493 -0.07404655 -0.13017294 -0.103240095 -0.11203468 -0.35402003 0.0415684 -0.29179737
0.018278435 -0.2631964 0.34107664 0.07842411 -0.2316172 -0.0774275 0.02761051 0.064100236
0.046027273 -0.456867 0.03792949 0.07747565 -0.23940684 0.0080676675 -0.06773347 -0.13958618
00000000: 60a4 01be 7e57 62be efa6 9dbe c1cc ea3d
00000010: bb5c 1bbe a5ad 6dbe 29e4 9abd fcb3 003e
00000020: d48d d2bd 7da9 c1bd 4914 0ebe 5c87 88be
00000030: 2853 84bd 3e38 24be bbe9 90ba 7ce1 1e3d
00000040: 86aa b1bd 81ea e43d 2e0e 8e3d 0de7 fcbd
00000050: 8aa4 8abe 69a2 a23d 97e4 dd3e e07e 3fbd
00000060: c6c7 d9bd e0d6 793d ecd3 9ebe 9363 6b3c
00000070: 1a38 03be fc56 c5bd d276 2a3d 542a ee3d
00000080: 41e3 07be ee21 a9be a480 11be 0a90 993d
00000090: c0a9 edbd 3c65 c4bd 1af6 6fbd 2248 84be
000000a0: 92c4 c0bd b8a5 97bd 0e4c 05be 8b6f d3bd
000000b0: 7072 e5bd 1d42 b5be a043 2a3d 7766 95be
000000c0: a8bc 953c aec1 86be 99a1 ae3e d29c a03d
000000d0: 0f2d 6dbe 4f92 9ebd 702f e23c fc46 833d
000000e0: 1887 3c3d 79ea e9be f45b 1b3d 8eab 9e3d
000000f0: 1127 75be 402e 043c d8b7 8abd aeef 0ebe

layers.4.weight f4 [3, 64]
0.054732993 0.3942382 0.3808085 0.15262195 0.36092886 0.49163407 -0.09508991 -0.10828781
0.035724998 -0.026015908 0.32077187 0.35018468 -0.06554124 0.46853897 -9.594858e-05 -0.120436996
0.08149263 -0.00096108025 -0.062363684 0.44118804 0.30786905 -0.023869708 0.30677822 -0.07800844
-0.033487886 -0.0035784096 0.5022003 0.06602135 0.40536496 0.09668319 0.0096681565 -0.012880966
0.11373894 0.39723435 0.36904082 -0.100127 0.42640316 0.07365483 0.1738838 0.3893763
-0.036130756 0.010571174 0.35462642 0.07237548 0.0026518255 0.44759193 -0.09786549 0.31131113
0.041854218 0.41638806 -0.0428645 0.09173171 0.44691274 -0.020220399 -0.07447186 0.026432186
0.039144278 0.30809644 0.059263796 0.12207562 0.31949243 -0.08896147 -0.11631097 0.45928743
-0.09567172 0.584039 0.4764705 -0.14473176 0.51046264 0.55788803 0.058450185 -0.05018343
0.0458637 0.07973529 0.56358504 0.5350449 -0.055539444 0.5351749 0.018727548 0.021159127
0.033685997 -0.07936019 0.00480059 0.48932013 0.51013106 -0.00011314327 -0.000997209 0.10250409
0.044311315 -0.01900351 0.59527236 -0.019067088 0.51534814 0.08899903 -0.01413972 -0.12198992
0.06871145 0.5567956 0.5992373 -0.0069159362 0.54891664 0.009612423 -0.015869493 0.3621063
0.032474462 -0.07877026 0.5009659 -0.07730268 -0.026715614 0.50368756 0.08315697 0.5839102
0.009864774 0.59081805 -0.12748912 0.002513136 0.57465595 -0.045846574 -0.085836664 0.0035844892
-0.07639758 0.43913007 -0.051135838 0.040988714 0.53857255 -0.011098087 0.05305517 0.52625257
0.02043236 0.57787573 0.5401929 0.035968777 0.44673476 0.5481683 0.02225785 0.04705271
0.0022748746 0.08630747 0.48255697 0.42367586 -0.08684939 0.533169 0.07520153 -0.07846041
-0.09696232 0.072145574 0.101805076 0.5260214 0.4827426 -0.028964177 0.13008252 -0.0069538355
-0.043595478 -0.098609075 0.4626565 0.10839528 0.5046699 0.10940087 0.07155886 -0.10072528
0.047669362 0.48834738 0.43863678 0.073673345 0.47687128 0.09513198 -0.12371532 0.64833194
0.017065424 0.11498204 0.5791374 -0.12226414 -0.11449194 0.42784244 0.017418146 0.55970895
-0.015471084 0.53589445 0.0548854 5.3124175e-05 0.4099719 0.031418372 -0.0296935 0.07491851
-0.08938153 0.57500064 -0.04908356 0.03824991 0.4656158 0.09148133 -0.045183495 0.5878042
00000000: b42f 603d 97d9 c93e 55f9 c23e ee48 1c3e
00000010: abcb b83e 76b7 fb3e 80be c2bd 00c6 ddbd
00000020: 6054 123d 501f d5bc 363c a43e 684b b33e
00000030: 7c3a 86bd 57e4 ef3e 0038 c9b8 aca7 f6bd
00000040: 9ce5 a63d 01f1 7bba 1071 7fbd 66e3 e13e
00000050: 03a1 9d3e 688a c3bc 0912 9d3e e4c2 9fbd
00000060: 982a 09bd c083 6abb 3390 003f 3436 873d
00000070: ff8b cf3e d601 c63d 3067 1e3c b00a 53bc
00000080: f6ef e83d 4d62 cb3e ebf2 bc3e 620f cdbd
00000090: 8451 da3e 58d8 963d 980e 323e 555c c73e
000000a0: d8fd 13bd b832 2d3c 9891 b53e 9839 943d
000000b0: 40ca 2d3b c52a e53e b46d c8bd 2c64 9f3e
000000c0: 546f 2b3d d130 d53e b092 2fbd d6dd bb3d
000000d0: bfd1 e43e 40a5 a5bc b484 98bd 5088 d83c
000000e0: c055 203d d1be 9d3e 98be 723d c802 fa3d
000000f0: 8394 a33e 6e31 b6bd 7234 eebd b927 eb3e
00000100: 89ef c3bd 9483 153f f1f3 f33e 9034 14be
00000110: aead 023f c0d1 0e3f 7669 6f3d 248d 4dbd
00000120: 93db 3b3d 414c a33d 1c47 103f b4f8 083f
00000130: 547d 63bd 3901 093f 846a 993c e855 ad3c
00000140: 54fa 093d 9887 a2bd 454e 9d3b 2b88 fa3e
00000150: f397 023f 5547 edb8 c8b4 82ba aaed d13d
00000160: c87f 353d 40ad 9bbc c563 183f 9532 9cbc
00000170: dbed 033f 2045 b63d 49aa 67bc dad5 f9bd
00000180: 97b8 8c3d 288a 0e3f 9e67 193f 149f e2bb
00000190: cd85 0c3f 6d7d 1d3c bd00 82bc ff65 b93e
000001a0: f103 053d 4d52 a1bd 4d3f 003f de50 9ebd
000001b0: b4da dabc abf1 003f 344e aa3d 247b 153f
000001c0: dc9f 213c da3f 173f 828c 02be 6db3 243b
000001d0: a71c 133f 9ec9 3bbd 22cb afbd c0e9 6a3b
000001e0: 5676 9cbd a8d5 e03e d073 51bd c8e3 273d
000001f0: e4df 093f c0d4 35bc 6150 593d 7db8 063f
00000200: c461 a73c aaef 133f 154a 0a3f ff53 133d
00000210: 6bba e43e c254 0c3f 1856 b63c 58ba 403d
00000220: 1016 153b f9c1 b03d b511 f73e 0bec d83e
00000230: 18de b1bd c37d 083f 4203 9a3d daaf a0bd
00000240: 2e94 c6bd 0fc1 933d 2e7f d03d 57a9 063f
00000250: 0a2a f73e 4846 edbc 5a34 053e 00dd e3bb
00000260: 2c91 32bd 8ef3 c9bd 50e1 ec3e 58fe dd3d
00000270: 0c32 013f 900d e03d 748d 923d 0e49 cebd
00000280: f340 433d ab08 fa3e 0095 e03e 0de2 963d
00000290: 7928 f43e 8ed4 c23d 755e fdbd 15f9 253f
000002a0: cacc 8b3c b47b eb3d 5942 143f 9f65 fabd
000002b0: c07a eabd 2a0e db3e 80b0 8e3c 1649 0f3f
000002c0: 6e7a 7dbc 6130 093f 83cf 603d a6d1 5e38
000002d0: d6e7 d13e 8db0 003d c83f f3bc e06e 993d
000002e0: aa0d b7bd 3e33 133f d80b 49bd f0ab 1c3d
000002f0: 3265 ee3e 905a bb3d 5412 39bd 567a 163f

layers.4.bias f4 [3]
0.5702913 -0.23724674 0.29389
00000000: 9cfe 113f cff0 72be c078 963e
