weights/trained_agent_model.pth (torch, 22528 bytes, 6 tensors)

layers.0.weight f4 [64, 8]
000000 38 f0 60 be d4 f7 a3 be 3b 02 c2 bd 57 a5 6c be
       -0.21966636 -0.32025015 -0.09473082 -0.23109947
000010 c0 f9 51 be f9 8a 8a be 99 6a 9b be cf 1d 9e bc
       -0.20505428 -0.27059153 -0.30354765 -0.019301323
000020 2f 17 d1 3e fa 51 53 be 85 33 2f be f8 db 4b 3e
       0.40838 -0.2063674 -0.17109497 0.1990813
000030 c1 bb f7 3e 76 56 b0 3d ac 7f ad bb 4a 2a ce 3e
       0.48385432 0.08610241 -0.0052947607 0.4026664
000040 65 c2 8e be a9 bf 80 be 91 09 a1 be 30 53 a0 3e
       -0.27882686 -0.25146225 -0.3145261 0.31313467
000050 a1 86 00 be e9 a4 a0 3d 7f f2 83 be 9b 56 8e be
       -0.12551357 0.07843954 -0.25770947 -0.2780045
000060 2d 76 be bd 9c 80 1d be 63 24 2b 3d 37 86 5c 3e
       -0.09299884 -0.15381092 0.041782748 0.21535574
000070 8e aa d4 bd 51 c0 f4 bd 08 1a 2b 3d 05 1d 91 be
       -0.10384093 -0.11950744 0.041772872 -0.28342453
000080 55 10 d2 3d eb 00 3f 3e 68 17 0e be 2f f6 5d be
       0.10257021 0.18652694 -0.13876116 -0.21675943
000090 03 af 08 3e ea 36 63 be 9d 8b 7c be 74 d3 12 be
       0.13348012 -0.22188917 -0.24662633 -0.14338475
0000a0 ba 05 6e 3e 0a 49 9d be 7a df 81 3e 76 44 07 3d
       0.23244372 -0.30719787 0.25365812 0.033024274
0000b0 3f fb 8f 3d 35 68 5e be bf df 02 3e 35 a3 a3 3e
       0.07030343 -0.2171944 0.12780665 0.31960455
0000c0 67 30 fc 3d 17 85 2d be f6 8e 3d bc 61 ac ae bd
       0.123139195 -0.16945301 -0.011569729 -0.085289724
0000d0 a2 aa d7 3b 02 b1 0f 3e 21 69 cb be 95 8b de 3d
       0.0065816203 0.14032367 -0.39728644 0.10866467
0000e0 be 62 04 3d 89 cf 8c be d3 7e 33 be d8 78 1d 3e
       0.03232073 -0.27502087 -0.17528848 0.1537813
0000f0 0a b0 a8 be 48 e7 87 be 76 08 05 be d6 98 63 be
       -0.32946807 -0.2654364 -0.12991509 -0.22226271
000100 ee 28 36 be a7 a0 8c 3e 83 c9 0c 3e 34 1a a5 bd
       -0.17789051 0.27466318 0.13748746 -0.080616385
000110 55 21 a7 3d d2 d2 2d be 20 b8 96 3e a7 69 cb 3e
       0.081606545 -0.16974953 0.2943735 0.39729044
000120 d9 5f 33 be ee a9 23 bd 9b 2a d0 be c8 24 a1 3e
       -0.17517032 -0.03995698 -0.40657505 0.31473374
000130 56 ae 2c 3e 42 ca 1d be 41 fe 1a 3d bb b3 d5 bd
       0.16863379 -0.15409186 0.03784013 -0.104346715
000140 00 b3 e9 bd a0 e2 42 3e 0c 12 12 be 72 4d 8d be
       -0.11411095 0.19031763 -0.14264697 -0.2759815
000150 b7 03 45 3e 3c dd a0 bd ff 5d a4 be 88 7e 99 be
       0.19239698 -0.07854697 -0.32102963 -0.29979348
000160 ff 09 9a bd b7 a2 1d 3e 1c 10 4e be 63 51 6b 3d
       -0.07521438 0.15394102 -0.20123333 0.057450663
000170 2a ba d3 3d ff bf a5 3d c2 2a db bd 7d 5f 8c be
       0.10338242 0.08093261 -0.10701515 -0.27416602
000180 06 4e 56 3e 01 ce 8e 3e 34 bf 59 bc 87 4c 92 3e
       0.20928201 0.27891544 -0.013290215 0.2857401
000190 9b 56 d5 bd cb c7 0d 3d c7 1d 1f 3e 62 cc 33 3e
       -0.10416909 0.034614366 0.15538703 0.17558435
0001a0 25 a5 6f bd 3c 30 56 3e 15 1b 3e be 95 f0 66 3b
       -0.058507103 0.20916837 -0.18565018 0.0035238613
0001b0 77 83 dd be 4a 32 a0 be b5 c5 ba 3e d2 83 79 3e
       -0.43264362 -0.31288368 0.36478963 0.24366692
0001c0 36 58 a4 3e cf f3 20 be 49 a2 06 3d 19 1e eb bd
       0.3209855 -0.15718006 0.03286961 -0.1148035
0001d0 50 65 5b bd b3 0b d9 bd 4a 77 66 be 1d 17 ca bb
       -0.053563416 -0.105979346 -0.22506443 -0.006167306
0001e0 6a 5f dd be b0 e5 cb 3d d9 84 cc 3d c3 d3 37 be
       -0.43236858 0.09955919 0.09986276 -0.17951874
0001f0 ad 7e ae be e1 1d 61 3e 61 74 ba 3c 4c cd e3 bc
       -0.3408102 0.21984054 0.022760572 -0.027807854
000200 bf a6 60 3e 40 b0 b7 be f0 e8 78 3d 93 cd 3c be
       0.21938609 -0.35876656 0.06076902 -0.18437795
000210 ce dc e2 be 07 6e dc be 84 36 1a 3e e0 80 e1 3e
       -0.44309086 -0.43052694 0.15059859 0.44043636
000220 09 cc 69 bd 37 5e c2 3e 88 ab 94 3e b0 da 39 3d
       -0.05707935 0.37962505 0.29037118 0.045374572
000230 43 27 87 be 50 9f 14 3e a9 cf 70 be 9f ae bb 3e
       -0.26397142 0.14513898 -0.23516716 0.36656663
000240 7b a5 82 be 5f f1 34 bd 93 55 21 bd 29 f4 a1 be
       -0.25516877 -0.044175502 -0.03938825 -0.31631592
000250 ce 6d b4 bc 6f ae a0 be 7c f4 90 be 8c b5 e3 bd
       -0.022025015 -0.31383082 -0.28311527 -0.11118612
000260 93 5b b1 be d0 ea 1e 3d ad e2 ac be 38 5a 86 3e
       -0.34640178 0.038798153 -0.3376669 0.26240706
000270 8f 24 31 be 1d 74 e0 3c 3a cd 22 bd 8f 5e 8b be
       -0.17299102 0.027399117 -0.0397465 -0.2722058
000280 b2 4c 0f be f0 d1 3a be 4e 0b 45 be f1 d0 01 bd
       -0.139941 -0.18244147 -0.19242594 -0.031693403
000290 b0 df 42 be 10 a6 ac bd e3 b5 fe 3c a1 cd 65 bd
       -0.19030643 -0.084301114 0.03109259 -0.056104306
0002a0 53 e3 e3 be 60 d3 12 be 75 65 ae 3e b4 c8 81 be
       -0.44509372 -0.14338446 0.3406178 -0.25348437
0002b0 5c 66 7b be f6 f7 31 3d 53 bf 9d be 67 00 09 3e
       -0.24550766 0.043449365 -0.3081003 0.1337906
0002c0 c3 34 27 3e c7 e6 eb 3c af 52 d3 3d 38 f8 be 3e
       0.16328721 0.028796567 0.10318505 0.3729875
0002d0 97 55 e1 bd f5 a9 64 be 99 ea 83 be 9c 37 d2 3e
       -0.11002653 -0.22330458 -0.2576492 0.41058052
0002e0 ae 3d 28 be 3c 89 5b 3e 9b b5 eb bd 7c 55 6d 3e
       -0.16429779 0.2143907 -0.11509248 0.23177141
0002f0 50 4d eb bd b5 d7 b5 bd cd 82 8a 3e 11 e4 ce be
       -0.114893556 -0.088790335 0.27052918 -0.40408376
000300 5f 72 21 3e 86 6e 7a bd 2a 1c 0e 3e 11 bd f1 3d
       0.15766285 -0.06114056 0.13877931 0.1180364
000310 4d a1 9a be 25 f5 9b be e9 8e f1 bd 2b 9f b5 3e
       -0.30201188 -0.30460468 -0.11794836 0.35472998
000320 3f 35 d4 3d 5a fc b8 be 5e ab a3 3e 9c d8 1e be
       0.103617184 -0.3613003 0.3196668 -0.15512317
000330 38 e8 0e 3f d8 17 ee 3d 78 ec 7a 3d 6a 86 f4 3e
       0.5582309 0.116256416 0.06126067 0.477588
000340 ad 3c d7 3c 60 74 90 be b6 25 00 be 50 ed bf 3c
       0.02627405 -0.28213787 -0.12514386 0.02342859
000350 60 65 b4 be a4 98 75 be 85 d5 36 bd 26 f5 9e be
       -0.35233593 -0.23984009 -0.04463722 -0.31046408
000360 29 7a be be 75 d7 35 3a 22 77 b1 3d de 05 1f be
       -0.37202576 0.00069367077 0.08665301 -0.15529582
000370 89 86 e6 be d9 8e e6 3c 17 d2 13 3e 08 64 9c 3e
       -0.45024517 0.028144287 0.14435612 0.30545068
000380 7d a6 be bc 86 6a 37 be ca 95 31 bf 8e cf 0d bf
       -0.023272747 -0.17911729 -0.69369185 -0.5539483
000390 ac b2 23 bf be df 25 be ce 95 95 3e 06 fd c8 3e
       -0.63944507 -0.16198632 0.29215854 0.39255542
0003a0 eb eb 4a 3e 6f 0d c0 be 14 47 11 bd 97 25 31 3e
       0.19816558 -0.3751025 -0.035468176 0.17299496
0003b0 1b e5 e7 be 4c 98 af be 63 31 92 3e 4e ea 5d 3e
       -0.4529198 -0.3429588 0.28553304 0.21671411
0003c0 3f 9a da 3c df 03 69 3e 93 5b 7d 3e 40 69 8d be
       0.026684878 0.22755383 0.24741964 -0.27619362
0003d0 26 3b 2d 3e 2b 60 bb be 65 9e 9a bd a2 26 9b be
       0.16917095 -0.36596808 -0.075497426 -0.30302912
0003e0 93 70 b0 3d 63 09 02 3f 38 77 a5 bd bc 9f 2a 3e
       0.08615222 0.50795573 -0.0807938 0.16662496
0003f0 99 c9 3a be 44 31 c8 3e 1c 01 a0 bc b1 b9 49 3e
       -0.18240966 0.39100087 -0.019531779 0.19699742

layers.0.bias f4 [64]
000000 9c 1b 4c be e2 b2 95 be 70 f2 8a be 3a 25 b4 3f
       -0.19932407 -0.2923804 -0.2713809 1.4073861
000010 a1 85 a5 3f cf a1 4d 3f ed e1 b6 3d 84 7a 1a be
       1.2931405 0.80325025 0.08929811 -0.15085799
000020 02 d4 9e 3f 93 75 cb 3f 5f 04 a2 3f e6 95 1f be
       1.240845 1.5895256 1.2657584 -0.15584525
000030 26 00 37 3f b6 c2 59 3e 88 5e 28 be 90 9c be bd
       0.714846 0.21265683 -0.16442311 -0.09307206
000040 65 92 a0 3f 78 3e 8a 3f 57 e4 a5 3f 17 bc ba 3f
       1.2544676 1.0800314 1.2960309 1.458865
000050 0f 19 67 be 1b 02 87 be ff a8 2d 3f 2a f5 65 be
       -0.22568153 -0.26368794 0.6783599 -0.22456804
000060 51 ad f2 3d d2 29 c6 be e4 1e c0 3f 00 d2 73 3f
       0.11849464 -0.3870378 1.5009427 0.9524231
000070 4d ef 49 be 4c b3 5d bd d3 a6 dc bd 3c 22 14 3f
       -0.19720192 -0.05412607 -0.10774007 0.5786474
000080 24 25 6c 3f 24 99 62 3f a8 bd 22 3f bf a3 1e be
       0.9224417 0.88514924 0.6357064 -0.15492152
000090 1f d9 7d 3f 32 82 31 be ac 00 3f 3f 82 d3 e0 bd
       0.99159425 -0.17334822 0.746104 -0.10977842
0000a0 51 c7 af 3f 8d 3a 9e 3f 6c c5 3b 3f e6 53 26 be
       1.3732702 1.2361618 0.73348117 -0.16242942
0000b0 8d a3 b5 3f 8f 54 23 3f b4 3c 8c be 71 a4 33 3e
       1.4190537 0.638009 -0.27390063 0.17543198
0000c0 47 5a 5a be 15 47 54 3f 34 57 93 3f bb 32 52 3f
       -0.213235 0.8292096 1.1510987 0.8210866
0000d0 65 68 12 3f b5 24 13 bd 84 90 17 3f 0e 69 5e 3f
       0.57190543 -0.03592368 0.5920489 0.8687905
0000e0 35 3d 88 be 0f 96 59 3f 36 7e b8 3f 29 42 67 be
       -0.26609197 0.84994596 1.4413517 -0.22583832
0000f0 b1 92 0a bd 5a 29 8d 3f b7 be b8 3f 9c 26 87 3f
       -0.033831302 1.1028244 1.4433202 1.0558658

layers.2.weight f4 [64, 64]
000000 45 07 31 3e bd dc 00 be 58 09 29 bd eb 25 c4 bd
       0.1728793 -0.12584205 -0.041268677 -0.09577545
000010 46 35 3c be cf 46 4e 3d 7f 52 35 3d f8 14 e5 3d
       -0.18379697 0.050360497 0.044268128 0.1118564
000020 88 46 a9 bd 8a ca 66 3d 8f 6b 04 be 86 29 e7 bd
       -0.08265406 0.0563455 -0.12931655 -0.11287217
000030 89 3c 46 bd f0 2b 9a bd 08 b9 f6 3c dd 36 f1 3c
       -0.048397575 -0.07527912 0.030117527 0.029445106
000040 50 98 25 3c 7b e4 6d bd 4e 40 13 be d1 df 26 bb
       0.010107115 -0.058079224 -0.14379999 -0.0025462995
000050 68 68 46 3d 4f 3d 61 bc 7c 95 48 bd 5a a7 ce bc
       0.048439413 -0.013747527 -0.048970684 -0.025226284
000060 14 3b a5 be 89 8f 85 bc 8d f2 cf 3c a0 b9 5d bd
       -0.32271636 -0.016303794 0.025384212 -0.054132104
000070 61 9d 5f be b1 8e 22 be 96 43 3d bd a6 6d c7 bd
       -0.21837379 -0.15874745 -0.046207033 -0.09737711
000080 b9 ed 50 be a9 62 32 bc d4 55 9f 3c cd 09 23 be
       -0.20403184 -0.01088778 0.019450106 -0.15921707
000090 08 ba 2d be 85 ef d0 bc 40 09 3c 3c 80 94 3a be
       -0.16965497 -0.025504837 0.011476815 -0.18220711
0000a0 a4 81 b6 bd d3 10 73 3c 74 75 61 bd 71 7c 27 be
       -0.08911446 0.014835554 -0.055043653 -0.16356064
0000b0 2e 70 3f be 0b 08 4a 3b ef 52 1f 3d 93 b9 1c bc
       -0.18695137 0.0030827548 0.03889745 -0.009565729
0000c0 ca 21 c4 bd d6 e9 12 bc 1e 88 0b bd f9 d3 fa 3c
       -0.09576757 -0.008966884 -0.03406536 0.030618655
0000d0 28 d2 df bd 0b 5f a7 bd 8d 0d 73 3d 56 0e 67 bc
       -0.10928756 -0.08172425 0.059339095 -0.014102539
0000e0 3a e3 d2 3c d5 42 e5 bd 35 7a 1b bd 70 3c 8b 3d
       0.025743116 -0.11194388 -0.037958343 0.06798637
0000f0 75 b1 22 bd 9e c2 1c be b4 4a 26 3d 36 08 49 be
       -0.039720017 -0.15308616 0.040598586 -0.19632038
000100 80 44 31 3d d6 12 82 bc 00 f2 9b 3c b8 90 f0 3d
       0.043278217 -0.015878122 0.019036293 0.11746353
000110 00 1b 27 3c 99 f0 25 bd f5 5d c4 3d 00 ac 4d ba
       0.010199308 -0.040512655 0.095882334 -0.00078457594
000120 21 b1 22 bd de 37 0b be 90 2c fb bd ea aa 9b bd
       -0.039719705 -0.1359553 -0.12264359 -0.07600959
000130 88 e0 49 3d 2a 7d 54 bd 80 0c 3a bc 66 93 b3 3d
       0.049286395 -0.05187718 -0.011355519 0.087683484
000140 e5 86 af bd 40 0a 37 bd 40 1b b8 bb f0 a5 e8 bd
       -0.08570651 -0.04468751 -0.005618483 -0.11359775
000150 fa a9 ec 3b 3c 37 bf bd fc 0a 0d be d9 f6 e6 3c
       0.007222411 -0.09336707 -0.13773721 0.028193878
000160 4b 8f 20 bc 4c b8 d6 bd 36 b8 92 bd bf 5e 14 3d
       -0.009799789 -0.104843706 -0.07164042 0.03622317
000170 e5 8a ee bd 4e 35 98 3d dc f5 07 bd 42 f6 eb bd
       -0.11647586 0.07432042 -0.033193454 -0.11521579
000180 06 64 d9 3d 1b e7 49 3d 2a 94 26 bd 50 6d a9 3c
       0.10614781 0.049292665 -0.040668644 0.020682007
000190 14 b7 e8 bd e1 56 38 3d 2b aa e4 3d ba 26 31 3d
       -0.113630444 0.04500473 0.111652695 0.043249823
0001a0 cd 49 f8 bd ca ae b9 bd c9 88 1e 3d 79 b7 05 be
       -0.121234514 -0.090665415 0.038704667 -0.1305827
0001b0 e8 a4 2f bd 53 f3 70 bc 96 d1 87 3d e1 fe 86 bd
       -0.042881876 -0.0147064505 0.06631772 -0.06591583
0001c0 7d 33 0f be 44 1a b0 3d 18 27 99 bc b2 10 85 bb
       -0.13984485 0.0859876 -0.0186954 -0.004060828
0001d0 19 d2 03 be 3c a3 ad 3b e0 78 8f 3c d1 32 86 3d
       -0.12873115 0.005299 0.017513692 0.06552661
0001e0 57 1b 6d bd ef 2b 9a bd 5c c0 a9 bc 85 e5 08 be
       -0.0578874 -0.07527911 -0.020721607 -0.13368805
0001f0 c6 a4 a6 3b a8 3b 00 bd 8e 99 84 bd 8e 8c e6 bd
       0.0050855605 -0.031306893 -0.06474601 -0.112572774
000200 00 04 d8 3b 40 53 1d 3c a0 77 e2 3c 0c 6a 12 3d
       0.0065922737 0.009602368 0.027644932 0.035745665
000210 cc c0 d7 3d a0 13 e7 bc 70 cf bb bd 44 ee 93 3d
       0.1053482 -0.0282076 -0.09170425 0.0722318
000220 f8 e7 c0 bd 08 e3 48 3d 80 92 b2 3d 2a 35 a9 3d
       -0.094192445 0.04904464 0.08719349 0.08262093
000230 50 4d de bc 10 cd 8c 3c 30 8e 83 3c c8 9c c6 3d
       -0.027136475 0.017187625 0.016059011 0.096978724
000240 40 5c 61 3d 36 91 dc bd 84 2c f8 bd 98 6d a9 bd
       0.055019617 -0.10769884 -0.12117866 -0.082728565
000250 44 ee 42 3d 00 71 c3 bd be 04 a7 bd 1c 5c 45 bd
       0.04759051 -0.095430374 -0.081552014 -0.048183545
000260 d0 73 f2 bc 84 20 bd 3d 90 63 6b 3c 74 cf 3b 3d
       -0.02959624 0.092347175 0.014366999 0.04585214
000270 50 27 ed bc a0 16 17 bd d0 e7 b2 bc b8 91 2e bd
       -0.02894941 -0.03688681 -0.021839052 -0.042619437
000280 48 bd 1c 3d 80 d5 ee 3c cc 0d b9 3d 72 2f f7 3d
       0.03826645 0.02915454 0.09035835 0.12069596
000290 da 16 f7 bd 76 4b 96 bd 78 d3 8e bc a0 ae 27 3c
       -0.120649055 -0.07338612 -0.01743482 0.010234505
0002a0 60 26 8b bb f0 3d b0 3c 78 d9 d2 bc f2 41 d1 3d
       -0.004246518 0.02151391 -0.025738463 0.10217656
0002b0 80 81 bc bb 44 ac 9b bd 28 83 87 bc 54 e7 10 bd
       -0.0057527423 -0.076012164 -0.016542032 -0.03537686
0002c0 b0 56 a1 bd 54 a2 a9 bd aa b9 d8 bd cc cb a6 3d
       -0.078778625 -0.08282915 -0.105822876 0.0814434
0002d0 44 5a bb bd 84 c9 eb 3d 40 4f 1f bd 6e ec 94 bd
       -0.09148076 0.115130454 -0.038893938 -0.07271658
0002e0 28 57 fc bc c6 0e c4 bd 4c 51 5e 3d b4 81 eb bd
       -0.030803278 -0.0957313 0.05427675 -0.11499348
0002f0 36 0c b7 bd bc 90 c8 bd e8 83 f1 3c ee 23 ba bd
       -0.08937876 -0.09793231 0.029481843 -0.09088884
000300 6f d8 11 3d db 77 51 be 14 fd 47 3d f1 43 ce 3f
       0.035606798 -0.20455877 0.04882534 1.6114484
000310 a7 7f cf 3f db fe 45 be 61 82 90 bc ce 40 c7 bd
       1.6210831 -0.19335501 -0.017640295 -0.097291574
000320 a1 7e 01 bd ac 8a d8 3f 38 0b e0 3f 64 13 1e bd
       -0.031614903 1.6917319 1.7503424 -0.03859271
000330 0a 66 12 be ca 04 2c bd 38 1d 0d bd e8 ad ba bc
       -0.14296737 -0.041996755 -0.034451693 -0.022788003
000340 19 f7 30 3e e1 68 4e be 7d 03 d1 3f 0a f5 c3 3f
       0.1728176 -0.20157196 1.632919 1.5309155
000350 6c 34 3d bd d0 6b e9 bd b4 3c 12 be 7a 35 34 bd
       -0.04619257 -0.11397517 -0.14280969 -0.04399631
000360 d4 ed b7 bd ec 07 67 bd 18 1c da 3f 82 b0 d5 3a
       -0.08980909 -0.05640404 1.7039824 0.0016303214
000370 b3 e1 36 3d 30 20 9a 3c 32 50 e0 3b 21 86 62 be
       0.044648837 0.018814176 0.0068454975 -0.22121479
000380 73 af 0d 3e bd d1 f2 3d 4b e0 ef bd 6d 28 da 3c
       0.1383646 0.11856411 -0.11712702 0.026630605
000390 e3 ec a1 3d 6f 7a 00 be a0 52 3f be 60 67 95 bd
       0.07906511 -0.12546705 -0.18683863 -0.07295108
0003a0 e2 a4 2d 3e b0 70 7c 3f 1f df 43 3e ef 67 65 be
       0.16957429 0.9860945 0.19128083 -0.22402929
0003b0 ea ca 23 3e 1e 39 40 bd a0 45 1d bd ec 7b 4d be
       0.15995374 -0.04692947 -0.038396478 -0.20066804
0003c0 f6 c3 56 be d8 d1 a0 bd f9 59 d9 3f 95 76 32 3d
       -0.2097319 -0.078525245 1.6980582 0.04357012
0003d0 b4 de c7 bd 95 fe 5e bc 87 d4 33 be b7 ce 97 3f
       -0.09759274 -0.013610502 -0.17561541 1.1859959
0003e0 72 2e 05 3d 61 1f 76 bc 2b 49 66 3f fb 83 05 be
       0.032514997 -0.01502213 0.89955395 -0.13038628
0003f0 7d 5a ef bd d5 6d 85 bd 52 29 de 3f c2 b6 55 3d
       -0.11687181 -0.065150894 1.735636 0.052176245

layers.2.bias f4 [64]
000000 36 05 9d bd ce b4 17 bc a8 9f a2 bc a2 91 ce 3f
       -0.076670095 -0.009259416 -0.01985152 1.6138194
000010 7b 81 46 bd 60 df 00 3f 2d a6 52 3f d0 b0 c2 bd
       -0.048463326 0.50340843 0.82284814 -0.095063806
000020 f3 f2 0f bd db b2 30 3d ce 73 d5 3c 6b fe ae 3c
       -0.035143804 0.04313932 0.026056197 0.02136155
000030 fe 3a 1b bd 36 1e fb bc 97 ea 89 bc 9b e9 81 3f
       -0.037898056 -0.030654054 -0.016835494 1.0149416
000040 7d e3 69 3f f4 a0 9a bd e9 dd d5 bd dc 5f 1c bd
       0.91362745 -0.075502306 -0.10442717 -0.038177356
000050 9f b7 54 bd b9 cb b6 be e5 ac 97 bd 05 8f 9e 3f
       -0.051932927 -0.35702303 -0.07406024 1.2387396
000060 39 bb d3 bb 2d cb bf bd 49 e7 98 bd 3d 5d 8c bc
       -0.0064615277 -0.093649246 -0.07465989 -0.017134303
000070 36 d6 63 bb 51 49 15 3f de 94 92 3f b0 41 ad bd
       -0.003476513 0.58314997 1.1451681 -0.084597945
000080 a3 c0 e4 3b 93 bf 04 bc 2d 1f 83 3f 2b 0c e8 3e
       0.006980972 -0.0081023155 1.0243889 0.45321783
000090 bc 7f 32 bd 8b bd 1e bd 7c 27 16 be 37 43 7e bc
       -0.04357885 -0.03875498 -0.146635 -0.015518955
0000a0 b4 20 d1 bd a8 1d b8 3c df b8 e1 bd 17 6b c7 bd
       -0.10211316 0.022475079 -0.110215895 -0.09737223
0000b0 93 07 6f 3d 20 f7 91 3f 3a ea 85 be fc 4c 04 be
       0.058356833 1.1403542 -0.26155263 -0.12919992
0000c0 ea 75 40 3d 1f a9 28 be 59 c1 c6 bc 7c 47 09 3c
       0.04698745 -0.16470765 -0.024262117 0.00837886
0000d0 02 d3 fd 3e d1 54 c3 3d 5e 09 b9 3e b2 83 0e 3d
       0.4957505 0.09537662 0.3613996 0.034793563
0000e0 6e 1d f5 bd 17 1d e0 3d ba 69 0d 3f 2a 78 8c 3d
       -0.11968504 0.109430484 0.5523945 0.06858857
0000f0 c7 d7 6e bd 76 d0 04 3f 92 fa 8d 3a 0f 4f 01 be
       -0.05831125 0.51880586 0.0010832122 -0.12627815

layers.4.weight f4 [3, 64]
000000 75 ca 30 bd f3 bb 90 bd e8 3c cd bd a2 5d 90 be
       -0.043161828 -0.070670985 -0.100213826 -0.28196436
000010 e4 09 a1 bc 38 db 0f 3d 51 44 f6 3c 2e 61 d2 3d
       -0.019658037 0.035121173 0.030061873 0.10272442
000020 b2 c7 a5 3b 64 b3 ad be c0 f9 b3 bd ac 0c fa bd
       0.005059206 -0.33925927 -0.087878704 -0.12209448
000030 3d 12 ae 3d f7 b5 27 bc 43 59 95 3b 32 a7 24 bc
       0.084995724 -0.010236255 0.00455776 -0.010049628
000040 37 77 93 3d e8 79 75 3d a7 79 82 bd 94 db f7 3d
       0.07200473 0.059930712 -0.063708596 0.12102428
000050 09 47 1a 3e 50 4c b9 bc 18 51 98 bd e7 f8 53 bf
       0.1506616 -0.022619396 -0.074373424 -0.8280167
000060 4c ce eb bd 94 d0 b4 3d bf 4a ad 3d ff fc 21 be
       -0.115139574 0.088288456 0.08461522 -0.15819167
000070 00 66 36 ba 4c ba 89 bd 58 ee a6 bd 54 7a 1d 3d
       -0.0006957948 -0.067249864 -0.08150929 0.03844674
000080 9a 13 c6 3d d7 a9 3e b9 d6 93 c5 3c e2 ab 16 3d
       0.096717075 -0.00018183082 0.024118345 0.036785014
000090 ca 21 10 be 27 05 63 be da a4 fc 3d ba df dd bd
       -0.1407539 -0.22169934 0.123361304 -0.10833688
0000a0 33 a9 04 3c d8 a1 25 bd 23 80 58 bd 60 0e 0f 3a
       0.008096981 -0.04043755 -0.052856576 0.0005457159
0000b0 93 5e d4 bd f1 52 e6 bc 13 7c f4 bc 10 e4 9e bd
       -0.10369601 -0.028115721 -0.02984432 -0.07758343
0000c0 72 66 ae bd 00 44 48 bd f2 c8 e2 3d 23 8c 08 be
       -0.08515634 -0.048892975 0.110734835 -0.13334708
0000d0 8f d2 03 bd 80 ab 6d 3d 96 a2 ca 3c a4 74 28 3c
       -0.032183226 0.058024883 0.02473573 0.010281716
0000e0 3e 8f b9 3d a9 48 48 bd 91 0c 8a bd 13 fb 4b be
       0.090605244 -0.04889742 -0.06740678 -0.19919996
0000f0 c7 3e c5 bd e2 d6 0a 3d 4b ee d4 3c bd 09 32 bd
       -0.096311145 0.033896334 0.025992533 -0.04346632
000100 a2 6a 85 3d a0 e1 84 3b ac 7f 68 3d 85 f6 33 bf
       0.06514479 0.004055217 0.056762382 -0.70298034
000110 42 69 83 bd b1 ea 37 be d0 aa 3a bd 54 4e 34 3d
       -0.06416561 -0.17960621 -0.045573056 0.044020012
000120 c0 c0 75 bc a6 ec c6 bc f5 25 02 be 6d c2 94 3a
       -0.014999568 -0.024282765 -0.12709792 0.0011349447
000130 54 b7 67 3d 34 6c 1f bd e8 a3 04 3d cb 7c 97 be
       0.05657132 -0.03892155 0.032382876 -0.29587397
000140 ec fe a6 bd ba d7 81 3d 87 3b 87 3d 00 b6 db 3a
       -0.08154091 0.06339975 0.06603151 0.0016762614
000150 a4 14 19 3d ef 7e 1b be af 1b 15 bd 52 47 4d bf
       0.0373732 -0.1518514 -0.036403354 -0.8018695
000160 98 a9 9a bd d8 f9 eb 3c 3b 7d 44 3a d0 db 10 be
       -0.07551879 0.028805658 0.00074954674 -0.14146352
000170 3a ba cd 3d 93 2c 26 be 24 ae 32 be 5c 5e ed 3d
       0.100452855 -0.16227941 -0.17449242 0.11590263
000180 89 3b 2a bd 92 a9 e4 3d 04 91 4e bd 60 d9 73 bd
       -0.041560683 0.111651555 -0.050431266 -0.059533477
000190 73 f0 17 bd 96 44 d8 bd 40 65 c3 3d 39 c9 9e 3b
       -0.037094545 -0.10559957 0.09540796 0.004845765
0001a0 87 61 a6 bc 7a bf ee 3d 20 c9 7d 3c 46 7d b5 3d
       -0.020310177 0.11657615 0.0154898465 0.08861785
0001b0 f5 67 23 3c 64 c1 13 3e 29 29 44 3d 35 71 93 3c
       0.009973516 0.14429241 0.047890816 0.017998317
0001c0 54 a3 ce bc f3 64 00 be 88 8c 0a 3d 47 09 21 3c
       -0.025224365 -0.12538509 0.033825427 0.009828872
0001d0 9a 32 71 be c0 32 2f 3d a2 21 da bc 36 7f 28 be
       -0.23554459 0.04277301 -0.026627365 -0.16454777
0001e0 91 88 12 bc 5a d6 27 bd 46 50 11 be 58 8e 7b bd
       -0.008943693 -0.040975906 -0.14190778 -0.061415046
0001f0 58 75 a4 bc de d7 8c be b7 51 08 be 10 73 4c bd
       -0.020075485 -0.27508444 -0.13312422 -0.04991442
000200 5d cd bf 3d 86 8b 9a 3d c0 17 99 bc 00 b7 00 bf
       0.09365342 0.07546143 -0.018688083 -0.50279236
000210 20 5d f0 3c 42 e2 19 be b8 5d 54 be 6c 3a af bb
       0.02934128 -0.15027717 -0.20738876 -0.0053475406
000220 80 8d 54 3b 2d bb 4a bd b7 a6 b1 bb 28 fe 8c 3c
       0.0032432973 -0.04949491 -0.0054214853 0.017211035
000230 70 8b ed bd dc 32 c1 bd 1d 10 bf bd 4b 58 79 be
       -0.11598861 -0.09433529 -0.09329245 -0.24350087
000240 10 ad 0d be 5f 6d 1a 3a c3 fb 50 bc ec 54 59 3d
       -0.1383555 0.00058909314 -0.012755337 0.053059503
000250 14 20 03 3c 11 69 64 3e 5f 9d 1e 3c c8 8f 3e bf
       0.0080032535 0.22305705 0.009681075 -0.7443814
000260 f6 cb 87 3d b4 5f 62 3d f2 75 a0 3b e8 8b 31 3d
       0.06630699 0.05526705 0.0048968727 0.043346316
000270 35 63 5c 3d 64 82 bf bc 20 3e 69 be b8 46 1d 3d
       0.05380555 -0.023377605 -0.22777605 0.03839752
000280 bd 67 c2 3d bf 07 21 3d 70 69 d8 bd 23 8e 57 bd
       0.09492443 0.039314028 -0.105669856 -0.052625787
000290 2e 38 5b 3c 23 0a 84 3d c4 7f 19 3d 97 5f 98 3d
       0.0133800935 0.06447246 0.037475362 0.07440107
0002a0 6d f0 20 3c 24 11 e1 3d 68 7a 7d 3d 25 f2 a5 3d
       0.009822947 0.109895974 0.061884314 0.08102826
0002b0 9e e6 90 bb 1a 00 32 be ea 60 bd 3d d7 be dd 3c
       -0.004422023 -0.17382851 0.092470005 0.027068539
0002c0 b9 f9 c3 3d a3 83 14 3d 37 5a 36 bd 84 60 5a 3c
       0.09569115 0.03625835 -0.04451963 0.013328675
0002d0 af 23 49 bc a0 74 a4 bc 40 07 98 bd c7 f0 9b 3c
       -0.012276574 -0.020075142 -0.07423258 0.01903571
0002e0 2f 2c 58 3c 1e 69 99 bb 7c be 52 bd 7f 61 e8 bb
       0.013194128 -0.0046817204 -0.05145119 -0.0070917006
0002f0 04 30 06 3d 58 50 40 bd 51 2b d8 3d fa 39 79 3d
       0.032760635 -0.04695162 0.10555137 0.060846306

layers.4.bias f4 [3]
000000 54 77 74 bf 65 47 4a bf ef ba 6d bf
       -0.9549458 -0.7901519 -0.92863363
