weights/trained_agent_model_ETH-USD.pth (torch, 22672 bytes, 6 tensors)

layers.0.weight f4 [64, 8]
00000000: 7987 bf3e b4ef c23d c75f 1f3e e5f5 843e
00000010: c452 963e 36e8 c63e bf50 7ebe b183 883d
00000020: 0c1d 98bb fca5 38be 9406 6d3e 1d41 86be
00000030: bdcd be3d 9ac2 763e b3dd b1bd 9779 16be
00000040: 6a56 573d 2a58 0d3e f2fc 3fbe b9a4 243d
00000050: 67a9 da3e c387 883e e5f2 22be 41d2 543e
00000060: 9968 b83d 5e4e 603e 2682 cc3e b18a 5cbe
00000070: b503 9a3e d183 18be b6d6 9e3d 7c49 783e
00000080: c57a 983b 096d 9cbe 0d30 133e b957 793d
00000090: 5dad 48be 7669 95bd ab2c 033e 0882 90be
000000a0: 0d4b 6b3e 41df 893d a201 8ebe 11e1 ae3e
000000b0: 4f4a 35be c384 293e 5461 833e e7dc 5a3e
000000c0: 079b 973e 5135 b13e b1bf 613e 3a74 6f3e
000000d0: b05b fbbd 422d a5bd b21a e6bd 9aac 423d
000000e0: 1c59 0d3d 4605 bbbd da62 4c3d 955b 65be
000000f0: 46b4 2d3d c6c4 b1be 4a79 343e dd06 ef3d
00000100: 4a83 93bd fb06 fd3d 4fcb d8bd 2735 2bbe
00000110: e70b 5abe 641c c1bd 56d9 713e 37ac 88bd
00000120: 57a2 ebbc bc5c 30be a00e 893e e8dc 37be
00000130: 0613 cd3e 6f65 993e 7bc5 db3e 19da dd3d
00000140: 5ec5 923e 2ebf 893b bbd8 32be fb71 bf3e
00000150: 2e47 533e f318 b93e f97a f63d 88a2 20be
00000160: edd6 acbe 3629 4abe 8176 d33c 66cd a5be
00000170: 3e92 0ebe a2a1 153e 9585 90be 751a 3e3e
00000180: b6c7 683e f959 aebe 7de0 983e 98b1 4a3e
00000190: edd9 8ebe 9a92 9d3d 1d00 40be c494 19be
000001a0: e60f 6e3d 129a ab3d 10dc 2fbe 0669 213d
000001b0: 3742 11bd e66b f0bc aef1 67be 5b13 143e
000001c0: f4c3 60be b34f 5a3e 7c21 493e 6546 373e
000001d0: fa04 e7bb 92b6 fabd f30e 913d 4988 ba3e
000001e0: 670e 7b3e 315f 853e a2fd 3d3e f56b e9bd
000001f0: 4168 5cbe ca0f c03e d8f4 b93e 9d40 3cbd
00000200: 1145 c23e e302 f0bb 6a7c da3e 8608 b53c
00000210: 741f c73e adfb 58be d4a5 e73d 327a 673e
00000220: 222a 3fbe 1f02 913e d378 1f3e 6287 fd3a
00000230: ad01 ca3e 6b77 083e d146 50be 1492 4b3e
00000240: 9769 933e e79c c6bd 97ed 84be ff6d b93e
00000250: 1e65 e03d 9c4b 41bd 223e 42be be7e 803e
00000260: e256 833e 1454 c83e 5010 cdbd 56f7 6a3e
00000270: aa5a 133d a098 67be f968 77bd 4f53 bcbd
00000280: 4faf bd3e 5539 86be 6a06 bd3e d972 523e
00000290: 67a9 9a3e d3ac 783e e7ee 223e 7398 863e
000002a0: c507 9abc 3299 983e c755 ad3e 7fd8 00bd
000002b0: c8a2 74be 8bab 423e 2157 eabc 5bb5 ce3e
000002c0: 0154 0ebe e6d6 823e d8e2 a53e acdd b4bd
000002d0: 4b2b 3d3e 5a78 e93d 39a4 f2bd 5a3d 903e
000002e0: b235 b4be 443d 19be b298 30bd 9d90 6ebe
000002f0: c89b 6abe d47e 583e 1a03 2d3e a41f a7be
00000300: a36c 7fbe 3e74 933e 2add a1bc 63cd 473e
00000310: 2345 b4be fd1f 41be dfed a8be 6bd5 b0bc
00000320: 6585 51be a844 13be eefd 943e 5e13 89be
00000330: 9330 debd 6290 3bbe d270 9dbe c7ef 923d
00000340: 9259 a7bd 6ede 3a3e a29a a23e bf87 cd3e
00000350: 0839 6e3e 06f4 833e 5050 a93e 4222 ccbc
00000360: 68e0 a13e a7a0 a3be 07cc a3bd c425 783d
00000370: ef07 ce3d d83e a0bd 2834 55be d5de 3cbe
00000380: c494 6fbe 5bda 643e 5264 70be 5fe7 b63e
00000390: 3060 3f3e 7c4d 253e c0f8 193d 890a af3e
000003a0: 0037 153d f63e 20be a8bc b73e ccf2 c2bd
000003b0: ccfe ab3e 763d 8d3e 52cf 5a3d 647f 28be
000003c0: 17ca adbe fa1a 81be 04d8 cfbb ad31 7abe
000003d0: 7ede fdbd 803c f4bc 3724 29bd 8471 71be
000003e0: 4fc7 e8bd 6976 9a3e 0e52 25bd 3660 473e
000003f0: bf0d 7c3c dff5 653e 46a9 113e e070 813c
0.37408045 0.09518376 0.1556388 0.25968853 0.2936002 0.38849038 -0.2483549 0.06665743
-0.0046421345 -0.18032068 0.2314704 -0.26221552 0.09316585 0.24097672 -0.08684864 -0.1469482
0.052572645 0.13803163 -0.18748835 0.040196154 0.4270737 0.26666078 -0.1591297 0.2078333
0.090043254 0.21904895 0.39943045 -0.21537282 0.30080953 -0.14894034 0.077557966 0.24246782
0.004653307 -0.30551937 0.14373799 0.060874674 -0.19597383 -0.07295506 0.12810008 -0.28224206
0.22977848 0.067320354 -0.2773562 0.34156087 -0.17704128 0.16554551 0.25660193 0.2137333
0.29610464 0.3461099 0.2204578 0.2338418 -0.122733474 -0.08065273 -0.112355605 0.047527887
0.03450881 -0.09131865 0.04989896 -0.22398217 0.04240825 -0.3472044 0.17624393 0.11671231
-0.07202776 0.12354847 -0.10585653 -0.16719495 -0.21293603 -0.09429243 0.23618063 -0.066734724
-0.028763933 -0.17222875 0.2676897 -0.17955363 0.40053576 0.299602 0.42924103 0.108326145
0.28666204 0.0042036986 -0.17465489 0.37391648 0.20632622 0.36151847 0.12035174 -0.15687001
-0.33757725 -0.19742283 0.025813343 -0.3238327 -0.13922974 0.1461244 -0.28226915 0.1856478
0.22732434 -0.3405302 0.2985877 0.19794309 -0.2790064 0.07693978 -0.18750043 -0.14998156
0.05812063 0.08378996 -0.17173791 0.0394068 -0.035463538 -0.029348325 -0.22650787 0.14460509
-0.2194975 0.21319465 0.1964168 0.17897947 -0.007050154 -0.12241854 0.070829295 0.36432102
0.24517213 0.26049188 0.18553784 -0.11397544 -0.21524145 0.37512046 0.36319613 -0.045960058
0.37943318 -0.007324563 0.42673045 0.02209879 0.38891184 -0.21189757 0.11310926 0.22605208
-0.18668416 0.2832193 0.15573435 0.0019342715 0.39454404 0.13326804 -0.20339514 0.19879943
0.28791496 -0.096978955 -0.25962517 0.36216733 0.109567866 -0.047191247 -0.18969014 0.25096697
0.25652224 0.39126647 -0.10012877 0.22945914 0.035975136 -0.22616816 -0.060402844 -0.09195577
0.37047812 -0.26215616 0.36918956 0.20551623 0.3020737 0.24284677 0.15911447 0.26288185
-0.018802533 0.2980438 0.33854505 -0.031456467 -0.23890221 0.19010751 -0.028606 0.40372738
-0.13899232 0.2555458 0.3239963 -0.08831343 0.18473546 0.11399908 -0.11847729 0.28171808
-0.35197216 -0.14964777 -0.04311437 -0.23297353 -0.22910988 0.21142131 0.16895714 -0.32641327
-0.24943785 0.28799623 -0.01975878 0.19511943 -0.35208997 -0.18859859 -0.3299398 -0.02158614
-0.20461042 -0.14381659 0.29099983 -0.26772588 -0.108491085 -0.18316796 -0.30750138 0.0717464
-0.08171381 0.18248913 0.317586 0.4014263 0.23263943 0.25772113 0.33069086 -0.02491868
0.3161652 -0.31958506 -0.079978995 0.06058289 0.10060107 -0.078244865 -0.20820677 -0.18444379
-0.23396593 0.22348921 -0.23475769 0.35723397 0.18689036 0.16142839 0.037590742 0.34187725
0.036429405 -0.15649018 0.3588612 -0.09518966 0.33592832 0.27585953 0.053420372 -0.16454846
-0.33943245 -0.25215894 -0.0063428897 -0.24433012 -0.12395953 -0.029814005 -0.041294303 -0.23578459
-0.1136614 0.30168465 -0.040361457 0.19470295 0.015384137 0.22457074 0.14224729 0.015800893

layers.0.bias f4 [64]
00000000: c466 ed3e 131e e0bd ea12 083f 3a9d 073f
00000010: b685 953f c224 9b3e d50f f63c a408 f63d
00000020: 73d2 af3e 77dc a4bb c987 143e 5b01 c63e
00000030: df31 bf3e ab4d 943d a4b0 edbd 20b7 003f
00000040: 2ee3 61bd 272b 0dbc ab48 0a3f e865 223c
00000050: d002 babd 4bc2 d7bd 9878 b4bc c0c0 51be
00000060: 0e6e 8c3f 44e2 e0bd 2d23 9b3e fb3f b33f
00000070: 8ef0 fb3e 9d8e 333d 99dd 95be a64e 753e
00000080: 1e7f d9bc db44 c43e daa8 a13e 5eac 4abe
00000090: aa93 12be 98aa 1bbe 779c e4bd 05b0 d73d
000000a0: 0ab1 70be cdc3 3c3e fcc2 1b3d f4b7 273f
000000b0: 5eb4 09be 3456 403e 3999 dd3e 4fad 6dbd
000000c0: 8f45 ec3e 953a ed3d 2199 643e 64e1 bfbe
000000d0: 6921 073f b3ca 453e 9841 453e f112 983d
000000e0: 0bb8 8abe 8d3f 043f b14c 88bb bd62 adbe
000000f0: 780d 843e 6795 11be 96cd 2a3e 1e2e b9bd
0.46367466 -0.10943236 0.5315386 0.52974284 1.168143 0.3030148 0.030036846 0.12013367
0.34340248 -0.0050311643 0.14504923 0.3867291 0.37342736 0.072413765 -0.11605957 0.50279427
-0.055148296 -0.008616245 0.5401713 0.009911992 -0.09082568 -0.10535105 -0.02203016 -0.20483685
1.0971086 -0.10980657 0.30300274 1.40039 0.49206966 0.04383718 -0.29270628 0.23955783
-0.026549872 0.38333783 0.31574136 -0.19792315 -0.14314142 -0.15201795 -0.11162656 0.1053162
-0.23505035 0.18434067 0.03802775 0.65515065 -0.13447711 0.18782884 0.43280962 -0.058026608
0.4614682 0.11583439 0.22324039 -0.37476647 0.52785355 0.19315605 0.19263303 0.07425488
-0.2709354 0.5165947 -0.004159533 -0.33864394 0.25791526 -0.14217149 0.16679987 -0.09041999

layers.2.weight f4 [64, 64]
00000000: 8284 ae3c f8ce 2a3a caf6 923d e495 d23d
00000010: fe1d 44bf 677a 963d 789a 1e3e a635 6bbd
00000020: 3f61 f2bd 96f1 6bbe 921e e83b 98a9 293b
00000030: 38bf 8e3c 7736 5d3d a15f ce3d e1cd 283e
00000040: 8986 913d d871 293a c811 a7bd b9e2 0e3d
00000050: 6e57 073e 219c b03d 4651 e13d 124b adbd
00000060: 8d58 2ebf 4a2d 663d 9606 08bd 4122 29bf
00000070: 2084 ee3d cd3a d53d d8ae c4bc 7ba4 1b3e
00000080: b0c2 133e 3a17 303e 2aac f6bc d0c1 8bbc
00000090: a9b7 033e c026 9c3b 750f c4bd c828 c53d
000000a0: b02e 803d c72b 2cbd 56e7 383d eff0 b3bd
000000b0: d4f3 e83d ca5f c73c 23f6 24bd f7e9 bf3c
000000c0: e8cb 423e 7ce6 1ebc 73d6 fe3c dd44 efbd
000000d0: 60de 883d fc8c 9f3c 80ba e13d b518 723d
000000e0: 4f01 bd3d a45b 363e b34c dd3d b201 b43d
000000f0: fd7b 513c 5ace a4bd 06e0 e13d 1230 93bd
00000100: a231 da3d 9f14 3ebe 7a81 963d d480 f03d
00000110: c90f 57bf 16d7 1e3d e4ba ea3c 50be 09be
00000120: 3e94 113d 21f9 55be 1351 013e baaf cd3d
00000130: 53d0 22bc 3aa6 15be bf9d 333e 272e 2e3e
00000140: 529c f2bb 9df9 7f3d e81c 50bd e56c bc3d
00000150: c81e 133e b82b 303d 2b81 4a3d 8866 63bd
00000160: ad1e 34bf 187c 07be 95f8 0b3e 68a9 39bf
00000170: 6a40 173e d79f c53d 28f5 79bd 4622 e0bc
00000180: a041 303e 0d39 bf3d a5e4 1b3e 8cb8 17bd
00000190: da79 423e 3a41 d63d cce0 113e cbaf e93c
000001a0: bc62 74bd 134f eb3c db69 76bc d6d2 723c
000001b0: e099 dabb c0bb 043d 3407 d6bc 4772 ea3c
000001c0: 0fee 763c e48d ccbc 657f 1b3d e466 db3c
000001d0: 6a57 3b3e 15bf 353d e0dd f93d 260d 183e
000001e0: 6d69 01be 79c4 213e 6707 463e 309b 28bc
000001f0: a9da 9dbd b1ca e5bd cc93 263e b010 8c3c
00000200: 5398 ca3d d11d f1bd a8dd 3e3e e4f6 19bc
00000210: 946e 47bf 5e54 033e 51d7 073e 0ef1 ffbb
00000220: 7a15 213d a51b 253d 76d3 5a3d d497 a2bd
00000230: 5592 01bd aa3f 823d 2d3a 2b3e acfe 1d3e
00000240: 4730 0a3e 53ef 39bb e3f6 0a3e a992 3b3e
00000250: f9d3 083d 7637 fe3d 4421 973d 6e7d c5bd
00000260: 22a8 5bbf fc24 97bd 4627 353e c33f 2ebf
00000270: 5eb8 df3d 1199 0d3e 906e d5bc 7e36 273e
00000280: b6cc 223e 8119 c43d d8b1 0f3e f079 553c
00000290: 1d7a a2bc 6823 ad3d 7216 f93d 713c 7b3d
000002a0: f60b aabd 4dbc c83d 3b52 293e 4fb6 863d
000002b0: a80c e93d bc73 2d3e a89f e73c 1361 553e
000002c0: 2ea0 ea3d 4a2a f13d fa43 dc3c 0736 d63d
000002d0: fc50 9e3d c8db 0e3e 46d4 f43c 3525 263e
000002e0: 9e93 413c fa06 243e 5f65 3d3e e0bc b93d
000002f0: d5ba 41be cb12 c73d d5a2 eb3d 5caa d0bd
00000300: 7c9b 92bc 86f5 a03d bec5 cb3d 9a45 cd3d
00000310: 03f7 4e3f 6625 4f3e f114 bc3d 4f6d df3d
00000320: b92e d63d 1f2d 9b3e 2827 1a3e 001e 3fbd
00000330: 4dcb 173e 85b2 0d3e 09b4 1cbd 651f 923a
00000340: 452a 403e a331 993b 5787 063e 0b1e 013e
00000350: f643 833d 5210 fc3d 1fd4 c63d 90ab 90bc
00000360: bbb9 483f 9c53 81bd c86e 0d3d 35fa 2d3f
00000370: 9aac 3c3e fd86 f33b f4ab fc3d d423 2c3e
00000380: 9348 383d f1f2 4cbd 3b17 4f3d 64c4 24bd
00000390: 213b e43d a89c 46bd 45e0 613d 2584 8c3d
000003a0: 2493 913d 5da5 423e 197f 243e 8937 403c
000003b0: e6e7 c2bd d816 fb3c faf4 ee3d 2ea7 91bc
000003c0: 6c7f f63d 9f0a 103e 71ad 4d3e d560 6fbc
000003d0: 465a b9bc 2f89 013d 1af5 1bbd e400 023d
000003e0: ba84 913d d1e1 803d 1d2d 893d c4f9 693d
000003f0: 2a39 7f3b 99b0 5dbd 205e 003e 583f cfbc
0.021303419 0.0006515826 0.071759775 0.102824956 -0.76608264 0.07347565 0.15488613 -0.05742421
-0.118349545 -0.23041376 0.0070837224 0.002588844 0.017425165 0.05400702 0.100768335 0.16484787
0.07105739 0.00064638024 -0.081576884 0.03488419 0.13216946 0.08623529 0.1100183 -0.08461584
-0.6810387 0.056195535 -0.033209406 -0.6606789 0.116462946 0.10411606 -0.024009153 0.15199463
0.14429736 0.1719636 -0.030111391 -0.01706019 0.1286303 0.0047653615 -0.09573261 0.09626919
0.06258905 -0.042033937 0.045142494 -0.08786189 0.113746315 0.024337668 -0.040273797 0.023426993
0.19023097 -0.009698506 0.031108117 -0.116830565 0.0668304 0.019476406 0.110219 0.059105594
0.09228765 0.17808396 0.10805645 0.08789386 0.012785909 -0.08047171 0.11029057 -0.07186903
0.10653998 -0.18562554 0.073489144 0.11743322 -0.8400846 0.03877934 0.02865357 -0.13451505
0.035541765 -0.20895816 0.12628584 0.10043283 -0.009937364 -0.14614192 0.17540644 0.17009793
-0.0074038887 0.06249391 -0.050808817 0.092004575 0.14367211 0.043010443 0.04943959 -0.055517703
-0.7035931 -0.13230932 0.13669045 -0.7252412 0.14770666 0.09649628 -0.061024815 -0.027360093
0.17212534 0.093370534 0.1522394 -0.037041232 0.18991795 0.1046166 0.1424591 0.028526207
-0.059664473 0.028724229 -0.015039886 0.014820775 -0.0066711754 0.032405615 -0.026126482 0.028618945
0.015071406 -0.024970002 0.03796329 0.02678246 0.18295065 0.044371683 0.122005224 0.14848766
-0.12637873 0.15797605 0.19338761 -0.010290906 -0.07707722 -0.11220301 0.16267318 0.017097801
0.09892335 -0.11773265 0.18639243 -0.009397242 -0.77903104 0.12825152 0.1326573 -0.0078107184
0.039327122 0.040309567 0.05342432 -0.07939115 -0.031633694 0.06359799 0.16721411 0.15429181
0.13494979 -0.0028371408 0.13570742 0.18317665 0.033405278 0.12412922 0.07379392 -0.096430644
-0.85803425 -0.07380101 0.17690763 -0.6806604 0.10923837 0.13827921 -0.026053697 0.16329381
0.15898404 0.09575177 0.14032686 0.01302956 -0.019833619 0.08454019 0.12162484 0.06133694
-0.083030626 0.098015405 0.16535275 0.06577741 0.11379367 0.1693868 0.028274372 0.20837812
0.11456333 0.11775644 0.026887883 0.10459524 0.0773029 0.13951027 0.029886376 0.16225131
0.01181498 0.16018286 0.18495701 0.09069228 -0.18918927 0.09720381 0.11505667 -0.101887435
-0.017896406 0.0785933 0.09949826 0.10023041 0.8084566 0.2022911 0.09183682 0.10909521
0.104581304 0.30307862 0.15054 -0.04665947 0.14823647 0.13837631 -0.038257632 0.0011148272
0.18766125 0.0046751066 0.13137566 0.12609117 0.06409447 0.123078 0.09708428 -0.017659932
0.784084 -0.06314775 0.034529477 0.6795991 0.18425217 0.0074318633 0.12337485 0.16810542
0.044991087 -0.050036374 0.050559264 -0.040226355 0.111440904 -0.048489243 0.05514552 0.06861142
0.07108143 0.19008394 0.16064109 0.011731991 -0.09516887 0.030650541 0.11667819 -0.017779913
0.120360225 0.14066552 0.20085694 -0.014610489 -0.022626054 0.03162497 -0.038075544 0.03173913
0.07105394 0.06293071 0.06698058 0.05712296 0.0038943985 -0.054123495 0.12535906 -0.02529876

layers.2.bias f4 [64]
00000000: 7e84 903e 8f87 623e 9c49 1e3e 1ad2 7d3d
00000010: d959 c73d 9e26 cc3e a2fc c43d 6410 323e
00000020: 768a e5bd 7a69 dbbd b6c0 a3bd 4951 6e3e
00000030: 2eb6 343d bc86 13bd 1b07 343e fcb8 e4bd
00000040: 5205 ad3d 63e3 833d 5521 763e a7f0 1e3e
00000050: 0d44 5dbc 0c91 d53d d534 c23d 1070 0bbd
00000060: a1dd edbd 9ba8 533b df0f cebc 5965 8a3e
00000070: a482 a6bd 1deb a9bc 5134 323e fbbc 023e
00000080: 5991 d8bd 1490 80bd 5299 963e 6c88 0abe
00000090: 9d2e c73d de83 273f f572 db3c 186a 5f3d
000000a0: d05b dcbc 834f 003d 01c2 583e cb6e a73d
000000b0: 2dbe 283c d651 1bbd 1655 1d3e 7a94 37bc
000000c0: ddbc 3d3d 8c5f 44bb 4e70 feb9 a116 b63d
000000d0: ba8a 81bd c433 7b3d e377 37bd 3634 843d
000000e0: d0a5 53bc 06d6 5a3e 59c0 813e 8e9e 873e
000000f0: f760 bbbd e918 eabd 0956 ae3d 96d0 da3d
0.28226084 0.22122024 0.15457767 0.061967947 0.09733934 0.39873213 0.096184984 0.17389065
-0.1120805 -0.107134774 -0.07995741 0.23273195 0.044119053 -0.036017165 0.17580836 -0.111680955
0.084482804 0.06439855 0.24036153 0.15521489 -0.013504994 0.10428056 0.09482733 -0.034042418
-0.11614538 0.0032296542 -0.025154052 0.27030447 -0.081303865 -0.020741994 0.1740277 0.12767403
-0.10574598 -0.06277481 0.2941385 -0.13528603 0.09725688 0.6543559 0.026788214 0.05454454
-0.026899248 0.03132583 0.21167757 0.08175429 0.010299248 -0.03791984 0.15364489 -0.011204833
0.046322692 -0.0029964177 -0.0004853033 0.08891035 -0.06325288 0.061328664 -0.044792067 0.06455271
-0.012917951 0.21370706 0.25342062 0.26488155 -0.09149354 -0.114305325 0.08512504 0.10684316

layers.4.weight f4 [3, 64]
00000000: 9b25 87bb 88d2 07bd 2abe fcbd bb46 343d
00000010: 4335 27bd 2b4b 8e3e 716d c23c 1d0c e33c
00000020: b60f 063e e0a2 d3bb 6439 b83d 7d55 a4bd
00000030: a073 0c3e e07d f4bc c552 cf3d 9de8 483d
00000040: ed4a d53d aeb3 39bd 1fe4 b7bc 180c 1e3c
00000050: 252d b9bc 3c88 0bbd 925a aabd dccc fbbd
00000060: b833 a5bc 68b6 06be 4ed1 cc3d 4df5 d73d
00000070: 38e8 4f3d ba12 0d3e c4ff 35bd c2f5 313d
00000080: 486d a7bd 612d 273e 14a0 a63c d34f 25bd
00000090: 17dc e73d 6283 0d3f 4ec9 ef3d bad2 f0bc
000000a0: 6132 81bd 5993 3a3d e216 cd3d 3ce2 99bd
000000b0: c414 d1bd 7617 813d efda 703f cfbc e5bd
000000c0: bbe3 023d 4696 b33d 24c7 9dbd f28c bfbc
000000d0: 059b 633e 9f93 c63e 5a73 b1bd 5f91 ef3a
000000e0: d01a 54bd 42d1 293d c9b2 e4bd 41df 433d
000000f0: f3b2 36bc c0f6 7cbd 7145 c93d 55d0 3fbd
00000100: d633 ba3d cfae ef3d 5ef5 36bd ec25 98bd
00000110: e174 0bbe 984a adbc c340 af3d 6a81 c73d
00000120: ed39 6bbd 24f0 b0bd d9f2 d33d 99c5 eabd
00000130: 871b 05bc c0e6 58bd 455f aa3d 4e5f b53d
00000140: f07b 0a3d 1e4f c4bd 3294 d3bd b675 71bc
00000150: c884 c93d 4c2e 5e3c f1e3 aa3d 45f9 06be
00000160: 167f 8a3d b980 0cbe 3f89 9d3d 255c 003e
00000170: 7a64 b23d e2da 063d a30d dcbd bfdc a5bd
00000180: 0f05 c03d c4f7 b53d ac62 913b a7fd 313d
00000190: bc5d b33d a2d3 27bd f283 e9bc 9515 ff3d
000001a0: 9a16 15be a026 d8bc c1d3 07bd bbf8 e43d
000001b0: a41b 3b3d 16ea a53c c4bd d83d 554d b7bd
000001c0: d086 39bd 538f be3d f49e 473c 00f7 8d3d
000001d0: d9d2 80bd 835e b03d 415f c33c e8aa 553d
000001e0: 3658 d4bd 77cf 02bd dce3 85bd aa8a 743b
000001f0: 56b3 343d d9bf cf3c 92ea a93d 469c 4abc
00000200: d2d6 1bbe c1fc 44be 9213 0abe 4f93 37be
00000210: a6f3 eb3b 5238 a73d c070 643d 4dae 30be
00000220: 74e8 6c3d 24f8 243d e8e5 03bd ea0f 86bd
00000230: c46e 433d 5803 cf3c 176d 48be 4062 d8bb
00000240: 7127 df3d e583 08be 32fb 34be 0fc0 d7bc
00000250: 50ef 003c 620c ecbd 7841 25bd 1b74 753d
00000260: 5b2e 01b9 b33d a53d dc6e 00bd 5035 bcbd
00000270: d496 57bd a267 df3d 0fc1 02be 704f 2dbe
00000280: 60a6 87bb fc34 d63d 37d0 8ebd acca 3f3d
00000290: 1449 8c3c 8a4c e63d 9a9a 5a3d a139 0cbe
000002a0: 67c1 593d b045 163d 32c9 fabd 9152 c43d
000002b0: 0eb9 b9bd 4b80 a0b9 e024 b6bc 0405 243d
000002c0: 5784 59bd a030 273c b2ea a0bd ae7a e0bd
000002d0: 7963 cb3d 4c03 093b 0b3c 60bb c069 39bd
000002e0: 2802 bbbd 9b9f ddbd 992a 35be 14a7 44be
000002f0: 42b6 6d3d 7c2d 0c3d 3660 1ebe ba82 53bd
-0.004124356 -0.033159763 -0.123409584 0.044012766 -0.04082228 0.27791724 0.023733826 0.027715737
0.13091931 -0.006458625 0.089953214 -0.08024118 0.13715982 -0.029845178 0.10123209 0.049049962
0.104146816 -0.04533737 -0.022447644 0.009646438 -0.022604534 -0.03406547 -0.08318056 -0.12294933
-0.020166263 -0.1315552 0.10000859 0.10544834 0.05075857 0.13776675 -0.04443337 0.043447264
-0.081751406 0.16325904 0.020340003 -0.04035933 0.11321276 0.552786 0.11708318 -0.029397357
-0.06308437 0.045550678 0.1001413 -0.07513854 -0.10209039 0.06303303 0.94084066 -0.11217653
0.031955462 0.08768897 -0.07703999 -0.023382638 0.22227104 0.387845 -0.0866458 0.0018277577
-0.051783383 0.04145933 -0.11166913 0.047820333 -0.011151063 -0.061758757 0.09827698 -0.04682954
0.09091918 0.11703264 -0.044667594 -0.07429108 -0.13618805 -0.021153733 0.08557274 0.09741481
-0.05742829 -0.08639553 0.10349054 -0.1146347 -0.008124239 -0.052954435 0.083189525 0.088560686
0.033809602 -0.09585403 -0.103310004 -0.014737537 0.09839779 0.013560843 0.083442576 -0.13181026
0.06762521 -0.13720979 0.07692193 0.1253515 0.08710571 0.032923587 -0.107447885 -0.080987446
0.09375965 0.08885148 0.0044368114 0.043454792 0.08758113 -0.040973313 -0.0285053 0.12455288
-0.14559403 -0.026385605 -0.03316093 0.11180254 0.045680657 0.020253222 0.1058307 -0.08950297
-0.045294583 0.09304681 0.0121838935 0.06931877 -0.06290216 0.08611777 0.023849132 0.052164942
-0.103683874 -0.031936135 -0.06537601 0.0037314096 0.04411634 0.025360035 0.08296694 -0.01236636
-0.15218666 -0.19237043 -0.13484028 -0.17927288 0.007200676 0.08165039 0.05577159 -0.1725399
0.057838872 0.040275708 -0.032201678 -0.06546004 0.047713056 0.02527015 -0.19572864 -0.006603509
0.10896195 -0.13331564 -0.17673948 -0.026336698 0.007869557 -0.11525799 -0.04034564 0.05992518
-0.00012319667 0.08068409 -0.031355724 -0.09189856 -0.052634075 0.10908438 -0.12768959 -0.16924834
-0.0041397065 0.10459325 -0.069733076 0.046824142 0.01712469 0.112450674 0.053370096 -0.13693859
0.05316296 0.036687553 -0.12245406 0.09586061 -0.090684995 -0.00030613164 -0.02223438 0.040043846
-0.053104725 0.010204464 -0.078572646 -0.10960899 0.09931082 0.0020906506 -0.0034215476 -0.045266867
-0.09131271 -0.10821458 -0.17692031 -0.1920436 0.058035143 0.034223065 -0.15466389 -0.051638342

layers.4.bias f4 [3]
00000000: 8049 11bd 3f5d e6bd 016a 8bbe
-0.035470486 -0.11248254 -0.27229312
