weights/trained_agent_model_BNB-USD.pth (torch, 27831 bytes, 6 tensors)

layers.0.weight f4 [64, 30]
-0.052094594 -0.1755841 0.09133381 -0.0038890243 -0.023390502 0.14970654 0.18049929 -0.07043771
0.15069908 -0.16647334 0.08347535 -0.1683198 -0.09444458 -0.00035594404 -0.021769255 -0.05037509
-0.06712099 0.06207329 0.10983628 -0.11681326 -0.15714546 0.15644695 0.02460435 -0.19517143
-0.033215225 0.14496623 -0.16390435 0.105531655 0.034780417 -0.17970958 0.21165182 0.15783179
0.20720403 0.31575066 0.13241157 0.43580052 0.21990395 0.07222121 0.3698071 0.3224746
0.40980577 0.4382491 0.31732348 0.2282214 0.32988358 0.13712457 0.30726075 0.2740165
0.28212905 0.45152274 0.42500073 0.16235691 0.20621334 0.34252015 0.30714267 0.40225482
0.31318274 0.43825692 0.33415553 0.15337518 0.19582927 0.13611236 0.058970448 0.30305988
0.116853125 0.00048954133 0.2611286 0.10505254 0.11735926 0.3116848 0.090407796 0.15962224
0.23530588 0.30156913 0.2905435 0.37719536 0.08101208 0.08959605 0.21010482 0.06851196
0.18318094 0.056914672 0.18440877 0.113761365 0.1774996 0.30424425 0.2989016 0.38816032
0.2881473 0.3696126 0.13830511 0.10751458 0.21860334 0.3493889 0.35710374 0.2101279
0.12668605 0.34091392 0.21783975 0.4348176 0.35501343 0.4459364 0.44466892 0.17614797
0.39630002 0.41932547 0.467257 0.13309713 0.45695734 0.296702 0.44541395 0.29202747
0.43267688 0.40830508 0.32991013 0.16981427 0.31170592 0.14543673 0.18509565 0.18494084
0.024535734 -0.017238127 0.1188918 -0.1273923 0.084956385 0.14760983 -0.18593742 -0.17515516
-0.096515 0.038798567 -0.09491789 0.106028296 -0.01469403 0.016476488 -0.09692641 -0.17547785
-0.10965068 -0.15956141 -0.09504992 0.03617034 -0.16061494 -0.033810396 0.12683669 -0.18859178
0.0034754481 -0.16500854 -0.037631854 0.14872211 -0.06271992 0.03198387 -0.104791984 0.0106992675
0.052910343 0.09522653 -0.13259874 0.09599646 -0.14217936 -0.06943753 0.032676246 -0.081307605
0.15540077 0.011906439 -0.15805608 -0.13870783 -0.14872658 -0.08460645 -0.02463745 -0.03569941
-0.04764524 0.1291907 -0.13598292 0.008912343 0.15436424 0.121585496 -0.114665344 -0.11299998
-0.115577035 0.1961409 0.22108662 -0.06543372 -0.11836977 -0.21331832 -0.19650319 -0.18554908
0.08695243 -0.20366949 -0.23048444 -0.22290036 -0.078789026 -0.09516241 -0.07851072 0.0536647
-0.025552696 -0.16633698 -0.100899935 0.13773412 0.0019423479 0.039474517 -0.16959067 -0.010265767
0.006852247 -0.03511113 -0.14580648 -0.08187757 -0.12020965 -0.086147495 0.08320627 0.004699764
0.09466143 0.08805148 0.1444411 0.34073958 0.1607595 0.20358032 0.4026655 0.36056414
0.12650353 0.13864449 0.18731412 0.061079923 0.32195523 0.23426078 0.42279074 0.19939862
0.360779 0.37206808 0.23452504 0.08472859 0.3964207 0.21298325 0.39168254 0.20991999
0.32002583 0.4256624 0.34276006 0.22415853 0.33297345 0.41345394 0.25287446 0.40096688
0.189457 0.31403255 0.22942984 0.2359655 0.208521 0.1935563 0.25412676 0.20706925
0.26412478 0.35436887 0.4174317 0.4043639 0.19941007 0.3868763 0.3236903 0.15437964
00000000: 2461 55bd 51cc 33be 380d bb3d 00df 7ebb
00000010: 709d bfbc ac4c 193e ced4 383e a541 90bd
00000020: dc50 1a3e fd77 2abe 20f5 aa3d 075c 2cbe
00000030: 296c c1bd 009e bab9 7055 b2bc 1c56 4ebd
00000040: bb76 89bd 9040 7e3d d8f1 e03d ca3b efbd
00000050: bdea 20be a133 203e 108f c93c 05db 47be
00000060: b00c 08bd 0772 143e 8bd6 27be fb20 d83d
00000070: e975 0e3d ca05 38be 41bb 583e a89e 213e
00000080: 4b2d 543e 12aa a13e e696 073e 3f21 df3e
00000090: 802e 613e b7e8 933d 5b57 bd3e 641b a53e
000000a0: 10d2 d13e 3062 e03e 3978 a23e dfb2 693e
000000b0: 80e6 a83e 626a 0c3e 4851 9d3e e44b 8c3e
000000c0: 3873 903e fd2d e73e b299 d93e e440 263e
000000d0: 9729 533e cd5e af3e ce41 9d3e 58f4 cd3e
000000e0: 7d59 a03e 3663 e03e 6f16 ab3e 620e 1d3e
000000f0: 7887 483e 0a61 0b3e ff8a 713d aa2a 9b3e
00000100: b150 ef3d 9054 003a a6b2 853e c925 d73d
00000110: 0d5a f03d 2695 9f3e b927 b93d 0374 233e
00000120: 06f4 703e 4567 9a3e 1ec2 943e c01f c13e
00000130: a9e9 a53d 227e b73d b825 573e 0050 8c3d
00000140: c993 3b3e 5c1f 693d a7d5 3c3e b8fb e83d
00000150: 75c2 353e e7c5 9b3e a109 993e f3bc c63e
00000160: 0b88 933e dd3d bd3e db9f 0d3e 9b30 dc3d
00000170: 8ed9 5f3e 1ae3 b23e 4dd6 b63e c52b 573e
00000180: fdb9 013e 458c ae3e 6211 5f3e 6aa0 de3e
00000190: 52c4 b53e c751 e43e a5ab e33e 2260 343e
000001a0: d6e7 ca3e d4b1 d63e 4f3c ef3e 9d4a 083e
000001b0: 50f6 e93e 53e9 973e 4c0d e43e a084 953e
000001c0: d387 dd3e 5d0d d13e fbe9 a83e cbe3 2d3e
000001d0: eb97 9f3e 5eed 143e b789 3d3e 2261 3d3e
000001e0: 2aff c83c f936 8dbc 8b7d f33d 2173 02be
000001f0: 9dfd ad3d 0827 173e 6166 3ebe e05b 33be
00000200: a8a9 c5bd 3feb 1e3d 5064 c2bd 5d25 d93d
00000210: 3bbf 70bc b3f9 863c 5b81 c6bd 77b0 33be
00000220: 8990 e0bd 1164 23be 88a9 c2bd 5a27 143d
00000230: 3e78 24be c57c 0abd 7ae1 013e 341e 41be
00000240: 58c4 633b 00f8 28be dc23 1abd 9c4a 183e
00000250: 4d73 80bd 8501 033d 2e9d d6bd fb4b 2f3c
00000260: 84b8 583d 2106 c33d f7c7 07be cb99 c43d
00000270: 7797 11be 4435 8ebd 87d7 053d 9a84 a6bd
00000280: 6121 1f3e 3a13 433c 74d9 21be 6d09 0ebe
00000290: c84b 18be 2546 adbd 7ad4 c9bc 8b39 12bd
000002a0: a827 43bd 914a 043e 1b3f 0bbe 1305 123c
000002b0: a911 1e3e d101 f93d aad5 eabd 896c e7bd
000002c0: a7b3 ecbd 29d9 483e 8864 623e 1d02 86bd
000002d0: da6b f2bd 1e70 5abe 2238 49be 9400 3ebe
000002e0: 1e14 b23d bc8e 50be 1d04 6cbe fe3f 64be
000002f0: 245c a1bd 82e4 c2bd 3aca a0bd 84cf 5b3d
00000300: e353 d1bc 3e54 2abe a0a4 cebd 2c0a 0d3e
00000310: 6196 fe3a 08b0 213d 2da9 2dbe bf31 28bc
00000320: d088 e03b b0d0 0fbd 4b4e 15be 6daf a7bd
00000330: 7a30 f6bd 196e b0bd 0d68 aa3d 7a00 9a3b
00000340: dadd c13d 5654 b43d 5ee8 133e 6b75 ae3e
00000350: 239e 243e 5c77 503e 2c2a ce3e dd9b b83e
00000360: 248a 013e d2f8 0d3e 46cf 3f3e f12e 7a3d
00000370: 51d7 a43e 0fe2 6f3e 0778 d83e 272f 4c3e
00000380: 06b8 b83e b57f be3e 5527 703e 2f86 ad3d
00000390: a7f7 ca3e 4818 5a3e 9d8a c83e 44f5 563e
000003a0: 6dda a33e 6cf0 d93e 3f7e af3e d089 653e
000003b0: 7f7b aa3e 3cb0 d33e c378 813e 884b cd3e
000003c0: 0401 423e e0c8 a03e a8ef 6a3e f1a0 713e
000003d0: 8786 553e 9f33 463e e71c 823e f609 543e
000003e0: 5d3b 873e d66f b53e 9cb9 d53e c908 cf3e
000003f0: 2732 4c3e a714 c63e bcba a53e b215 1e3e

layers.0.bias f4 [64]
-0.15743487 -0.039827563 0.099606805 0.009337147 -0.11404499 0.123340555 0.22042213 0.05928217
0.2622948 0.051938545 0.075057894 -0.15676412 0.08389711 -0.011716578 -0.04893657 -0.030104745
0.038433384 0.15062325 0.078821264 0.077332996 0.047299907 -0.063023046 0.018484946 -0.012112209
0.02152451 0.11137411 0.21254674 -0.10497419 -0.037869614 -0.11742529 -0.24260025 -0.10955908
-0.03392071 -0.112606846 -0.060672704 0.02938478 0.23877783 0.14398037 0.1283352 -0.22452337
0.007668567 0.05742486 0.11017158 0.045260783 -0.21138729 -0.012870421 0.025428131 -0.15056688
-0.020152247 -0.1441133 0.18431915 0.15744801 -0.09994887 0.023338174 0.15357813 0.13804126
0.21728551 -0.010666389 -0.0024981836 -0.10449847 0.012140632 -0.011488501 -0.04054061 -0.010822357
00000000: 9b36 21be 3a22 23bd a7fe cb3d d5fa 183c
00000010: 6b90 e9bd f999 fc3d 57b6 613e dcd1 723d
00000020: 814b 863e 83bd 543d f4b7 993d c686 20be
00000030: 3fd2 ab3d e4f6 3fbc b671 48bd 3a9e f6bc
00000040: 536c 1d3d fb3c 1a3e 0b6d a13d c360 9e3d
00000050: 8cbd 413d 3a12 81bd be6d 973c 4972 46bc
00000060: 2b54 b03c 1c18 e43d daa5 593e b5fc d6bd
00000070: 2b1d 1bbd ac7c f0bd 336c 78be 8360 e0bd
00000080: 71f0 0abd 6b9e e6bd f183 78bd 5ab8 f03c
00000090: 2d82 743e 976f 133e 4d6a 033e 74e9 65be
000000a0: 9a48 fb3b 5436 6b3d a3a1 e13d 5f63 393d
000000b0: e975 58be 75de 52bc a84e d03c 342e 1abe
000000c0: 5316 a5bc 7092 13be 29be 3c3e 0d3a 213e
000000d0: feb1 ccbd b32f bf3c 9643 1d3e b05a 0d3e
000000e0: 1880 5e3e 14c2 2ebc 91b8 23bb 4b03 d6bd
000000f0: 80e9 463c 443a 3cbc e90d 26bd 4150 31bc

layers.2.weight f4 [64, 64]
0.10136998 -0.031577177 -0.025911257 0.02364967 0.02810195 -0.07916957 -0.103358224 -0.002325624
-0.10363802 0.067067854 -0.11573115 0.03667277 -0.10129768 0.023909803 0.10360654 -0.087217495
-0.07257171 0.00088455755 -0.11239973 0.023502296 0.06884268 0.09781654 0.12186201 0.11044154
0.012185845 -0.00016535819 0.0074270344 -0.014806736 0.10167858 0.056161366 -0.049933515 0.05747682
0.11177605 -0.09247352 0.05523102 0.10034576 -0.12360126 0.09096317 -0.06585066 0.07010435
0.0077148327 0.076575086 -0.07063252 0.08905376 0.090985425 0.005660489 -0.11187149 0.11920704
-0.0324644 0.060520723 -0.102877766 -0.016092911 -0.09951604 -0.0268959 0.09610569 0.03905593
-0.13340187 -0.11422974 0.090065256 -0.072986364 -0.02537331 -0.07499078 0.08481816 0.10202066
-0.020514058 0.4146844 0.31462047 0.26194742 0.0650242 0.005924993 -0.08066768 0.1994349
0.38464934 0.20338765 0.3722015 -0.05880821 -0.0015247869 0.23299311 0.121157385 0.22515668
0.24854632 0.2417031 -0.10024709 0.35935435 0.170432 -0.044408508 0.2131808 0.30344978
0.33926117 0.41575763 0.2110005 0.4140695 0.4192454 0.030291382 0.12599619 0.02376541
0.21190715 0.14355955 0.10926016 0.3167973 0.21146068 0.061204392 0.4337275 0.10131156
0.2099029 0.42265671 0.3683058 0.018515361 0.18278529 0.39860272 0.030029848 0.065344274
-0.18332802 0.119762585 0.43945563 0.043679774 0.34942317 0.42475528 0.0717167 0.25094712
0.33155677 -3.363016e-05 0.10123893 0.34712273 0.005799517 0.34282136 0.26883176 0.27869552
0.05309007 -0.12947172 -0.009701377 -0.1471029 0.030990154 0.087402925 -0.08950533 -0.15112785
-0.04545728 0.089956746 -0.014537989 0.10655278 0.02421625 -0.044139005 -0.12657593 -0.10942732
0.07297419 0.07190548 0.016017646 0.09554034 -0.07279826 0.04594247 -0.027290778 0.04596117
0.0874673 -0.10268131 0.027308963 -0.11099086 -0.014958303 0.07530944 -0.06689802 0.001159355
0.07312615 0.046072435 0.11802623 -0.018548701 -0.13575327 -0.04874237 0.094264194 -0.0552409
-0.10341719 -0.10137719 -0.016190726 -0.10436913 0.09726679 0.0021895496 0.057476938 -0.068555474
0.13203467 -0.0650187 0.08897603 0.050592616 -0.04039026 -0.050890822 -0.095395975 0.0525953
-0.11167825 -0.026100248 0.06735005 -0.10582407 0.05548133 -0.12637341 -0.10744227 -0.033790156
0.064616404 0.35110927 0.18411283 0.36213574 0.0032635469 0.029996254 -0.19032827 0.26286322
0.364514 0.16763806 0.21292676 0.11514381 -0.06538565 0.23546678 -0.028745161 0.34608448
0.15720022 0.31633618 0.07571554 0.22081341 0.01376967 -0.19138968 0.15266398 0.35346577
0.1919092 0.16240783 0.33382463 0.293673 0.38095328 -0.02277042 -0.09468112 -0.069242045
-0.033382975 0.07879633 0.07290291 0.30987176 0.30511066 0.07408403 0.21564198 0.14605542
0.3563581 0.3941711 0.31674194 0.014983926 0.26629043 0.2848463 -0.08548991 0.04963197
-0.091888785 -0.06329948 0.36822337 -0.09859876 0.17868266 0.22242834 -0.06549054 0.072296545
0.2675721 -0.07811198 -0.0076203626 0.19661576 -0.08350043 0.19662666 0.15668693 0.18907356
00000000: 109b cf3d 1257 01bd d843 d4bc f4bc c13c
00000010: 1036 e63c a823 a2bd 7aad d3bd 7f69 18bb
00000020: 2c40 d4bd df5a 893d 7404 edbd 3036 163d
00000030: 2875 cfbd 7ede c33c aa2f d43d 169f b2bd
00000040: 7aa0 94bd a7e1 673a d431 e6bd e387 c03c
00000050: 64fd 8c3d 0a54 c83d ca92 f93d 2d2f e23d
00000060: 23a7 473c 0064 2db9 7b5e f33b f497 72bc
00000070: dc3c d03d 7609 663d 1687 4cbd d06c 6b3d
00000080: d7ea e43d c262 bdbd ec39 623d 1482 cd3d
00000090: a822 fdbd e64a ba3d b6dc 86bd df92 8f3d
000000a0: b5cc fc3b 66d3 9c3d c8a7 90bd d161 b63d
000000b0: 9156 ba3d a07b b93b e11c e5bd d222 f43d
000000c0: 64f9 04bd 94e4 773d 94b1 d2bd 48d5 83bc
000000d0: 11cf cbbd ca54 dcbc 0fd3 c43d 1cf9 1f3d
000000e0: 809a 08be 48f1 e9bd 2274 b83d e079 95bd
000000f0: b0db cfbc c494 99bd 25b5 ad3d 35f0 d03d
00000100: 190d a8bc 8451 d43e ef15 a13e f91d 863e
00000110: 682b 853d 7226 c23b 1935 a5bd aa38 4c3e
00000120: c2f0 c43e da44 503e 3291 be3e e1e0 70bd
00000130: 5cdb c7ba bf95 6e3e 5d21 f83d 798f 663e
00000140: ed82 7e3e 0481 773e 594e cdbd 4bfd b73e
00000150: ba85 2e3e b2e5 35bd 114c 5a3e c55d 9b3e
00000160: a4b3 ad3e 2fde d43e 8410 583e eb00 d43e
00000170: 55a7 d63e a225 f83c 2505 013e adaf c23c
00000180: 30fe 583e 4601 133e cac3 df3d 4133 a23e
00000190: 2689 583e 75b1 7a3d 8811 de3e 6f7c cf3d
000001a0: c9f0 563e 7666 d83e 9492 bc3e 87ad 973c
000001b0: 112c 3b3e a815 cc3e 2801 f63c 38d3 853d
000001c0: 57ba 3bbe 1646 f53d 5400 e13e 90e9 323d
000001d0: 98e7 b23e 8679 d93e 35e0 923d 247c 803e
000001e0: cfc1 a93e 1c0e 0db8 5b56 cf3d 12ba b13e
000001f0: e009 be3b 4886 af3e 51a4 893e 2eb1 8e3e
00000200: f974 593d 3c94 04be 86f2 1ebc 25a2 16be
00000210: 10df fd3c 4e00 b33d 924e b7bd 42c1 1abe
00000220: 6a31 3abd 3e3b b83d bf30 6ebc 5838 da3d
00000230: 2861 c63c 1acb 34bd 1f9d 01be 6e1b e0bd
00000240: 7e73 953d 2e43 933d 7037 833c a7aa c33d
00000250: 4117 95bd 2c2e 3c3d e990 dfbc c841 3c3d
00000260: 0e22 b33d 944a d2bd 0cb7 df3c 2d4f e3bd
00000270: ac13 75bc d63b 9a3d d401 89bd 80f5 973a
00000280: 2ac3 953d 73b6 3c3d bcb7 f13d 72f3 97bc
00000290: e802 0bbe 14a6 47bd 960d c13d 4844 62bd
000002a0: 64cc d3bd d89e cfbd 6aa2 84bc 7cbf d5bd
000002b0: d033 c73d 8c7e 0f3b f06c 6b3d d066 8cbd
000002c0: 1934 073e 8628 85bd 1139 b63d 343a 4f3d
000002d0: 4270 25bd e572 50bd f75e c3bd 2b6e 573d
000002e0: 91b7 e4bd 30d0 d5bc d3ee 893d 4aba d8bd
000002f0: 6440 633d 0868 01be b10a dcbd 8c67 0abd
00000300: 9b55 843d 98c4 b33e 1388 3c3e db69 b93e
00000310: 3be1 553b b4ba f53c 6ae5 42be 0296 863e
00000320: 94a1 ba3e 50a9 2b3e 7909 5a3e 85d0 eb3d
00000330: e9e8 85bd 341e 713e f97a ebbc fc31 b13e
00000340: 18f9 203e d1f6 a13e c010 9b3d e91c 623e
00000350: 2f9a 613c a8fb 43be f253 1c3e 77f9 b43e
00000360: d883 443e 3d4e 263e 10eb aa3e 4f5c 963e
00000370: 4f0c c33e 0889 babc 2de8 c1bd c6ce 8dbd
00000380: 96bc 08bd f85f a13d 1f4e 953d 83a7 9e3e
00000390: 7737 9c3e 5eb9 973d 40d1 5c3e 8d8f 153e
000003a0: 9274 b63e cbd0 c93e 002c a23e 247f 753c
000003b0: 3857 883e 60d7 913e 5515 afbd e44a 4b3d
000003c0: 3030 bcbd 28a3 81bd c687 bc3e 26ee c9bd
000003d0: 96f8 363e 41c4 633e e71f 86bd 3610 943d
000003e0: 36ff 883e 2cf9 9fbd 3cb4 f9bb a455 493e
000003f0: 4602 abbd 8058 493e 8a72 203e 809c 413e

layers.2.bias f4 [64]
-0.12962875 0.20054097 -0.08458195 0.07972172 -0.010345668 0.048235476 0.18306433 0.2767348
0.11129383 0.11743596 0.08936304 -0.051330887 0.22591044 -0.0151402205 0.10429168 -0.039483324
0.059187707 0.03902082 0.01096687 -0.09884314 0.25833303 0.0707047 0.04777929 0.036142677
0.12766428 0.2895616 0.103246294 0.1285708 0.15510775 0.24853371 -0.075899296 -0.09905055
-0.041722313 0.12450479 -0.024738135 0.25803506 -0.03152639 0.2702476 0.2672583 -0.08770729
-0.020719731 0.22292076 -0.11088445 -0.109821275 0.12412085 0.101773955 0.20376977 -0.09581905
-0.10815276 0.04162466 0.09248806 0.08685568 0.07443415 -0.08699198 0.19482647 0.035893444
0.096411064 0.1568234 0.083609246 -0.11475591 0.21366677 0.14874086 0.28845447 0.0048607946
00000000: 66bd 04be 9d5a 4d3e 4d39 adbd 2445 a33d
00000010: e080 29bc 9092 453d 3775 3b3e 2fb0 8d3e
00000020: 05ee e33d 4482 f03d f803 b73d 5640 52bd
00000030: 1155 673e b00e 78bc e096 d53d 44b9 21bd
00000040: cf6e 723d 4cd4 1f3d 63ae 333c 466e cabd
00000050: 3a44 843e a0cd 903d 37b4 433d 580a 143d
00000060: 6dba 023e 6b41 943e cb72 d33d 10a8 033e
00000070: 91d4 1e3e 9f7f 7e3e 1771 9bbd 04db cabd
00000080: 04e5 2abd 5efc fe3d a1a7 cabc 2c1d 843e
00000090: d121 01bd e55d 8a3e 14d6 883e e19f b3bd
000000a0: 6dbc a9bc 5745 643e 6317 e3bd fae9 e0bd
000000b0: 1233 fe3d dd6e d03d 06a9 503e c73c c4bd
000000c0: 327f ddbd 9f7e 2a3d 616a bd3d 64e1 b13d
000000d0: ee70 983d da28 b2bd 9780 473e 0105 133d
000000e0: 2a73 c53d 5096 203e 533b ab3d 2605 ebbd
000000f0: 76cb 5a3e 864f 183e 4eb0 933e 4d47 9f3b

layers.4.weight f4 [3, 64]
-0.0062713167 0.096908554 0.10573234 0.115468614 0.042386875 -0.012542754 0.103222206 0.09203091
0.022726849 0.11696286 -0.02046457 0.10488457 0.047520082 0.078635156 -0.102272555 -0.11649202
0.042967267 0.069158226 0.097011484 0.048828572 0.011664108 0.07687286 -0.09043899 -0.010811448
0.114975624 0.064418055 0.018605249 -0.005645134 0.040621772 0.0209124 -0.09191776 -0.12642312
-0.09924421 0.118076906 0.043639477 -0.012709119 -0.0757607 0.03321401 0.09305234 0.09557445
0.0731324 -0.0045761997 -0.104318514 -0.057496294 0.012685624 -0.035436776 0.18552026 -0.11131218
-0.099509396 0.08390921 0.05883484 0.060202286 -0.035987243 -0.059632584 0.13165557 -0.027771482
-0.030642346 0.09513391 0.03478729 -0.014489427 0.051176466 0.05242941 0.011375158 0.020101145
-0.05352022 0.42840207 -0.059547514 0.2704735 -0.092256725 0.00626722 -0.04203047 0.34023926
-0.085045844 0.24925092 -0.10343638 -0.001474531 0.2143697 0.04040061 -0.06262635 -0.01794754
0.124023706 -0.05073291 0.0020587186 0.10141967 0.30626303 0.24859866 0.018787604 0.11551486
0.40703958 0.31199464 0.1991255 0.40120307 0.17871977 0.24158673 0.08938936 0.106889024
-0.07677764 0.101654395 0.032191526 0.19215445 -0.11181292 0.2504621 0.38102424 -0.06721059
-0.025377588 0.22326988 -0.071641564 -0.005041543 0.40509385 0.06698404 0.25897905 0.14800963
-0.093911126 0.0054051415 0.0013891547 0.011634439 0.088367745 -0.08479117 0.36706617 0.06182098
0.03182383 0.35307926 0.24018066 0.053194493 0.3544948 0.38630956 0.29503435 0.09303311
0.0057803527 0.052816287 -0.015258238 0.14017251 0.04962814 0.07154833 0.04895641 0.11924682
0.048849583 0.12454511 -0.09331161 0.09838835 0.10493006 -0.09107041 0.072153986 0.12378077
0.060034186 -0.11037789 -0.007852716 0.113184184 0.15412177 0.09813173 -0.04100855 -0.005867362
0.20594609 0.1229718 0.075564444 0.06539661 0.12746596 0.06881266 0.08481118 -0.0061071697
0.09937564 0.09917651 0.21200375 0.116809174 0.07855506 0.14078332 0.06996591 0.028495908
-0.020544924 0.14103046 -0.08839984 0.10364189 0.07413464 -0.0034224975 0.08086823 0.07890666
0.02622123 0.076894835 -0.0555182 0.022919029 -0.08847202 0.08442317 0.031448346 0.05020685
0.007849395 0.099069275 0.052749056 -0.037046507 0.053289928 0.059280887 0.078124866 -0.009450063
00000000: 9e7f cdbb fe77 c63d 328a d83d cf7a ec3d
00000010: dc9d 2d3d 2080 4dbc 2a66 d33d b47a bc3d
00000020: a82d ba3c 398a ef3d 50a5 a7bc b9cd d63d
00000030: 6ba4 423d 780b a13d 4674 d1bd 5e93 eebd
00000040: 72fe 2f3d d4a2 8d3d f5ad c63d 7800 483d
00000050: d11a 3f3c 856f 9d3d 1438 b9bd 8022 31bc
00000060: 5778 eb3d 9ded 833d 096a 983c d1fa b8bb
00000070: 0463 263d 7b50 ab3c 613f bcbd 1075 01be
00000080: 8c40 cbbd 4ed2 f13d 4fbf 323d e939 50bc
00000090: 6d28 9bbd 6a0b 083d 3a92 be3d 8abc c33d
000000a0: 71c6 953d f2f3 95bb f2a4 d5bd 3c81 6bbd
000000b0: 5dd7 4f3c 2726 11bd 06f9 3d3e a4f7 e3bd
000000c0: 95cb cbbd 98d8 ab3d cdfc 703d ac96 763d
000000d0: 5c67 13bd 4c41 74bd b8d0 063e 0581 e3bc
000000e0: a805 fbbc 91d5 c23d 1e7d 0e3d 1065 6dbc
000000f0: 6a9e 513d 39c0 563d df5e 3a3c 28ab a43c
00000100: 0538 5bbd 8457 db3e 18e8 73bd 817b 8a3e
00000110: 18f1 bcbd 405d cd3b 2428 2cbd d733 ae3e
00000120: 842c aebd a23b 7f3e 74d6 d3bd 0d45 c1ba
00000130: bb83 5b3e 1c7b 253d 3e42 80bd b806 93bc
00000140: 2400 fe3d 50cd 4fbd 91eb 063b 1eb5 cf3d
00000150: 82ce 9c3e a690 7e3e 76e8 993c 0e93 ec3d
00000160: 7e67 d03e c3bd 9f3e 8ee7 4b3e 7d6a cd3e
00000170: 5102 373e 8362 773e c511 b73d a2e8 da3d
00000180: 983d 9dbd 2e30 d03d 43db 033d 23c4 443e
00000190: 2cfe e4bd 923c 803e 9c15 c33e b5a5 89bd
000001a0: a9e4 cfbc dca0 643e d0b8 92bd 8733 a5bb
000001b0: 7668 cf3e ee2e 893d e798 843e d68f 173e
000001c0: 7a54 c0bd 9d1d b13b 4c14 b63a 609e 3e3c
000001d0: 26fa b43d fea6 adbd 19f0 bb3e ff37 7d3d
000001e0: b459 023d cec6 b43e ebf1 753e 78e2 593d
000001f0: 5880 b53e 5eca c53e be0e 973e 2588 be3d
00000200: 1d69 bd3b e455 583d b0fd 79bc 6289 0f3e
00000210: e046 4b3d ee87 923d 8486 483d ad37 f43d
00000220: 8016 483d 8211 ff3d 281a bfbd d57f c93d
00000230: 92e5 d63d 2083 babd 78c5 933d c680 fd3d
00000240: 68e6 753d ce0d e2bd aea8 00bc 1ccd e73d
00000250: 19d2 1d3e 4af9 c83d 95f8 27bd 0043 c0bb
00000260: 88e3 523e a4d8 fb3d 88c1 9a3d a8ee 853d
00000270: 7086 023e a7ed 8c3d 7cb1 ad3d a71e c8bb
00000280: 7585 cb3d 0e1d cb3d 8317 593e a639 ef3d
00000290: 7ae1 a03d 8129 103e 494a 8f3d 4070 e93c
000002a0: d44d a8bc 4a6a 103e fa0a b5bd 3342 d43d
000002b0: e7d3 973d fb4b 60bb 3e9e a53d d199 a13d
000002c0: e8cd d63c 0a7b 9d3d 0d67 63bd b0c0 bb3c
000002d0: d230 b5bd 0ee6 ac3d fbcf 003d b3a5 4d3d
000002e0: c09a 003c d5e4 ca3d 650f 583d 14be 17bd
000002f0: 8a46 5a3d 84d0 723d eeff 9f3d 70d4 1abc

layers.4.bias f4 [3]
-0.035649356 0.30614498 0.12559454
00000000: 0f05 12bd 09bf 9c3e db9b 003e
