weights/trained_agent_model_ETH-USD.pth (torch, 28304 bytes, 6 tensors)

layers.0.weight f4 [64, 30]
0.755627 0.744405 0.8325809 0.71215844 0.5576706 0.58451426 0.6222153 0.5772913
0.6540435 0.52594334 0.6715948 0.6304545 0.39236882 0.6452493 0.4059901 0.32526594
0.35837743 0.47678867 0.6037103 0.5510258 0.5916627 0.3724215 0.5696959 0.41970336
0.6340879 0.5598964 0.4622719 0.5133829 0.5344005 0.3863534 0.11924161 -0.21191181
-0.014337023 -0.1627647 -0.054421403 -0.07854848 -0.21073642 0.007888444 0.05624207 -0.04933222
0.047887802 0.06923515 0.035122804 -0.14348637 -0.11848332 -0.018693041 0.13841413 -0.15379475
0.14024612 -0.18762933 0.13414139 -0.19027081 0.06499892 0.14582509 0.0066370144 -0.14743105
0.12881121 -0.064287774 -0.13963518 -0.12625484 0.8484891 0.8909351 0.83060145 0.74575955
0.57213736 0.69532305 0.56825554 0.5047551 0.45424712 0.65789634 0.6379069 0.6779525
0.5350794 0.50613934 0.62181467 0.33017054 0.41964123 0.62151545 0.3894386 0.34381616
0.4238661 0.5139469 0.39217806 0.46361068 0.37379295 0.620996 0.46772325 0.40051746
0.53426594 0.48905048 0.09822746 0.08669822 0.12124033 -0.18111074 0.09374986 0.0911422
-0.14420442 -0.09017154 -0.12454124 0.14796522 -0.13553712 0.072456986 -0.08527841 0.14656134
-0.093731865 -0.14873905 -0.15266769 0.1203756 -0.11964479 -0.12745571 -0.034968 0.10769175
0.04614788 0.056125823 0.16919357 -0.03728528 -0.08403248 -0.16500227 0.03350327 0.062039018
0.12086911 -0.11763513 -0.005309307 0.012436235 -0.1063213 -0.14091653 0.1495977 -0.16731572
-0.09013697 -0.055930533 -0.081998445 -0.079561815 0.0796571 -0.09546719 0.020114025 -0.012237047
0.013316568 -0.130424 -0.13197611 0.13041422 0.10609069 -0.10791375 -0.11756685 0.100574516
-0.04051024 -0.12083011 0.06854608 0.11375945 -0.10951329 -0.14414951 -0.16186683 0.09514146
-0.13252112 0.015255375 0.07192625 -0.1123704 -0.1530184 -0.12078422 0.07060695 0.11741999
-0.1642998 0.12557183 0.06471753 0.081234924 -0.093074895 -0.027673198 0.02601093 0.105074905
0.14403647 0.07307387 -0.13133872 -0.089977995 -0.12618278 -0.13040896 0.096154444 0.020311147
0.11853838 -0.11029689 -0.059052177 -0.17966585 0.94053304 0.952356 0.74459195 0.7206755
0.82701486 0.78413635 0.7402088 0.5368435 0.6616564 0.53377426 0.37690082 0.5291143
0.57285017 0.5386848 0.5703952 0.33892375 0.6108991 0.32887524 0.6249953 0.34750906
0.5699237 0.5335533 0.41499582 0.66393054 0.55791426 0.6001405 0.41520268 0.34374177
0.6182098 0.39564782 0.18134844 -0.057271447 -0.14696957 0.12671974 0.14408444 0.17876491
-0.0809963 -0.15998293 -0.120738015 0.13476075 0.0017475619 0.13828258 -0.13177137 -0.1447051
-0.14931029 -0.01769531 -0.13460527 0.15778936 -0.101730525 0.12064667 0.0076580923 -0.16140501
-0.08821492 -0.13853133 -0.053730313 0.16096899 -0.111990064 -0.044938657 -0.18121637 -0.0743086
-0.16173159 -0.17753151 -0.121974185 -0.14582235 0.10991667 0.10270953 0.0062478404 -0.007624449
-0.087928325 0.066986576 -0.08937564 -0.105579436 -0.10373635 0.1464558 -0.18629283 0.13975562
00000000: c570 413f 5391 3e3f 0624 553f 0450 363f
00000010: 80c3 0e3f baa2 153f 8049 1f3f 5dc9 133f
00000020: 656f 273f 39a4 063f a3ed 2b3f 7765 213f
00000030: 91e4 c83e 0f2f 253f efdd cf3e 4289 a63e
00000040: 3f7d b73e a51d f43e c28c 1a3f 0710 0d3f
00000050: 3577 173f 08ae be3e 97d7 113f 5ce3 d63e
00000060: 9653 223f 5f55 0f3f e7ae ec3e 106d 033f
00000070: 79ce 083f 1dd0 c53e f234 f43d 69ff 58be
00000080: d5e5 6abc caab 26be fae8 5ebd 07de a0bd
00000090: 4acb 57be 883e 013c 165e 663d 9510 4abd
000000a0: 0026 443d 29cb 8d3d eedc 0f3d 17ee 12be
000000b0: 62a7 f2bd 2622 99bc 6fbc 0d3e 5f7c 1dbe
000000c0: ae9c 0f3e e721 40be 5c5c 093e 5ad6 42be
000000d0: 271e 853d 2c53 153e 507b d93b 2af8 16be
000000e0: 16e7 033e 4fa9 83bd 86fc 0ebe f348 01be
000000f0: 9536 593f 5314 643f 4ca2 543f 19ea 3e3f
00000100: 9877 123f b100 323f 3279 113f a137 013f
00000110: 1493 e83e e56b 283f de4d 233f 4c8e 2d3f
00000120: f7fa 083f 5992 013f 3f2f 1f3f 1d0c a93e
00000130: 37db d63e a31b 1f3f 7f64 c73e ac08 b03e
00000140: fa04 d93e 0692 033f 90cb c83e 615e ed3e
00000150: ca61 bf3e 98f9 1e3f 6c79 ef3e a010 cd3e
00000160: a7c5 083f d364 fa3e 7b2b c93d d68e b13d
00000170: da4c f83d 1875 39be edff bf3d c3a8 ba3d
00000180: 53aa 13be dbab b8bd 7a0f ffbd 3284 173e
00000190: 3eca 0abe 5464 943d 72a6 aebd 2d14 163e
000001a0: 7ef6 bfbd 0d4f 18be eb54 1cbe 7c87 f63d
000001b0: 5408 f5bd c083 02be 9b3a 0fbd 7e8d dc3d
000001c0: 8f05 3d3d 31e4 653d 1441 2d3e 73b8 18bd
000001d0: 3919 acbd 5bf6 28be ba3a 093d a01c 7e3d
000001e0: 398a f73d b0ea f0bd b2f9 adbb 5ac1 4b3c
000001f0: fbbe d9bd 6c4c 10be 2430 193e d054 2bbe
00000200: bb99 b8bd 6a17 65bd cdee a7bd 4ef1 a2bd
00000210: 4323 a33d 4d84 c3bd 2bc6 a43c e57d 48bc
00000220: bc2d 5a3c de8d 05be bf24 07be 4e8b 053e
00000230: 1346 d93d e201 ddbd e3c6 f0bd 03fa cd3d
00000240: 11ee 25bd c775 f7bd e361 8c3d b7fa e83d
00000250: 8148 e0bd ee9b 13be 6bc0 25be 87d9 c23d
00000260: 9eb3 07be aef1 793c 124e 933d 7422 e6bd
00000270: dbb0 1cbe b85d f7bd 609a 903d e479 f03d
00000280: 353e 28be e795 003e a08a 843d 7f5e a63d
00000290: 0d9e bebd e7b2 e2bc e014 d53c 8331 d73d
000002a0: 4c7e 133e c1a7 953d a87d 06be 6246 b8bd
000002b0: 0f36 01be ed89 05be 9fec c43d 9063 a63c
000002c0: 40c4 f23d 56e3 e1bd b2e0 71bd 53fa 37be
000002d0: c6c6 703f 9acd 733f 949d 3e3f 317e 383f
000002e0: 3fb7 533f 29bd 483f 537e 3d3f 936e 093f
000002f0: 5062 293f 6ea5 083f 25f9 c03e 0974 073f
00000300: 4fa6 123f 3fe7 093f 6b05 123f 6a87 ad3e
00000310: e263 1c3f 5662 a83e b1ff 1f3f b5ec b13e
00000320: 85e6 113f f396 083f 557a d43e 5af7 293f
00000330: 78d3 0e3f cfa2 193f 7295 d43e ecfe af3e
00000340: ff42 1e3f 5a92 ca3e 68b3 393e 7795 6abd
00000350: 317f 16be d2c2 013e df8a 133e 260e 373e
00000360: 63e1 a5bd 91d2 23be 7e45 f7bd b9fe 093e
00000370: 720e e53a f399 0d3e 13ef 06be 932d 14be
00000380: cce4 18be c1f5 90bc f7d5 09be 8993 213e
00000390: 1858 d0bd 9a15 f73d bcf0 fa3b 5b47 25be
000003a0: 06aa b4bd 28db 0dbe 5114 5cbd 0ed5 243e
000003b0: 0c5b e5bd 9911 38bd c990 39be 1b2f 98bd
000003c0: f79c 25be d2ca 35be 9acd f9bd 7452 15be
000003d0: fe1b e13d 6059 d23d afba cc3b 84d6 f9bb
000003e0: c413 b4bd 4230 893d 930a b7bd 083a d8bd
000003f0: b973 d4bd 82f8 153e 8cc3 3ebe 191c 0f3e

layers.0.bias f4 [64]
-0.1665093 -0.036453255 -0.36691898 0.038504083 0.08558497 0.077953525 -0.39478225 0.14120273
0.14574128 0.09403055 0.10649492 -0.17738582 -0.08382508 -0.2650921 0.097671926 -0.23637563
0.071339116 0.11028392 -0.03607033 0.07059249 -0.16629203 -0.11611125 -0.0347257 0.029934756
-0.24420117 -0.16721779 -0.09327992 0.21580653 -0.06324844 0.036046438 -0.24991414 0.20461258
0.40954977 0.17730233 0.13845904 0.43979207 0.039076734 0.17673251 -0.22776054 -0.21572602
-0.2833186 0.10229318 -0.16078876 0.0413606 -0.29590762 -0.06514498 -0.19543485 0.10705184
0.06462462 0.36637864 -0.039262336 0.22504908 -0.39263943 0.14182799 0.29290834 0.14705467
0.14027677 0.18803827 -0.08313314 0.08877452 -0.043670543 -0.42371684 -0.36288127 0.09409349
00000000: 6a81 2abe 0250 15bd cedc bbbe 75b6 1d3d
00000010: 2c47 af3d 19a6 9f3d e620 cabe 7397 103e
00000020: 343d 153e 1793 c03d 021a da3d a1a4 35be
00000030: 7cac abbd 27ba 87be 3808 c83d 740c 72be
00000040: 3e1a 923d 89dc e13d 7bbe 13bd cc92 903d
00000050: 7548 2abe bccb edbd 893c 0ebd bc39 f53c
00000060: df0f 7abe 243b 2bbe 8b09 bfbd 63fc 5c3e
00000070: 6688 81bd 6ea5 133d 7ee9 7fbe f685 513e
00000080: 82b0 d13e be8e 353e 35c8 0d3e 6d2c e13e
00000090: ed0e 203d 5ef9 343e 0f3a 69be 48e7 5cbe
000000a0: 230f 91be 167f d13d cfa5 24be bc69 293d
000000b0: 3481 97be bb6a 85bd 1320 48be ff3d db3d
000000c0: ea59 843d fb95 bb3e 8bd1 20bd 4473 663e
000000d0: 0908 c9be 5b3b 113e 15f8 953e 8095 163e
000000e0: b7a4 0f3e 1b8d 403e b541 aabd 6acf b53d
000000f0: e2df 32bd 6af1 d8be 93cb b9be 16b4 c03d

layers.2.weight f4 [64, 64]
-0.07604116 0.008363113 0.07587458 -0.124826506 0.11256942 -0.029927835 0.017314672 -0.039969936
0.060465142 0.0071959198 -0.11093101 0.045437902 -0.10035677 -0.076999605 -0.059795484 -0.054120794
0.119500324 -0.08215679 -0.08609988 -0.059481397 0.049180493 -0.029091269 -0.0108425915 -0.018476322
-0.071095094 -0.0618345 -0.058053285 -0.07398571 -0.01806058 -0.061252117 -0.075342804 -0.06161198
0.033747524 0.11515948 -0.0027998686 0.020200327 -0.009308085 0.06205693 -0.097764716 -0.06969836
-0.10279979 0.109772295 0.04179439 -0.049961433 0.054823756 0.008865118 -0.039170593 -0.1222468
-0.012080327 -0.103817925 -0.07641603 0.079430014 0.036070004 -0.004288867 0.0018403977 0.044762
0.114966035 0.012986615 -0.06653403 -0.09874153 -0.01956679 0.079510465 0.113800064 0.11735822
0.0842258 0.003166467 0.03608772 0.105559185 0.081579566 -0.06892873 -0.051840395 -0.09060454
-0.11776151 0.06119564 -0.06259155 0.00080652535 0.02197799 0.10398246 -0.07764542 0.016005754
0.07268286 0.105173945 -0.11031489 -0.022612035 -0.061416253 -0.0777431 -0.03141199 -0.048733875
-0.039271995 -0.083438605 0.061001167 0.059273884 -0.04952815 -0.024222806 -0.037655175 0.12298547
-0.07897724 0.047078103 -0.020045266 -0.09011957 -0.109726176 -0.07414578 0.101995006 0.004513681
-0.091932476 -0.065764785 -0.032060593 0.106986284 -0.071336314 0.030738682 -0.06739552 -0.012638286
0.005101055 0.0785436 0.08938311 -0.1000282 0.12342802 0.028917938 -0.08423671 0.09790246
0.11187093 -0.0010965168 -0.0586908 0.0568669 -0.067257464 0.05377534 -0.07274185 -0.013947725
0.653322 -0.043006856 0.6107728 0.07015246 -0.012955683 0.08315264 0.5486381 0.045415133
-0.10073815 0.04637518 0.0443822 0.62971544 0.6606057 0.48104665 -0.13157848 0.46421164
-0.06230718 0.068953514 0.06360417 -0.015090679 0.57377636 -0.01055136 -0.03301995 0.041452028
0.44975507 0.54799163 0.082730465 -0.13580513 0.4792834 0.019909788 0.6569893 -0.02249028
-0.1650229 -0.057414502 0.122572705 -0.008137618 0.040509723 -0.030921772 0.6705621 0.5439656
0.61817545 -0.03522808 0.55703527 -0.13535182 0.5850909 0.075048044 0.51564324 0.04998204
-0.10397175 -0.13484001 0.0069829673 -0.042970058 0.5555841 0.00814861 -0.06954626 0.09664559
-0.092443496 -0.0025223978 0.5406044 0.029854389 0.5461452 0.6100842 0.6788641 0.03379273
0.0488599 -0.10083813 -0.11317507 0.095206074 0.022718951 0.027231157 -0.08530056 0.02440463
-0.066039786 -0.0740176 -0.12278806 -0.05980552 -0.119085915 0.08839328 0.075109944 0.023553152
-0.02729429 0.10293509 0.013508267 -0.05789429 0.051061027 -0.11844413 -0.017400235 -0.035023775
-0.0013938812 -0.08626226 -0.042955473 0.006557137 0.056305192 0.023335444 0.118084006 -0.0136927515
0.023042426 0.07078287 0.06825852 -0.073980466 0.10873765 0.095470995 0.020029144 -0.029170454
0.06849512 -0.08021122 -0.12581296 0.10792638 -0.0705646 -0.119606405 -0.12825722 0.08381052
-0.124087915 0.10629938 -0.019608691 -0.081433594 -0.016406452 0.058128342 0.024897158 0.10875359
0.069255516 -0.063760415 0.038793452 0.059432458 -0.013939746 0.094998874 -0.124480136 -0.09726745
00000000: 78bb 9bbd 7005 093c 2264 9b3d 0aa5 ffbd
00000010: cc8a e63d 382b f5bc 80d7 8d3c 84b7 23bd
00000020: 4caa 773d c0cb eb3b cc2f e3bd 181d 3a3d
00000030: da87 cdbd f8b1 9dbd 1cec 74bd c4ad 5dbd
00000040: 96bc f43d d241 a8bd 2255 b0bd c4a2 73bd
00000050: 7c71 493d d050 eebc 20a5 31bc a85b 97bc
00000060: 4e9a 91bd 2c46 7dbd 48c9 6dbd d285 97bd
00000070: c8f3 93bc 80e3 7abd 544d 9abd d85c 7cbd
00000080: d83a 0a3d bcd8 eb3d 007e 37bb 287b a53c
00000090: f080 18bc 682f 7e3d de38 c8bd 04be 8ebd
000000a0: b288 d2bd 4cd0 e03d 9830 2b3d 5ca4 4cbd
000000b0: e08e 603d 003f 113c 5871 20bd 885c fabd
000000c0: 90ec 45bc 7e9e d4bd 0280 9cbd 34ac a23d
000000d0: 24be 133d a089 8cbb 8039 f13a 5c58 373d
000000e0: 5073 eb3d d0c5 543c fe42 88bd 0039 cabd
000000f0: 884a a0bc 62d6 a23d 0210 e93d 8259 f03d
00000100: 947e ac3d 8084 4f3b b8d0 133d 6a2f d83d
00000110: 3013 a73d 822a 8dbd 9856 54bd e08e b9bd
00000120: f22c f1bd 48a8 7a3d 0030 80bd 006d 533a
00000130: 300b b43c c2f4 d43d 9004 9fbd 801e 833c
00000140: c0da 943d 7065 d73d c6ec e1bd e03c b9bc
00000150: 9c8f 7bbd c637 9fbd dca9 00bd 2c9d 47bd
00000160: acdb 20bd dce1 aabd 5cdc 793d 2cc9 723d
00000170: 08de 4abd e86e c6bc 503c 1abd cedf fb3d
00000180: d2be a1bd f8d4 403d f835 a4bc 9c90 b8bd
00000190: 1eb8 e0bd bed9 97bd c2e2 d03d 80e7 933b
000001a0: 1847 bcbd b0af 86bd f851 03bd a01b db3d
000001b0: c618 92bd b0cf fb3c aa06 8abd d010 4fbc
000001c0: c026 a73b 78db a03d 7e0e b73d 96db ccbd
000001d0: d4c7 fc3d 50e5 ec3c 4c84 acbd 1681 c83d
000001e0: 961c e53d 00b9 8fba c465 70bd 44ed 683d
000001f0: 48be 89bd 8843 5c3d aef9 94bd 0085 64bc
00000200: 1c40 273f f527 30bd 9b5b 1c3f 18ac 8f3d
00000210: 1344 54bc ee4b aa3d 8c73 0c3f 3805 3a3d
00000220: ce4f cebd e7f3 3d3d 1cca 353d 0835 213f
00000230: 751d 293f bf4b f63e 82bc 06be 26ad ed3e
00000240: d035 7fbd 8037 8d3d e742 823d e53e 77bc
00000250: 02e3 123f 9ddf 2cbc ed3f 07bd 9ac9 293d
00000260: 4c46 e63e 2e49 0c3f 976e a93d 8010 0bbe
00000270: a264 f53e da19 a33c 7330 283f 893d b8bc
00000280: c3fb 28be 782b 6bbd 6607 fb3d a553 05bc
00000290: 86ed 253d a84f fdbc f5a9 2b3f 5441 0b3f
000002a0: bf40 1e3f 524b 10bd dd99 0e3f ab99 0abe
000002b0: 84c8 153f cab2 993d 3201 043f f8b9 4c3d
000002c0: 24ef d4bd 8013 0abe 60d1 e43b 5f01 30bd
000002d0: c23a 0e3f bf81 053c 456e 8ebd 20ee c53d
000002e0: 0453 bdbd d04e 25bb 0d65 0a3f 3191 f43c
000002f0: 2cd0 0b3f 7a2e 1c3f 0aca 2d3f 3f6a 0a3d
00000300: 5221 483d 3984 cebd 55c8 e7bd 67fb c23d
00000310: 181d ba3c e013 df3c 0fb2 aebd 38ec c73c
00000320: de3f 87bd 8a96 97bd 4e78 fbbd a2f6 74bd
00000330: 51e3 f3bd 8907 b53d 3ed3 993d 8af2 c03c
00000340: 4698 dfbc a2cf d23d c751 5d3c 9022 6dbd
00000350: 5e25 513d d692 f2bd f08a 8ebc 1775 0fbd
00000360: e4b2 b6ba 45aa b0bd 14f2 2fbd 40dd d63b
00000370: 46a0 663d f929 bf3c 07d6 f13d 9057 60bc
00000380: 78c3 bc3c 9cf6 903d 1fcb 8b3d 1283 97bd
00000390: d8b1 de3d 4c86 c33d 2914 a43c e0f6 eebc
000003a0: 2b47 8c3d c845 a4bd 1dd5 00be 8208 dd3d
000003b0: 2c84 90bd 34f4 f4bd dc55 03be daa4 ab3d
000003c0: ce21 febd 7db3 d93d 68a2 a0bc a8c6 a6bd
000003d0: d366 86bc fc17 6e3d 20f5 cb3c 34ba de3d
000003e0: d6d5 8d3d d294 82bd e2e5 1e3d 736f 733d
000003f0: 8863 64bc c58e c23d 71ef febd 2834 c7bd

layers.2.bias f4 [64]
0.06577085 0.009594649 -0.19157016 0.028527748 -0.06912988 0.075297706 0.1057235 -0.12944932
-0.065142 0.17928721 -0.0969702 -0.13079157 -0.12329619 -0.28265268 -0.079456255 -0.0844287
0.029955758 0.06363313 -0.11722039 -0.26805022 0.013977178 -0.1755026 -0.095885634 -0.084053405
-0.31697968 -0.023857614 -0.28558168 -0.18129498 0.07952639 -0.28368196 0.07404737 0.036052704
-0.21513169 0.0007434587 -0.14223334 0.13473387 -0.32133427 0.0030036909 0.09384236 -0.1342586
0.057734925 0.10000818 -0.12182951 -0.06839949 -0.02496542 -0.037299275 -0.11882322 -0.11838518
-0.13068508 -0.13249654 0.046644658 0.03788738 -0.075893484 0.10967541 -0.11035964 0.09196228
-0.12622738 -0.27170274 -0.23583491 0.03777118 -0.070906684 -0.1534043 0.07664114 0.12120473
00000000: deb2 863d e032 1d3c f82a 44be 06b3 e93c
00000010: f793 8dbd af35 9a3d 9085 d83d 5d8e 04be
00000020: 2b69 85bd 1197 373e 5098 c6bd 3aee 05be
00000030: b682 fcbd dab7 90be f6b9 a2bd f4e8 acbd
00000040: c765 f53c 1652 823d 3e11 f0bd e13d 89be
00000050: 8900 653c f4b6 33be b05f c4bd 3124 acbd
00000060: 294b a2be 0b71 c3bc c337 92be 64a5 39be
00000070: bbde a23d c33e 91be 26a6 973d 00ac 133d
00000080: 7b4b 5cbe abe4 423a 9ea5 11be adf7 093e
00000090: ed85 a4be 92d9 443b 6c30 c03d 167b 09be
000000a0: 757b 6c3d 17d1 cc3d c081 f9bd 0815 8cbd
000000b0: 4884 ccbc 20c7 18bd 9759 f3bd ee73 f2bd
000000c0: 4fd2 05be 2cad 07be 780e 3f3d cc2f 1b3d
000000d0: 0b6e 9bbd 809d e03d 3c04 e2bd b856 bc3d
000000e0: c041 01be 9f1c 8bbe b57e 71be f4b5 1a3d
000000f0: 8637 91bd 0416 1dbe 08f6 9c3d 2f3a f83d

layers.4.weight f4 [3, 64]
-0.09663142 0.01053521 0.4794645 0.11004641 -0.058586 -0.11073341 -0.035656378 0.026187561
0.01731586 0.05473484 0.1224079 0.41023424 0.63701457 0.6759319 0.42672706 0.5964952
0.06639046 0.028366715 0.02465869 0.48173878 0.08908851 0.6183241 0.49250326 -0.02305607
0.5248979 0.0030723086 0.47431973 0.44645256 -0.08568172 0.4516172 0.08899176 0.021220103
0.610755 0.0050519183 0.6008031 0.01646474 0.5057365 -0.10581619 -0.02226679 0.05029717
-0.10507192 -0.09268423 -0.08729276 -0.12308474 0.037606463 0.10094114 0.6010481 -0.044555716
0.05745774 -0.054832783 0.07902196 0.05180521 -0.10044081 0.08777052 0.11059789 -0.032673243
-0.11701255 0.45419523 0.5117806 0.047281634 -0.10323131 0.4315201 -0.06120999 0.08838527
0.07307111 -0.106211394 0.5301684 0.10946613 -0.062740445 -0.033987112 0.096520245 0.030992521
0.05952381 -0.11130511 -0.017516017 0.5464682 0.5809044 0.51356214 0.5712884 0.5123326
0.022491029 -0.052063152 -0.038878836 0.62655157 0.08258441 0.6947247 0.5972605 0.06940663
0.46792126 -0.03009429 0.6349863 0.51125735 0.017849462 0.5286336 0.08944196 -0.048856005
0.47287372 -0.026719362 0.5476125 0.04021268 0.5153699 -0.014236968 -0.08827819 -0.08030648
0.076052554 0.027328549 -0.11789149 -0.009457337 0.023338825 -0.057042703 0.58983773 0.018020947
0.06155826 -0.0346866 -0.066328764 0.12212298 0.026037315 -0.17010942 0.06452684 0.10499983
0.12960143 0.46106246 0.5593139 0.04260274 0.10633923 0.5360509 -0.10472794 -0.14026856
-0.020207375 0.06281717 0.5264727 0.02752365 0.015286997 0.064680256 -0.11907478 0.032727733
0.0060590757 0.06910704 -0.07942307 0.58605057 0.58841926 0.70764595 0.4811126 0.5126776
-0.10870006 0.105091244 0.061297458 0.48185894 0.050952803 0.5667221 0.45920035 0.06319702
0.530621 0.055920493 0.6167683 0.57576877 0.011422381 0.57061446 -0.05504733 0.040030643
0.4884645 -0.12178974 0.486544 -0.07540481 0.4564357 -0.08621467 0.05089496 -0.02545707
0.0029855415 0.008683275 0.12346886 -0.06416635 0.020629063 0.00856775 0.48343462 -0.13848138
-0.008852702 0.08141754 -0.11954528 0.10621573 0.021721264 -0.062478498 0.049364865 0.046924595
0.029276751 0.46802953 0.4857093 0.029619439 -0.11387122 0.51985836 0.031832412 0.05349402
00000000: b2e6 c5bd e09b 2c3c 5f7c f53e 0360 e13d
00000010: e0f7 6fbd 33c8 e2bd 6c0c 12bd 4c87 d63c
00000020: fed9 8d3c a431 603d feb0 fa3d 390a d23e
00000030: 6313 233f df09 2d3f f87b da3e e9b3 183f
00000040: b9f7 873d 5061 e83c 0501 ca3c 77a6 f63e
00000050: 0974 b63d 7d4a 1e3f 6329 fc3e 15e0 bcbc
00000060: b55f 063f c958 493b 09da f23e 6e95 e43e
00000070: e679 afbd 5f3a e73e 5041 b63d c8d5 ad3c
00000080: 715a 1c3f 908a a53b 3bce 193f 10e1 863c
00000090: f277 013f 29b6 d8bd d868 b6bc 6804 4e3d
000000a0: f22f d7bd 3bd1 bdbd 8cc6 b2bd da13 fcbd
000000b0: 3c09 1a3d 3aba ce3d 4ade 193f 0e80 36bd
000000c0: cf58 6b3d 5798 60bd 44d6 a13d b331 543d
000000d0: e9b3 cdbd 08c1 b33d 2681 e23d 61d4 05bd
000000e0: 47a4 efbd 478c e83e 0e04 033f 63aa 413d
000000f0: f06a d3bd 34f0 dc3e 54b7 7abd 5603 b53d
00000100: 4ea6 953d 5c85 d9bd 1eb9 073f c72f e03d
00000110: 107e 80bd 1236 0bbd 68ac c53d 07e4 fd3c
00000120: 3dcf 733d eff3 e3bd c07d 8fbc 57e5 0b3f
00000130: 27b6 143f cf78 033f f53f 123f 3b28 033f
00000140: 1b3f b83c 2c40 55bd 6a3f 1fbd af65 203f
00000150: 0422 a93d 7ad9 313f 10e6 183f 1025 8e3d
00000160: 6093 ef3e 4d88 f6bc 768e 223f c3e1 023f
00000170: 0939 923c 8854 073f 592d b73d 3c1d 48bd
00000180: 811c f23e 90e2 dabc 5530 0c3f 0db6 243d
00000190: 48ef 033f 2c42 69bc 32cb b4bd b977 a4bd
000001a0: 71c1 9b3d 1fe0 df3c 1871 f1bd f2f2 1abc
000001b0: 1031 bf3c 9ca5 69bd 9bff 163f aaa0 933c
000001c0: 8424 7c3d 8913 0ebd 60d7 87bd 9d1b fa3d
000001d0: 354c d53c 2a31 2ebe a626 843d 270a d73d
000001e0: 3db6 043e 6110 ec3e 322f 0f3f 3680 2e3d
000001f0: 62c8 d93d a23a 093f 9a7b d6bd 90a2 0fbe
00000200: f089 a5bc 4aa6 803d eac6 063f 4779 e13c
00000210: 5076 7a3c 1577 843d 7add f3bd 840d 063d
00000220: 368b c63b fe87 8d3d 90a8 a2bd 6907 163f
00000230: a5a2 163f 4928 353f 6454 f63e d73e 033f
00000240: 239e debd 143a d73d 0b13 7b3d 37b6 f63e
00000250: e3b3 503d b314 113f 4f1c eb3e 706d 813d
00000260: c7d6 073f e30c 653d 87e4 1d3f 9565 133f
00000270: f024 3b3c ca13 123f 4f79 61bd 2cf7 233d
00000280: 0518 fa3e e66c f9bd 4c1c f93e d66d 9abd
00000290: f1b1 e93e 5191 b0bd 3c77 503d 588b d0bc
000002a0: 13a9 433b 4c44 0e3c 3edd fc3d a669 83bd
000002b0: 48fe a83c c05f 0c3c be84 f73e 10ce 0dbe
000002c0: ec0a 11bc 3dbe a63d 28d4 f4bd a287 d93d
000002d0: cbf0 b13c 74e9 7fbd d032 4a3d 0134 403d
000002e0: ccd5 ef3c 91a1 ef3e e4ae f83e 77a4 f23c
000002f0: 5035 e9bd 7015 053f b462 023d 8c1c 5b3d

layers.4.bias f4 [3]
0.34292567 -0.107527174 0.44552192
00000000: f493 af3e 3537 dcbd 731b e43e
