weights/trained_agent_model_BTC-USD.pth (torch, 22672 bytes, 6 tensors)

layers.0.weight f4 [64, 8]
-0.08698297 -0.040552195 -0.12174612 -0.42685974 0.016767483 -0.24812762 0.1382614 0.41948676
-0.038964678 -0.19780217 0.2446551 0.1889844 0.08563672 0.001920636 -0.25379625 -0.2140621
0.086515024 0.03092653 -0.14138098 0.33128643 -0.36241803 -0.17926368 0.27723956 0.21153292
-0.45878768 0.010861032 0.1468819 -0.11573895 -0.11245567 -0.30239326 -0.2631039 0.199521
-0.06103637 -0.33697623 0.035342872 -0.16485462 -0.1984452 0.13441154 0.1818337 -0.38833523
0.1124241 0.47015053 0.40576237 -0.12190813 0.036399033 -0.11302821 0.026171084 -0.13293864
0.023349144 -0.26397136 -0.30165765 -0.30340606 -0.046233237 0.2016389 -0.11448382 -0.14919424
-0.28096086 0.024416132 0.0026842905 -0.13591756 -0.28199318 0.20257251 0.2521791 -0.41047245
0.06337682 0.28239498 0.3350312 0.2220211 0.29839587 0.102603056 -0.121759795 0.07586794
-0.047119208 0.3449624 -0.28860328 -0.1355998 0.23007062 -0.2439309 -0.3157857 -0.31039566
-0.30950823 -0.32106757 0.3629952 -0.03325536 0.2636081 0.18097225 0.21041268 0.104772195
-0.2011495 0.29684976 0.07010661 0.22718808 -0.301628 -0.34566233 0.22574116 -0.24398099
-0.017115977 -0.04791987 -0.25770655 -0.26765862 0.08812197 -0.07170157 -0.3350504 0.22581738
-0.15871175 0.21600714 0.13332014 -0.068647265 -0.11156709 -0.13720384 0.055044923 -0.1048045
-0.07322351 -0.17726012 -0.2779812 -0.30609852 -0.33344394 -0.1573002 0.08895607 -0.15393637
-0.14548738 -0.010065177 0.298036 0.09849644 0.07099603 0.25631478 -0.0610635 0.3516276
-0.24297602 -0.30381024 0.1607273 0.21163571 0.03681887 -0.319652 -0.16439448 0.14976916
0.056691308 -0.07680131 0.20094267 -0.27123356 0.36386484 0.04260505 0.19919147 -0.122884706
0.18611038 0.017041875 0.21177323 0.17837937 -0.15777765 -0.022212755 -0.34231135 -0.22477132
-0.2792175 0.23449293 0.23430924 -0.25522676 -0.19330066 -0.30255648 0.17000884 -0.21457344
-0.24805859 0.017948672 0.045823965 0.15891856 0.1790571 -0.089414544 0.040836304 -0.27394837
0.29389134 -0.17380619 -0.2884499 0.32315212 0.3303019 -0.09123062 0.12999517 0.0370175
0.07741457 -0.0564804 0.25534654 -0.31762344 -0.16803315 -0.29513106 -0.19741984 -0.03184169
0.098495975 -0.3468964 -0.15686458 0.26242402 0.2622686 0.22840372 0.097947866 -0.19472998
-0.29696262 0.10684776 -0.1060932 -0.2743314 -0.1764238 0.031924337 -0.19576728 0.27026597
0.19649346 -0.20014594 -0.17708223 0.08455894 0.17971075 0.15673952 0.10474179 -0.14808044
0.27453914 0.18479219 -0.36499208 0.031136028 0.24639933 -0.2778535 -0.14660768 -0.17484939
-0.05143497 -0.28131634 0.13520919 0.24852876 -0.32094413 -0.40610483 -0.033257596 0.1864071
-0.09337608 0.2686082 0.1205698 0.050513107 0.0247968 -0.2183782 0.17596252 -0.14657322
-0.14802176 0.22670667 -0.0825642 0.017980013 -0.20428139 0.1944203 0.041120574 -0.3422445
0.040925097 -0.10148679 0.23236614 -0.29391694 0.30578735 -0.16610974 -0.26440036 -0.057163686
0.078286014 0.0014707339 0.39502195 0.053749368 -0.2867048 0.1001105 0.17481114 0.27456674
00000000: 2124 b2bd 0f1a 26bd 0856 f9bd 5c8d dabe
00000010: f65b 893c 2b15 7ebe 6594 0d3e f8c6 d63e
00000020: 6d99 1fbd a78c 4abe de86 7a3e 2085 413e
00000030: 4e62 af3d dabd fb3a 95f1 81be 1833 5bbe
00000040: ca2e b13d a259 fd3c 2dc6 10be 609e a93e
00000050: db8e b9be e690 37be 58f2 8d3e 169c 583e
00000060: 38e6 eabe 78f2 313c 3568 163e 8b08 edbd
00000070: 294f e6bd 4ad3 9abe 8eb5 86be 3c4f 4c3e
00000080: 4601 7abd 2688 acbe b0c3 103d a6cf 28be
00000090: 3835 4bbe 2ea3 093e 9d32 3a3e e0d3 c6be
000000a0: 9b3e e63d 92b7 f03e 16c0 cf3e f8aa f9bd
000000b0: 2717 153d 567b e7bd be64 d63c 1121 08be
000000c0: b446 bf3c 4127 87be df72 9abe 0a58 9bbe
000000d0: 105f 3dbd 6e7a 4e3e 7e76 eabd 60c6 18be
000000e0: 1ada 8fbe 5704 c83c ecea 2f3b f92d 0bbe
000000f0: 6961 90be 2b6f 4f3e 9e1d 813e 7229 d2be
00000100: b5cb 813d 1396 903e 3689 ab3e 8059 633e
00000110: 58c7 983e 8d21 d23d 335d f9bd a760 9b3d
00000120: 1200 41bd e99e b03e cfc3 93be adda 0abe
00000130: a297 6b3e 06c9 79be aaae a1be 2eec 9ebe
00000140: dd77 9ebe f862 a4be 82da b93e c636 08bd
00000150: a4f7 863e ca50 393e 6c76 573e ce92 d63d
00000160: 22fa 4dbe b1fc 973e 0e94 8f3d fea3 683e
00000170: fc6e 9abe a7fa b0be b128 673e 27d6 79be
00000180: ce36 8cbc a047 44bd 1df2 83be 8d0a 89be
00000190: 4b79 b43d 46d8 92bd ba8b abbe ac3c 673e
000001a0: 5585 22be fa30 5d3e 1385 083e f096 8cbd
000001b0: 497d e4bd 2a7f 0cbe c976 613d bea3 d6bd
000001c0: 35f6 95bd ad83 35be 8d53 8ebe f2b8 9cbe
000001d0: 2ab9 aabe 4e13 21be 9a2e b63d 7fa1 1dbe
000001e0: a5fa 14be 6ae8 24bc 2d98 983e 80b8 c93d
000001f0: 5e66 913d b13b 833e b81d 7abd 8808 b43e
00000200: b5ce 78be 048d 9bbe b395 243e 08b7 583e
00000210: 62cf 163d 6da9 a3be 0757 28be 165d 193e
00000220: 2535 683d 014a 9dbd eac3 4d3e 20df 8abe
00000230: 7e4c ba3e a282 2e3d d9f8 4b3e faaa fbbd
00000240: b893 3e3e 679b 8b3c 15db 583e 15a9 363e
00000250: 7790 21be 86f7 b5bc 6f43 afbe 742a 66be
00000260: 99f5 8ebe ea1e 703e c3ee 6f3e 15ad 82be
00000270: 9cf0 45be afe8 9abe cc16 2e3e 24b9 5bbe
00000280: 1203 7ebe 1809 933c e9b1 3b3d 8cbb 223e
00000290: bf5a 373e f91e b7bd f843 273d f642 8cbe
000002a0: ed78 963e 40fa 31be b5af 93be 3274 a53e
000002b0: 551d a93e 1fd7 babd 741d 053e a99f 173d
000002c0: 888b 9e3d fe57 67bd c8bc 823e 8a9f a2be
000002d0: e210 2cbe 6b1b 97be 6d28 4abe 6f6c 02bd
000002e0: 42b8 c93d 689c b1be 1ca1 20be 715c 863e
000002f0: 1248 863e aae2 693e e498 c83d 4c67 47be
00000300: 7c0b 98be 00d3 da3d 6447 d9bd 2a75 8cbe
00000310: 71a8 34be 18c3 023d 3877 48be 4d60 8a3e
00000320: 9535 493e 0ff3 4cbe 0b55 35be 3d2d ad3d
00000330: 1806 383e 5380 203e dd82 d63d 66a2 17be
00000340: 6590 8c3e 2a3a 3d3e 3ee0 babe fc10 ff3c
00000350: 1b50 7c3e d042 8ebe 5320 16be b80b 33be
00000360: 7aad 52bd b208 90be 4774 0a3e 537e 7e3e
00000370: ca52 a4be f9ec cfbe 1e39 08bd 81e1 3e3e
00000380: f53b bfbd 0487 893e 4ded f63d d5e6 4e3d
00000390: a922 cb3c 899e 5fbe 852f 343e 4a17 16be
000003a0: 0493 17be cb25 683e 6b17 a9bd d24a 933c
000003b0: 242f 51be 1d16 473e 0c6e 283d ac3a afbe
000003c0: 13a1 273d 4ed8 cfbd 64f1 6d3e 487c 96be
000003d0: 2990 9c3e ac18 2abe 7c5f 87be 7824 6abd
000003e0: 6b54 a03d a4c5 c03a 5140 ca3e 4c28 5c3d
000003f0: f9ca 92be bc06 cd3d b101 333e 0394 8c3e

layers.0.bias f4 [64]
0.57871693 0.4216966 -0.13681515 0.8226345 -0.365663 0.71591634 1.0081176 -0.42752624
0.11250643 -0.05672776 0.27013767 -0.22516143 -0.2825194 1.0006355 -0.42890152 0.38288212
-0.22969876 -0.1521028 -0.34640032 -0.26890838 1.0361605 0.4319501 0.9151507 0.27090132
-0.13468595 -0.04812982 -0.33924723 -0.3028054 -0.20542717 -0.02136525 -0.22062707 0.62195736
0.76965266 -0.31774506 0.5059601 0.45315877 -0.12936069 0.84870905 -0.3189674 0.38583538
0.56396705 0.48898643 -0.15422384 0.042808082 -0.42011407 1.0365664 -0.092455216 0.12922086
0.21614408 -0.032869525 -0.3236218 0.27787405 0.5777261 0.79294294 0.44590244 -0.25309333
0.8153873 0.17979906 -0.20853157 -0.14779943 0.124596424 0.20991606 -0.21741009 -0.09489426
00000000: cb26 143f 9ee8 d73e 4519 0cbe 2d98 523f
00000010: 2e38 bbbe 4b46 373f ff09 813f b8e4 dabe
00000020: c569 e63d 5e5b 68bd 7c4f 8a3e b890 66be
00000030: 62a6 90be d314 803f fb98 dbbe 2009 c43e
00000040: 2736 6bbe d6c0 1bbe 625b b1be 5cae 89be
00000050: e8a0 843f 9028 dd3e 5147 6a3f 94b3 8a3e
00000060: 1deb 09be c623 45bd d0b1 adbe 4f09 9bbe
00000070: 805b 52be 2d06 afbc 10ec 61be 9938 1f3f
00000080: f507 453f 7baf a2be 9a86 013f 6d04 e83e
00000090: 2177 04be ff44 593f b24f a3be 378c c53e
000000a0: 2560 103f 6e5c fa3e dbec 1dbe 8757 2f3d
000000b0: 3119 d7be 35ae 843f 2959 bdbd 7952 043e
000000c0: e054 5d3e 32a2 06bd c2b1 a5be 8245 8e3e
000000d0: dce5 133f 4ffe 4a3f 534d e43e 7395 81be
000000e0: 39bd 503f 3f1d 383e 4d89 55be bc58 17be
000000f0: 692c ff3d 3cf4 563e c0a0 5ebe ec57 c2bd

layers.2.weight f4 [64, 64]
-0.09287731 0.039807077 -0.06171852 0.017181661 0.10561533 -0.08544229 0.051682737 -0.08794348
-0.013141299 -0.08525269 0.023641935 -0.029733688 0.06255711 -0.024283947 0.018741444 -0.12103119
0.115767546 0.11710058 0.02479747 -0.073556915 0.08234178 -0.04255032 0.06906483 -0.1414856
0.07525608 -0.14330825 0.067856446 -0.090637006 0.055765823 -0.04024154 -0.021377563 0.0379759
-0.09912504 -0.08384392 0.072448835 -0.05693729 -0.006699845 0.068254836 0.051477686 -0.035093654
-0.15378901 -0.0987971 -0.08685978 -0.082584605 0.12430215 0.04285675 -0.04487767 -0.053367164
-0.04342267 0.0958761 -0.043853402 -0.00062473404 -0.008045987 -0.1459344 0.029201483 0.025099054
0.032388065 0.04622341 -0.06894779 0.10857698 0.05604615 0.10389697 -0.018310122 0.005505383
-0.09008993 0.03025198 -0.067011416 0.15909493 0.060068537 0.44544783 0.7646222 -0.1184608
-0.095507585 0.085219115 -0.12592249 0.10094218 0.014963163 0.7539457 -0.0021700356 -0.033506174
-0.11715426 0.033968225 -0.0746963 0.02372326 0.6258988 -0.119068965 0.5623421 0.020813059
-0.010326066 -0.10772174 0.029580515 0.03732501 -0.082826756 0.117535174 -0.05191642 -0.14075626
0.010756315 -0.058536645 0.046779215 0.011799919 -0.05350339 0.18788649 0.08981883 -0.08378252
0.10418404 -0.047224216 -0.09454381 0.022210594 -0.00036965113 0.6473279 -0.18240573 -0.047657102
-0.077682786 -0.014087796 0.078751415 -0.19667946 0.01551757 0.018047748 -0.15046972 0.014800876
0.054519106 -0.16541515 -0.1121447 -0.04865083 0.02107679 -0.0956472 -0.020021848 0.023224935
0.15788023 0.119161874 0.07054251 0.16885017 0.049730975 0.05729393 0.48484865 -0.0609763
-0.10602869 0.0069571286 -0.017461631 -0.0063529173 0.20215234 0.52401644 -0.17072852 0.0036869221
0.039661296 -0.09860789 0.106144704 0.10473171 0.64063376 0.07959253 0.49273947 -0.086658016
0.09015346 -0.13539352 0.029415024 0.15726024 -0.1548675 -0.09048234 0.10857934 -0.123489805
0.048285704 0.07301824 0.048279613 -0.06307377 -0.012383735 -0.031715155 0.013757174 0.04761812
-0.013149356 -0.054426637 -0.31912845 0.08384131 -0.02417765 0.65782523 0.095427155 -0.06042632
-0.0979589 0.0626338 -0.044911288 0.031135354 0.2126272 -0.10708577 0.06321246 0.10016936
0.22633179 0.06515756 0.025978014 0.099383585 0.00035229526 0.13423897 0.18701863 0.12161763
0.019693354 0.014481572 -0.05446155 0.034258306 -0.10441961 -0.037873015 0.6062397 0.0072206254
-0.025000291 -0.116453245 0.06759955 0.14772628 0.041342366 0.56043637 -0.14305751 0.04126948
0.026904698 0.0063428064 -0.091652505 0.046506166 0.54019135 0.01200628 0.58296454 -0.0275682
0.14626335 0.025967302 0.00092392485 0.16044265 0.06303146 0.015604138 -0.028905481 0.08689818
0.08894631 -0.025665266 0.025270017 -0.002725209 0.08208006 -0.015337904 0.027382577 0.08217298
-0.08005213 -0.10229548 -0.30018824 -0.14563964 0.10063229 0.6676567 -0.10447712 -0.06858004
-0.06793296 0.050541863 0.044292964 -0.06596209 0.09738922 -0.03494715 0.059741616 -0.007841274
0.28851047 0.058871288 0.21389993 0.052946933 -0.0100567015 0.16400245 0.038453747 0.110939175
00000000: 7636 bebd bf0c 233d 8fcc 7cbd 8ec0 8c3c
00000010: da4c d83d 5efc aebd 47b1 533d b61b b4bd
00000020: 9a4e 57bc f698 aebd bbac c13c 1094 f3bc
00000030: f11d 803d 21ef c6bc a887 993c 33df f7bd
00000040: 8917 ed3d 6ed2 ef3d 1024 cb3c 02a5 96bd
00000050: cfa2 a83d 3f49 2ebd dd71 8d3d 9ae1 10be
00000060: dc1f 9a3d 66bf 12be 52f8 8a3d e59f b9bd
00000070: b46a 643d 50d4 24bd 0020 afbc 9e8c 1b3d
00000080: 1202 cbbd 5cb6 abbd 0e60 943d 1337 69bd
00000090: 608a dbbb 31c9 8b3d 44da 523d 5dbe 0fbd
000000a0: de7a 1dbe 2256 cabd 8ae3 b1bd 1e22 a9bd
000000b0: 2092 fe3d 8f8a 2f3d a6d1 37bd 8797 5abd
000000c0: f8db 31bd b05a c43d a09f 33bd 31c5 23ba
000000d0: 51d3 03bc d46f 15be f337 ef3c 889c cd3c
000000e0: 59a9 043d c254 3d3d 8034 8dbd 9c5d de3d
000000f0: a690 653d efc7 d43d 1cff 95bc 8066 b43b
00000100: 1281 b8bd 00d3 f73c 483d 89bd c8e9 223e
00000110: 6d0a 763d bd11 e43e 48be 433f 939b f2bd
00000120: 7b99 c3bd 5c87 ae3d d3f1 00be c6ba ce3d
00000130: 0e28 753c 9602 413f 2837 0ebb c53d 09bd
00000140: 93ee efbd 4422 0b3d 60fa 98bd 4857 c23c
00000150: e73a 203f 6eda f3bd a7f5 0f3f 2680 aa3c
00000160: a92e 29bc 379d dcbd d652 f23c 1ce2 183d
00000170: 13a1 a9bd 48b6 f03d 50a6 54bd 6922 10be
00000180: 413b 303c 1fc4 6fbd 909b 3f3d 7354 413c
00000190: 5f26 5bbd 5165 403e eff2 b73d 2b96 abbd
000001a0: 715e d53d 2e6e 41bd 2fa0 c1bd fef2 b53c
000001b0: bccd c1b9 48b7 253f 91c8 3abe 1834 43bd
000001c0: 2718 9fbd 80d0 66bc 6c48 a13d 5766 49be
000001d0: 683d 7e3c dfd8 933c bc14 1abe 607f 723c
000001e0: 6d4f 5f3d 9762 29be 1fac e5bd 1846 47bd
000001f0: 3ba9 ac3c aee2 c3bd dc04 a4bc 3842 be3c
00000200: 5bab 213e 240b f43d 9778 903d 0fe7 2c3e
00000210: b5b2 4b3d 0aad 6a3d 153e f83e 49c2 79bd
00000220: 9225 d9bd a0f8 e33b b20b 8fbc 222c d0bb
00000230: 0601 4f3e f125 063f 75d3 2ebe 4aa0 713b
00000240: e273 223d eff2 c9bd 6562 d93d 947d d63d
00000250: 9300 243f 6901 a33d 5948 fc3e c279 b1bd
00000260: 61a2 b83d 99a4 0abe c7f7 f03c d408 213e
00000270: 9695 1ebe ce4e b9bd d85e de3d 39e8 fcbd
00000280: 3bc7 453d 968a 953d d8c0 453d d22c 81bd
00000290: 26e5 4abc c0e7 01bd c565 613c 380b 433d
000002a0: 6570 57bc 77ee 5ebd ce64 a3be feb4 ab3d
000002b0: 3510 c6bc 3c67 283f 506f c33d 9781 77bd
000002c0: ad9e c8bd 2646 803d e6f4 37bd 920f ff3c
000002d0: f2ba 593e c94f dbbd 8975 813d 9825 cd3d
000002e0: 85c3 673e 5471 853d d8cf d43c 9f89 cb3d
000002f0: 45b4 b839 f175 093e d081 3f3e aa12 f93d
00000300: f553 a13c 1e44 6d3c 1313 5fbd 7052 0c3d
00000310: f3d9 d5bd bc20 1bbd 8632 1b3f ff9a ec3b
00000320: 69cd ccbc 0a7f eebd a271 8a3d 8f45 173e
00000330: 9d56 293d c278 0f3f ab7d 12be 300a 293d
00000340: 3e67 dc3c 51d7 cf3b 4fb4 bbbd 407d 3e3d
00000350: fb49 0a3f fdb5 443c 2a3d 153f b5d6 e1bc
00000360: 0fc6 153e 61b9 d43c 8c33 723a 144b 243e
00000370: a316 813d 80a8 7f3c 30cb ecbc acf7 b13d
00000380: 7c29 b63d f73f d2bc 1103 cf3c 6c99 32bb
00000390: 9719 a83d d54b 7bbc 6d51 e03c 4f4a a83d
000003a0: 5ff2 a3bd 4b80 d1bd 46b2 99be 8f22 15be
000003b0: 4d18 ce3d 8deb 2a3f 1af8 d5bd b173 8cbd
000003c0: 7020 8bbd fc04 4f3d 8a6c 353d 2217 87bd
000003d0: 0074 c73d be24 0fbd a0b3 743d b078 00bc
000003e0: a5b7 933e 0523 713d 9508 5b3e e2de 583d
000003f0: ddc4 24bc 42f0 273e ad81 1d3d 1434 e33d

layers.2.bias f4 [64]
0.040086694 0.6583373 0.13105567 0.15121683 0.22169858 0.46939242 0.049929082 0.6019559
-0.12088433 0.41350865 0.059057865 0.62685925 0.17788161 -0.024314271 -0.0834211 0.044703092
0.62227285 0.06118053 0.54531884 0.32027903 0.32676673 -0.008104011 -0.04138474 -0.04647321
0.57239485 0.03234986 0.37607923 0.52311456 0.41470438 0.36244762 -0.008006032 0.5018412
-0.086495966 -0.06248145 -0.01569307 0.5987733 -0.09666489 -0.08616998 -0.06883183 0.0056408616
0.52990144 -0.13056993 -0.0027337372 -0.0750331 0.12939459 -0.032952268 0.5532087 -0.11647672
0.48779127 0.06988494 0.53758967 0.36981642 -0.13304715 0.41033635 0.8290498 0.0671678
0.011471012 0.6717016 0.42561924 -0.033057667 0.5675439 0.529181 0.01766527 0.06596912
00000000: f231 243d cb88 283f 7533 063e 96d8 1a3e
00000010: f404 633e 3454 f03e 7082 4c3d c819 1a3f
00000020: 3492 f7bd 68b7 d33e a9e6 713d d979 203f
00000030: 9926 363e b92e c7bc afd8 aabd 971a 373d
00000040: 464d 1f3f 6f98 7a3d 049a 0b3f 9dfb a33e
00000050: f84d a73e b0c6 04bc 0c83 29bd b15a 3ebd
00000060: 7888 123f 4981 043d 758d c03e d6ea 053f
00000070: 2254 d43e bc92 b93e bb2b 03bc aa78 003f
00000080: cc24 b1bd 8dec 7fbd c18e 80bc 3549 193f
00000090: 3ef8 c5bd e379 b0bd b4f7 8cbd fad6 b83b
000000a0: 9fa7 073f 20b4 05be 8028 33bb f4aa 99bd
000000b0: 0480 043e f5f8 06bd 169f 0d3f 598b eebd
000000c0: c7bf f93e d61f 8f3d 7a9f 093f 9458 bd3e
000000d0: 833d 08be 9b17 d23e 9c3c 543f 468f 893d
000000e0: e9f0 3b3c a3f4 2b3f c4ea d93e 7a67 07bd
000000f0: 8f4a 113f 6878 073f c2b6 903c d11a 873d

layers.4.weight f4 [3, 64]
-0.002308301 0.04795299 -0.036637716 -0.019373287 0.052292295 -0.08873342 0.0023218326 0.0683598
0.062197756 -0.06668797 0.02372004 0.012540059 0.021988347 -0.09609683 0.071941264 0.03806618
0.044647746 0.037198305 0.017317712 0.0212541 -0.11165706 -0.017897015 -0.013895795 -0.097102605
0.028588286 0.07206795 -0.057632647 0.065010004 -0.067046456 0.071718164 0.020659355 -0.070133634
0.08095789 0.05871942 0.055662666 0.031024404 0.055652317 -0.016980968 -0.0451529 0.072542325
0.06827243 -0.111847505 -0.0483044 0.05465913 -0.08345921 0.05444472 -0.012657902 0.092473365
0.0051637115 -0.051682476 0.043016944 -0.007643642 0.0012767534 0.017757325 0.09387493 0.11078834
-0.052757606 0.07466239 0.033949714 0.009746414 -0.10480603 0.036258586 0.03844668 -0.04756111
0.06534761 -0.54710317 -0.07444359 -0.07592537 -0.06649805 -0.07653534 0.102171786 -0.13860165
0.07063778 -0.053965222 -0.10719217 0.032456823 -0.08793655 -0.15605445 0.0429664 0.035435796
0.0022363765 -0.100294575 0.055196065 0.02421711 0.22122295 -0.15596123 0.029678151 -0.037080962
-0.12513457 -0.12707476 -0.012907388 0.012658214 -0.033039663 -0.06783348 0.1097077 -0.11572842
0.049654722 -0.03178051 -0.07865009 0.12130289 -0.20908853 -0.0078705475 -0.10002166 0.11254069
0.03536731 0.08956656 -0.22314632 0.09322436 -0.048623968 -0.05018968 -0.06820401 -0.029132873
-0.07530616 0.04355763 -0.0312417 -0.14638205 -0.082695514 -0.015083523 -0.9359328 -0.08661507
-0.11535713 -0.28031456 -0.17007208 -0.10544856 -0.14208943 -0.044481374 0.12686953 0.015757397
0.032315772 -0.24927694 -0.011909276 -0.023732759 -0.06997861 -0.07813299 -0.030549254 -0.07977322
0.008142022 -0.0697446 0.022849053 -0.31942418 0.020972282 -0.02541006 -0.0055701197 0.020891726
-0.23417082 0.016911194 -0.25267377 -0.03059846 -0.1670324 0.1789784 0.030807674 0.023366109
-0.14949949 0.2935268 -0.092510335 -0.13443543 -0.037084606 -0.10261156 -0.094237804 -0.14507842
-0.09992106 -0.10854368 0.08399468 -0.19099577 0.08032587 0.23409998 0.09529527 0.040642478
-0.1033208 0.055737946 0.01285619 -0.009864708 0.26709294 -0.0069179516 -0.077353425 -0.01576987
-0.23964427 0.02583572 -0.101344205 -0.036818285 0.11643468 -0.16739039 -0.049417853 0.06592201
0.03496658 -0.033123344 -0.017962882 -0.02215393 -0.13177344 -0.25194153 -0.0062255035 0.00014999224
00000000: dd46 17bb 5b6a 443d 6e11 16bd bab4 9ebc
00000010: 7230 563d deb9 b5bd e329 183b 3900 8c3d
00000020: 13c3 7e3d b493 88bd 8850 c23c d274 4d3c
00000030: e820 b43c 6ace c4bd f155 933d 48eb 1b3d
00000040: 8ee0 363d 405d 183d e0dd 8d3c 141d ae3c
00000050: 75ac e4bd c39c 92bc 30ab 63bc bbdd c6bd
00000060: fb31 ea3c 5d98 933d 3610 6cbd f723 853d
00000070: a74f 89bd f9e0 923d cf3d a93c 39a2 8fbd
00000080: 40cd a53d c683 703d 89fe 633d e426 fe3c
00000090: aff3 633d ac1b 8bbc 3ff2 38bd 1291 943d
000000a0: 6ad2 8b3d 4e10 e5bd d6da 45bd 40e2 5f3d
000000b0: aaec aabd 6d01 5f3d 1763 4fbc ad62 bd3d
000000c0: 5a34 a93b 01b1 53bd 8932 303d 8477 fabb
000000d0: bc58 a73a cf77 913c 8041 c03d ffe4 e23d
000000e0: 5c18 58bd 98e8 983d db0e 0b3d 6caf 1f3c
000000f0: 8ba4 d6bd e283 143d 447a 1d3d 70cf 42bd
00000100: f8d4 853d f40e 0cbf e275 98bd c37e 9bbd
00000110: 2130 88bd 8fbe 9cbd 713f d13d 97ed 0dbe
00000120: 8aaa 903d a30a 5dbd 9287 dbbd 72f1 043d
00000130: 1418 b4bd bdcc 1fbe 89fd 2f3d 2025 113d
00000140: 2c90 123b 3e67 cdbd 4515 623d f662 c63c
00000150: 4588 623e 4db4 1fbe 981f f33c 35e2 17bd
00000160: 4723 00be e31f 02be 8279 53bc 6664 4f3c
00000170: 9954 07bd 48ec 8abd 6eae e03d 0603 edbd
00000180: c062 4b3d 482c 02bd 4c13 a1bd a66d f83d
00000190: 4e1b 56be 78f3 00bc 28d8 ccbd bc7b e63d
000001a0: 50dd 103d ac6e b73d 7880 64be 6aec be3d
000001b0: ed29 47bd b293 4dbd 8bae 8bbd 10a8 eebc
000001c0: 1e3a 9abd 7c69 323d 98ee ffbc 2de5 15be
000001d0: 445c a9bd e120 77bc 4b99 6fbf 3e63 b1bd
000001e0: 5c40 ecbd 6485 8fbe 6027 2ebe 6af5 d7bd
000001f0: e47f 11be 1a32 36bd 16ea 013e a815 813c
00000200: 8b5d 043d 7442 7fbe 201f 43bc 346b c2bc
00000210: f250 8fbd 3004 a0bd 6e42 fabc 2460 a3bd
00000220: 1e66 053c 42d6 8ebd f02d bb3c 918b a3be
00000230: 10ce ab3c c228 d0bc 8d85 b6bb 2025 ab3c
00000240: 7aca 6fbe 5889 8a3c 755e 81be 9fa9 fabc
00000250: 8b0a 2bbe 1d46 373e 6060 fc3c 486a bf3c
00000260: 6516 19be 2549 963e 0f76 bdbd 71a9 09be
00000270: 07e6 17bd 0226 d2bd c0ff c0bd 708f 14be
00000280: 6aa3 ccbd 264c debd 6705 ac3d 6594 43be
00000290: e481 a43d e8b7 6f3e 2b2a c33d ba78 263d
000002a0: db99 d3bd 794d 643d c5a2 523c 969f 21bc
000002b0: 68c0 883e fcaf e2bb 796b 9ebd d02f 81bc
000002c0: 4f65 75be 6fa5 d33c 8d8d cfbd c5ce 16bd
000002d0: 4e75 ee3d 6368 2bbe 606a 4abd 1e02 873d
000002e0: 1e39 0f3d 58ac 07bd e526 93bc 297c b5bc
000002f0: 9eef 06be 7bfe 80be 4fff cbbb 3c47 1d39

layers.4.bias f4 [3]
-0.2027329 -0.44691324 -0.44201866
00000000: 3799 4fbe d0d1 e4be 4550 e2be
