weights/trained_agent_model_BTC-USD.pth (torch, 28304 bytes, 6 tensors)

layers.0.weight f4 [64, 30]
00000000: 7ef8 443e 08b5 383e e77f 743e 56d1 1d3e
00000010: db91 933e 4c59 283d 77d4 c63d cc07 9c3d
00000020: 07b2 8fbc 2603 823e 9e79 7c3e cb30 8b3e
00000030: 9273 26bc 29b3 453d faeb f53d 4bb1 903d
00000040: 2215 1a3e 9c0f d0ba 3241 20bd 9881 0c3c
00000050: 133c 9ebd e29a 5f3e 4dad 073e 20e3 6e3e
00000060: cb90 c23d a186 0f3e 5908 133e cd9d dbbd
00000070: 829b 9bbd 9de0 da3c 9b1e e53d 07d5 2fbd
00000080: 2a3c b5bd 00ea 13be e641 d4bd 1050 b93d
00000090: 9985 08be f8bb 453c f1c2 a1bd 8dcf 5ebd
000000a0: 1d08 e53d 77a9 13be 3d5f f1bd decb 24be
000000b0: 6839 3abe 7b8c c2bd 1475 13be c268 04be
000000c0: 3207 05bc 059b f1bc caed 05bc 962b 763d
000000d0: 9894 9b3d 845d 33be afd5 6d3d c740 45bd
000000e0: 1ea8 6cbd 9fdf 5bbc 5050 8e3a e835 38bd
000000f0: e508 08be 4fbd b53d 488d 25be 89e0 04bd
00000100: 7efd cc3d 8312 1e3e 1374 83b9 def4 4dbd
00000110: e698 663d 1f11 20be a162 aebc 8f02 f03d
00000120: bd0f 173e 69b8 debd 1db4 c33d 5715 08be
00000130: e1da 313e 8c24 debd 6d0b fb3d 5fce d1bd
00000140: 6441 f2bd e290 c5bc ad15 23be d883 0e3d
00000150: f550 3dbd e2f3 10bd c0db b3bd 6881 563d
00000160: 661f 28bc 5cf1 ebbd ce84 a93e 9c03 d43d
00000170: 9f0e 933e 812c 8a3e 6f62 3b3e 4048 823e
00000180: 7205 0b3e cf8a 193e c71d 353e 158f 463e
00000190: b6a9 343d 67ce d73c 00a6 5b3e 8b7e 873e
000001a0: ff2c 7c3e 8326 a93d 7d04 493d 7876 513e
000001b0: b230 473e f216 453c 80d2 81bd 164d 7c3e
000001c0: fb28 a13c b26d 473e 65dc 733d 7657 7b3e
000001d0: 3293 343e e7da 6b3d 01a1 ea3d f3b4 6e3e
000001e0: ef6f 093e 6a2a 853e 78ec 173e 8046 a83d
000001f0: d1c9 ca3d 5389 0c3e 64b8 923e fbe7 d63d
00000200: 51c2 223e 7268 0e3e 76ee 8f3e ef8a d23d
00000210: 5289 413c aaf6 d83d d4b7 473d c8b7 8bbd
00000220: 010b 5e3e 0710 283e d66c fc3d dbcf 113e
00000230: f3d4 423e 4d1c babc 7485 623e 1a80 603e
00000240: a9db 3f3e 3821 a23d 266e d63c 001d 463b
00000250: 18a9 fe3d 221b 54bd afe2 1e3e a7ae 3ebe
00000260: e6b4 d1bd 7511 2cbc 3f6b 753d b329 b03d
00000270: 4ade db3d 38d4 98bd 992b 873c 5e4c d0bd
00000280: aa30 a73d 7203 453d b779 ffbc 0ff1 76bd
00000290: 8de1 c5bd b3b7 1abe 7969 27be 8664 f43d
000002a0: efb9 d8bd abda fd3d 9584 33be 0755 5bbd
000002b0: 9ca0 debd 9698 8f3b 9cde 2b3e 0216 e33d
000002c0: 31d9 0b3d 9829 e0bd ea3f 8e3d 0458 283e
000002d0: 37bb 4ebd b6d1 1c3e 6b38 b73c 7050 5b3e
000002e0: 9cb8 2d3e f937 84bc 6365 85bd 769f 6b3e
000002f0: 1a84 633e da07 aa3d 50ce 183e 3d28 b13d
00000300: e779 6e3d 4ff7 2e3e f61f 323e de78 293d
00000310: 7d8a a6bd 4481 9bbd 48af 913d 61df 3f3e
00000320: a4fa 8bbc f69a fc3d 3c7a fa3c e92f ec3c
00000330: d0b6 653c 5f28 303d 9438 0bbe 5854 273e
00000340: b7ec f6bd 8f86 373e 761e 883e 947e 033e
00000350: 8a3d 913e 0503 483e 9875 8a3e cac3 8e3d
00000360: beb1 3d3d d331 8b3e c1d0 423e 0364 853b
00000370: f68a 993d e607 843d d527 a13d e082 363d
00000380: 01de 01bd 081c b5bc 03fa 663e 419b 823e
00000390: eac6 de3d c578 0b3e ad7b 033d b441 dc3c
000003a0: 1a69 3d3d 7838 373e 2206 443e 89e4 b43d
000003b0: f957 aebd 6fc4 4e3e 44ef 8cbd 5e90 a33d
000003c0: 5974 483e 6430 773e bcf2 683e 459c 6b3e
000003d0: 588a 873e fbe8 bd3d 38f6 533e bb85 363e
000003e0: 966a 123e fe73 fd3d cfad 5b3e 72c3 403e
000003f0: b553 79bd ea2b aa3b 1a79 433d d52c 733e
0.19235417 0.18037808 0.23876916 0.15411887 0.28822216 0.041100785 0.09708493 0.07618675
-0.017540945 0.25393027 0.24655768 0.27185664 -0.01015939 0.048266564 0.120078996 0.07065066
0.15047124 -0.0015873793 -0.039124675 0.008575819 -0.07726302 0.21836427 0.13249703 0.23328829
0.09500273 0.140162 0.14358653 -0.107234575 -0.0759802 0.026718432 0.11187478 -0.042927768
-0.08849366 -0.14444733 -0.10364132 0.09048474 -0.13332213 0.012068741 -0.0789851 -0.054397155
0.11183188 -0.14420114 -0.117857434 -0.16093394 -0.18185961 -0.09499451 -0.1440013 -0.12930587
-0.008119391 -0.029492864 -0.008174369 0.06010016 0.075967014 -0.17516142 0.058065113 -0.04815748
-0.057777517 -0.013420015 0.0010857675 -0.044973284 -0.13284643 0.088739984 -0.16167176 -0.032440696
0.10009287 0.15436749 -0.0002507275 -0.05028235 0.05629816 -0.15631531 -0.021287264 0.11719238
0.14752097 -0.10875017 0.09555838 -0.1328939 0.17368652 -0.108468145 0.12258039 -0.1024444
-0.118288785 -0.024116937 -0.15926237 0.034793705 -0.046219785 -0.035388835 -0.08782148 0.052369505
-0.010261392 -0.11520645 0.33109134 0.10352251 0.28722093 0.2698708 0.18299268 0.25445747
0.13576296 0.14994358 0.1768714 0.19390519 0.04410716 0.026343537 0.21450043 0.26463732
0.2462654 0.08259299 0.049076546 0.20455348 0.1945217 0.012029396 -0.06338978 0.24638781
0.019672861 0.19475439 0.059536356 0.24545082 0.17634276 0.05758181 0.1145649 0.23311214
0.13421606 0.26008922 0.148363 0.08216572 0.09901775 0.1372426 0.28656304 0.104934655
0.15894438 0.1390703 0.2811162 0.10280406 0.011812525 0.105939224 0.048759297 -0.06822163
0.21683885 0.16412364 0.12325446 0.14239447 0.19026546 -0.022718573 0.22121221 0.21923867
0.18736137 0.07916492 0.02617557 0.0030229688 0.12434596 -0.05178369 0.1551616 -0.18621312
-0.10239582 -0.010502209 0.05991673 0.086017035 0.10735758 -0.074623525 0.016500281 -0.10170816
0.08163579 0.04809899 -0.031185968 -0.060288485 -0.09662161 -0.15109138 -0.16348828 0.11933236
-0.10582339 0.12395223 -0.17531045 -0.053547885 -0.108704776 0.0043822033 0.16784137 0.11088182
0.034142677 -0.109454334 0.069457844 0.16439825 -0.05047151 0.15314373 0.02236577 0.21417403
0.16964954 -0.016139971 -0.065134786 0.23010048 0.22218361 0.08302279 0.14922452 0.08650253
0.058221724 0.17086528 0.17395005 0.041375034 -0.08131883 -0.07593015 0.0711351 0.18737556
-0.017087288 0.12334244 0.030575864 0.02883144 0.014020637 0.04300725 -0.13595802 0.16340768
-0.120568685 0.17922424 0.2658574 0.12841254 0.28367263 0.19532402 0.27042842 0.069709376
0.046312086 0.2718645 0.19024946 0.00407076 0.07497208 0.06446819 0.078689255 0.044558406
-0.03170586 -0.022108093 0.2255631 0.25509074 0.108777836 0.13620289 0.03210037 0.026886798
0.04624281 0.17892635 0.19142964 0.08832652 -0.08512873 0.20192121 -0.06881574 0.0798652
0.19575633 0.24139553 0.22748846 0.23008831 0.26472735 0.09272953 0.20699394 0.17824452
0.14298472 0.123756394 0.21453021 0.18824556 -0.060870845 0.0051932232 0.047722913 0.23747571

layers.0.bias f4 [64]
00000000: 4040 3ebe 7aa4 083e 17f6 35bd 9c1d 95be
00000010: 1c81 bcbe 5176 a83d 43a2 d6be 76c7 02bf
00000020: 15e1 d6be 4438 5ebe b192 f9bc e6c9 d3be
00000030: 4de1 fabd 57c2 393e ca92 613e e17d abbc
00000040: fc6f 41be 24f3 d23e 102f c6be 55b0 f0be
00000050: d751 e73d c2fd f03d 6b36 bd3d b45a b3be
00000060: 0a12 d2bd e738 32be 9cdb 05bf 6e7a c73d
00000070: 4bc4 49be c367 92be 5e12 71be 7b87 d13e
00000080: ed47 8e3c 55cb ccbc 645f 333e c5b6 0b3e
00000090: ec07 eebe f262 c53e 52b4 203e 1ee8 41bd
000000a0: cf36 f5be 3d12 ddbe cd49 ebbe c5c2 333e
000000b0: 452c 3d3d 633b e6be 87b1 833d 4de1 8d3e
000000c0: 7ea1 f7be b037 a5be 1724 f1be 78d1 cbbe
000000d0: dae7 98be 1d70 04bf abb6 883e 9d5c 0fbe
000000e0: 98ae 0f3e 15f5 323d 7ecc e6bd f7f3 9abe
000000f0: 0ba4 b9bd 50c9 4c3d f3e5 a83e b2ee f43e
-0.18579197 0.13343993 -0.044424143 -0.29124153 -0.36817253 0.08225692 -0.4192067 -0.51085603
-0.419686 -0.21701151 -0.030465456 -0.41364974 -0.12250004 0.18140541 0.22028652 -0.020934047
-0.18890375 0.41201127 -0.3870778 -0.4700953 0.112949066 0.117671505 0.09238895 -0.35030138
-0.10257347 -0.17404519 -0.5228822 0.097401485 -0.19703786 -0.2859479 -0.23542163 0.40923676
0.017368281 -0.0249993 0.17516857 0.1364394 -0.4649042 0.38552052 0.15693787 -0.047340505
-0.47893378 -0.43177977 -0.45954743 0.17554767 0.046184797 -0.44967183 0.06430345 0.27710953
-0.48365396 -0.3226905 -0.47097847 -0.3980825 -0.2986439 -0.5173357 0.26701865 -0.14000173
0.14031446 0.04369076 -0.112694725 -0.30264255 -0.09064492 0.049996674 0.32987937 0.4783836

layers.2.weight f4 [64, 64]
00000000: f862 673c 148e 193d 10f1 cabc c4f2 643d
00000010: 0813 003d b697 90bd eeae 45bd 5e74 8a3d
00000020: 2350 13be 60ed a03d 869e a73d 61f5 dcbd
00000030: 0cae 6abd 0c8a 843d 7699 233c fc43 c8bd
00000040: 40c7 40bd 1616 be3b 97ba 04bd 5c09 7ebd
00000050: 7df6 e53d 1632 993d 0c1c a9bd 6fa0 7dbd
00000060: 7b92 443d 3a0c 8bbd 34a6 02be ccdb 1f3d
00000070: 9707 e33d 4c71 cebd 54e0 cd3c 7d66 b1bc
00000080: bc5b c5bd 2cf3 05bd ae60 8e3d 1cd2 8c3d
00000090: c1cd ac3d 72a5 213d 3c34 96bd 3c41 cabd
000000a0: afcf febd 7d7d 30bd aa32 103d dc96 b83d
000000b0: acba 2f3d bfcb a13d 2bfb 08be be7c bd3d
000000c0: a645 ad3b 9d02 a3bd a480 cdbc 9458 8abd
000000d0: a820 e8bc 7960 f9bd 9077 0b3c 1746 b0bd
000000e0: 194e b4bd 5b57 e33d c083 0f3e fbe8 1f39
000000f0: c058 f9bc 34be 8a3c 2827 bf3d 450d f63d
00000100: d7f0 243d 60ec 133d 6288 c93d 1005 11bd
00000110: d9ea 8cbd 7726 f83c 9307 81bd c404 2ebd
00000120: f350 c5bc dd6e c2bd 8c75 8c3d de7b 983d
00000130: 79bd 143d 2071 303d 445c 983d f8aa c03d
00000140: d017 d8bd 2145 a4bd 5be2 823a 97bb 1abd
00000150: 2033 8bbc 20ed b2bb 0a2d bd3d 1eca d63c
00000160: e051 a4bb 3e76 923d 47bf fb3c 2003 e53b
00000170: d639 92bd 59f1 413d 8c67 35bd 2024 f43c
00000180: 14ac 45bd f640 82bc 80bb 31bd 2826 bcbd
00000190: 15ea 78bd 2f6b df3d 1c30 6d3d 2072 473d
000001a0: b940 ffbd 4fda 01be 8bcf 0cbe 22eb f13d
000001b0: c0f6 f3bb bb92 9f3d 089b 09bd 01d8 a5bd
000001c0: d9a9 da3b 8381 9ebc 1433 b03d c5c0 5a3d
000001d0: 9992 18be 04b0 a3b9 7aac b93d a7a4 babd
000001e0: 45a6 d83d 850c f6bd 1ccb aa3d 8252 503c
000001f0: e048 4d3d b8cc 6b3d a03f c9bd 3ca4 c33d
00000200: d675 383e 60bb 293d fe77 aebd 5668 073e
00000210: 0d53 df3c 09bd 283a ba24 0b3e 2b7d 123e
00000220: 7e1c cf3b 4077 0abe 98f0 393d 3387 083e
00000230: a37d 88bd d843 cfbd 91e8 d7bd 501d 9d3d
00000240: 07f2 fd3d b80b 64be e764 273e cdae 563e
00000250: c96b 203b 73b5 7d3d 2a09 533c c924 243e
00000260: b640 743e 7f3b 3cbc cf6f cd3d 9500 80bd
00000270: 03cc ca3d b347 8d3d 4d28 01be 1854 0bb8
00000280: 7010 0f3d 594b 87bd 94d8 7bbd de7a b3be
00000290: 84a8 b03d 7954 e43d ba32 553d ccff 2cbd
000002a0: f44c e9bd a4f6 d33d d6e3 ca3d 7aa5 d8bd
000002b0: 05cd debd 793d f3bc 868b a63c fd58 26be
000002c0: b675 da3d aaeb f83b 6fc9 ed3d 4eef e63d
000002d0: e65f 213e 6150 0f3e 063c 03be 3973 94bd
000002e0: 91ae 81be eb76 193e 777d e9bd 574f 6f3d
000002f0: bb21 4f3c 1122 c5bd 2fce 94bd b972 94bd
00000300: 711b 82bd a490 853d 8093 a13b e702 8d3d
00000310: 91dd cbbd 7589 6cbc 8d1e dbbd 4817 1e3d
00000320: b076 b3bd 1d55 93bc 80ff 7abd f6a4 1f3d
00000330: aaa3 ab3d a83e acbd 1094 3abd 6cca 53bd
00000340: 581b 343d e6bc d4bd 90de e1bd 0dcd b0bd
00000350: 04b8 6bbd c0f0 ffbd 0e3e e6bd 908c 753d
00000360: e0bb adbb 3057 6fbc ecb0 d0bd a4a8 0d3d
00000370: 321c e63d 4dee a6bd 8cd1 313d 3880 0abd
00000380: e092 00bc 070e 283d d25a ba3d 303e dd3c
00000390: 25b4 01be 7c39 debd b0a6 8ebd 9ca6 493d
000003a0: 5796 d13d 5491 39bd 02f9 9bbd 7fca a1ba
000003b0: 50b7 44bc 35c1 88bd 622e 9dbd 9412 b8bd
000003c0: f586 1d3d d2a6 903d cb10 c5bd b7fb aa3d
000003d0: a418 163d 215e 92bc 782c 293d b0eb 1cbd
000003e0: 87c9 18bd f3e8 5bbd 82b2 b3bd 0054 e839
000003f0: 70bf 903d 7eb0 87bd 0c15 71bd 8041 9a3c
0.014122717 0.037489012 -0.02477315 0.05589558 0.03126815 -0.070601866 -0.04826253 0.067604765
-0.14386038 0.07857776 0.08184533 -0.1078899 -0.05729489 0.06471643 0.009985318 -0.09778592
-0.04706502 0.0058009727 -0.03240451 -0.062020645 0.112286545 0.07480256 -0.08257303 -0.06192058
0.047991257 -0.067894414 -0.12758714 0.039027974 0.11085432 -0.100802034 0.025131382 -0.021655316
-0.096366376 -0.03270261 0.06952034 0.06876013 0.08437682 0.03946442 -0.07334182 -0.09875724
-0.12441956 -0.043088425 0.035204567 0.09013149 0.042902634 0.079001896 -0.13377063 0.09252308
0.0052878438 -0.07959483 -0.025085755 -0.06755176 -0.028335884 -0.12176604 0.008512393 -0.086071186
-0.088039584 0.11100646 0.14015102 0.00015250214 -0.030437827 0.016936399 0.0933364 0.1201425
0.040268745 0.036114097 0.09840466 -0.03540522 -0.06880731 0.030291779 -0.06300273 -0.042485014
-0.024086451 -0.09493802 0.06858358 0.07445501 0.036313508 0.043076634 0.07439473 0.0940761
-0.10551417 -0.08020998 0.0009985672 -0.037776556 -0.016992152 -0.0054603964 0.09237106 0.026219424
-0.005014643 0.07151459 0.030730857 0.006988898 -0.071399376 0.047349308 -0.044288203 0.029802382
-0.04825981 -0.015900116 -0.043391705 -0.09186965 -0.060770113 0.109091155 0.05790721 0.048692822
-0.12463517 -0.12680934 -0.13751046 0.11812426 -0.0074451864 0.077916585 -0.033595115 -0.0809784
0.0066730794 -0.019348865 0.086034924 0.053406496 -0.14899673 -0.00031220925 0.090661004 -0.09113436
0.105785884 -0.12014107 0.08339521 0.012714984 0.050118327 0.057568282 -0.09826589 0.095528096
0.18013701 0.04143846 -0.085189804 0.13223395 0.027261281 0.000643686 0.13588229 0.1430556
0.006320535 -0.13522053 0.045395464 0.13332824 -0.06664588 -0.10120362 -0.105424054 0.076716065
0.12399679 -0.22270095 0.16347085 0.20965119 0.0024478307 0.06194062 0.012880603 0.16029657
0.2385281 -0.011488794 0.100310914 -0.06250111 0.099021934 0.06898441 -0.1261303 -3.32185e-05
0.034927785 -0.06606168 -0.061485842 -0.35054678 0.08625892 0.111489244 0.05205033 -0.042236134
-0.11391631 0.10349777 0.099067375 -0.10578437 -0.10878948 -0.029692398 0.020330202 -0.16244884
0.10666983 0.0075964527 0.11610686 0.112761125 0.15759239 0.13995506 -0.12815866 -0.072485395
-0.25328496 0.1498677 -0.11400884 0.058425274 0.012642319 -0.09625638 -0.07265889 -0.07248444
-0.0635289 0.06521729 0.0049309134 0.06885319 -0.0995437 -0.014437069 -0.106991865 0.03859642
-0.08762872 -0.017984921 -0.06127882 0.03897568 0.08380826 -0.08410388 -0.04555136 -0.051706716
0.04397139 -0.10387592 -0.110287786 -0.0863286 -0.057548538 -0.12497091 -0.11242305 0.059948504
-0.0053019375 -0.014608189 -0.10189995 0.034584656 0.112358466 -0.08150921 0.04341273 -0.033813685
-0.007847518 0.041029003 0.09099354 0.027007192 -0.12666376 -0.10850808 -0.06965387 0.049231157
0.10233753 -0.04530461 -0.07615854 -0.0012343674 -0.012006596 -0.06677476 -0.076748624 -0.089879185
0.038458783 0.070630684 -0.09622344 0.08348792 0.036644593 -0.01786715 0.041302174 -0.038310707
-0.037301566 -0.053688955 -0.08774282 0.00044313073 0.07067764 -0.0662546 -0.058857962 0.018830061

layers.2.bias f4 [64]
00000000: e3f7 59bd 8247 263d 5a74 99be 0716 083c
00000010: fb71 bcbd 5c0d be3c d286 6c3d c81f 95be
00000020: 3611 873d 6702 96bd af43 20bd 4b7b 4fbd
00000030: 2e1d 2bbd 8539 cdbe e2c1 babd 5248 d33d
00000040: 842c 38be fbf0 4d3d 35ef 11be b7af e4bd
00000050: 4043 cc3d 7d75 ff3c c8a9 813d 74a5 b13d
00000060: 0354 b33d 9b99 3c3e ef5b 02be d355 cebe
00000070: 3355 18be ab42 81be 7614 f8bd 2b1a 06be
00000080: 7ddc c0bc d88b 0fbe c08c 783d f8ec 7cbc
00000090: 4681 b0be 383c 653d 1c25 3a3d 0abc e8bd
000000a0: 4ca1 663c e9ee 43be 5014 e13d dc1e 243d
000000b0: 7da0 d33d e339 96bd e548 3c3e fd17 bbbe
000000c0: 676c dabe bec1 babe 94d8 2f3d 1da3 cbbe
000000d0: c078 eabd 112b 403c b7e3 6ebe cbf5 96bd
000000e0: 0a12 aabc cf81 843c fe94 7b3d 60c7 c9be
000000f0: 3c35 24be b47f 86be 9036 043c 5990 bebd
-0.05321492 0.04059554 -0.29971582 0.008306033 -0.092014275 0.02319973 0.057745762 -0.2912581
0.065950796 -0.07324677 -0.039127048 -0.05065469 -0.041775875 -0.40082946 -0.091190115 0.103165284
-0.17985731 0.050278645 -0.14251406 -0.111663274 0.099737644 0.031183952 0.06331211 0.08674136
0.08756258 0.18417971 -0.12730382 -0.40299854 -0.14876251 -0.25246176 -0.121132776 -0.1309592
-0.023542637 -0.1401819 0.060681105 -0.015437357 -0.34473628 0.055965632 0.045445547 -0.113639906
0.014076542 -0.19134106 0.109902024 0.040068492 0.10333345 -0.0733526 0.18387182 -0.3654174
-0.4266083 -0.3647594 0.042931154 -0.39772883 -0.114488125 0.011729018 -0.23329054 -0.073711
-0.020760555 0.016175179 0.061421387 -0.39409924 -0.16035932 -0.26269305 0.008069649 -0.09304876

layers.4.weight f4 [3, 64]
00000000: 2d4e b23d a8fb 0dbd 78de d63d 9acc df3d
00000010: d44b 4d3d f6f2 6e3d 8c75 2c3d 2e04 e73d
00000020: 32da da3d 1b82 6e3e 9552 c03d d03f 2c3b
00000030: 391e 4fbc 7342 243e d405 833d 6b0b 603d
00000040: d705 2dbc ac26 ddbc 34a4 f3b8 e31f 8c3c
00000050: 2fe3 2b3c 9663 2c3d 8396 0b3d 498c a6bd
00000060: cae6 11bd b26c 123d 7607 ac3d 9291 d63d
00000070: 5504 83bd 3a41 2a3e abc3 13bd 46df 9b3d
00000080: 9550 793d eee2 3c3d db42 abbd 46a4 02bc
00000090: a4a0 493e ec7c 74bd e203 5abd a232 ad3d
000000a0: 771b c7bd f173 8c3c 18e8 3a3d e210 60bc
000000b0: 8e44 d83c 85dd 8d3b 42e0 71bc 53fc 323e
000000c0: 127c ca3d 086d 393e 0a3c 933d 06d1 8b3d
000000d0: b841 e7bd 9fad b23b a9ac 4fbc 77b0 733d
000000e0: 129d 3ebd 1382 acbd 1f6a febc 576e 283e
000000f0: 265c 493e 8ad9 213e 00f8 7139 a89e 963c
00000100: 8d3c 333e 7998 fc3c 7e53 7d3b 4a32 cb3d
00000110: 82e8 f03b af14 bb3d f3c3 6dbc ad6b 053d
00000120: d71d e13d 6db6 d03e 3e2c 7f3d 4b21 073c
00000130: 561c 853d 8cdc 123e 2827 323c f032 063d
00000140: 65de 6fbd d52c 813d 1648 a7bd 9130 a43b
00000150: a923 043d 3a8f ce3d 2765 c63d dd8d a63d
00000160: b827 fdbc 65c7 24bd 6b1c dd3d a581 2e3b
00000170: fec4 963c f40e f83d 9f3f a73d 4875 51bd
00000180: eec9 dc3d 9c0f d23c 0cac c8bc 2577 0c3e
00000190: 097e 143e b05c 643c b801 60be d00c e13d
000001a0: fb8a f7bd 7588 d03d d07b 2ebc efa6 253d
000001b0: c4cd e2bb 1939 d2bd 36d2 d63d 2199 553d
000001c0: d8fd 0c3e f5a3 243e 6cdb 023d 614c 5bbc
000001d0: 2d83 e83c d6f4 0a3e 95b7 b2bd 1431 a5bd
000001e0: b68f 753d 76de 95bc 6640 8ebd 02d8 e03d
000001f0: c8e6 553e 0bb2 2a3d 3034 12bc 72c1 a6bd
00000200: 09c9 8cbd b95e bdbd 9897 0b3e 137f 853d
00000210: 62b6 c2bd 782f dbbd bc32 d2be f614 f43d
00000220: 3ebf 683d 4a54 55bd e89f d53c 46e5 6f3d
00000230: 6bf2 78be 7545 223e d4e4 40bd 2d09 dcbd
00000240: 3345 d3bc 7ad2 e73d 9c04 6b3d 6d5a 8abd
00000250: 56d5 adbe a632 b6bd 7c7e d9bd 963a ecbc
00000260: 1c49 103d c358 45be 8373 4e3d c737 273e
00000270: d98e 943d f0a2 5c3e ffb6 db3d ca08 f73d
00000280: 5a1d 5d3d 79ff 623d 5237 cc3b 5d10 4b3d
00000290: 8785 823e 244d 233d 16c2 5dbe b450 923d
000002a0: 8367 87be cef7 ffbc ea73 bd3d f467 f93d
000002b0: e069 343d ab1e 61bd 6d76 89be b113 ef3d
000002c0: 5c5c 8c3e c72d 493e b010 373d 0c4b a23d
000002d0: 4534 fe3d 94b9 913b 61ab 993d 00e7 2c3d
000002e0: 252f 93bd e4d3 aa3d d2f5 ca3c 3ae5 8b3e
000002f0: 7371 b93d b0a1 533e 80ae c2bd e2a1 f93d
0.08706317 -0.034663826 0.10491651 0.109276965 0.050121143 0.058337174 0.04210429 0.11280094
0.10686149 0.23291819 0.09390751 0.0026283152 -0.012641483 0.16040973 0.06397596 0.05469839
-0.010560474 -0.02699598 -0.00011617728 0.017105049 0.0104911765 0.04208716 0.034079086 -0.08132226
-0.03562049 0.03574819 0.083998606 0.10476984 -0.06397311 0.16626444 -0.036075275 0.076109454
0.060867865 0.046114855 -0.08362361 -0.007973736 0.19690186 -0.059689447 -0.05322636 0.08456923
-0.097220354 0.017145129 0.045631498 -0.0136759 0.026399877 0.0043293857 -0.01476294 0.17479067
0.09886946 0.18107998 0.07189186 0.068269774 -0.11291832 0.005452826 -0.012675443 0.059494462
-0.046536513 -0.08423247 -0.031056462 0.16448341 0.19664058 0.15805641 0.00023075938 0.0183862
0.17503567 0.030834423 0.0038654502 0.09921701 0.007351936 0.091348045 -0.01451205 0.03257339
0.109920196 0.4076418 0.062298052 0.008247684 0.06499545 0.14341944 0.010873593 0.03276342
-0.0585617 0.06307379 -0.08168046 0.0050106724 0.03226057 0.10085912 0.09687262 0.08132527
-0.030902728 -0.04022922 0.10796436 0.0026627567 0.01840448 0.12112227 0.08166432 -0.05113724
0.107807025 0.025642209 -0.0244961 0.13717325 0.14501204 0.013938114 -0.21875656 0.10988772
-0.12087055 0.10182277 -0.010649636 0.040442403 -0.006921502 -0.10264797 0.10489313 0.05214799
0.13768709 0.1607817 0.03194754 -0.013384909 0.028382862 0.1356996 -0.08726422 -0.080660015
0.059951507 -0.018294554 -0.06945877 0.109787 0.20888817 0.0416737 -0.008923575 -0.081423655
-0.06874282 -0.092465825 0.13632047 0.06518378 -0.09507443 -0.10702413 -0.41054332 0.119180605
0.056823008 -0.052082337 0.026077226 0.05856826 -0.24311225 0.15846808 -0.047093228 -0.10743938
-0.025789833 0.11319442 0.057377443 -0.067555286 -0.33951825 -0.08896379 -0.10619828 -0.02883653
0.035225973 -0.19272141 0.05040313 0.16329871 0.072538085 0.2154653 0.10728263 0.12062223
0.05398307 0.05541942 0.0062321806 0.049576152 0.25492498 0.03986849 -0.21656069 0.07144299
-0.2644616 -0.031246092 0.092506245 0.121780306 0.044046283 -0.054960888 -0.26848164 0.11673678
0.27414215 0.19646369 0.04469365 0.0792447 0.12412313 0.0044471715 0.07503391 0.042212486
-0.071867265 0.08341196 0.02477542 0.27323323 0.09054842 0.20667148 -0.095059395 0.1218908

layers.4.bias f4 [3]
00000000: 28a4 46be 443c 283e 2193 8dbe
-0.19398558 0.1642924 -0.27651313
