weights/trained_agent_model_BNB-USD.pth (torch, 28304 bytes, 6 tensors)

layers.0.weight f4 [64, 30]
0.28248897 0.32102448 0.2870453 0.39610377 0.4335809 0.44460562 0.36853105 0.27917054
0.4530105 0.4880111 0.18861909 0.40785024 0.5129536 0.40808308 0.2330205 0.3296414
0.23394798 0.38234288 0.45806476 0.34662792 0.17698511 0.48941857 0.28644794 0.28132242
0.23811519 0.42040893 0.22066844 0.25775275 0.26561365 0.2948078 0.46263534 0.14534776
0.36963508 0.4288913 0.17339131 0.26055712 0.13417587 0.35714272 0.4409907 0.16784082
0.37313548 0.4501078 0.1927005 0.31879544 0.21893574 0.34159526 0.30785942 0.43494633
0.401749 0.46342325 0.13886069 0.20778151 0.37117258 0.38236612 0.1472547 0.33704785
0.17382558 0.2922683 0.42546555 0.43956852 0.3028794 0.5529682 0.2772625 0.5316969
0.5095427 0.41851228 0.21756206 0.27304205 0.28474054 0.46387497 0.45063174 0.24544798
0.55821335 0.34155235 0.41060844 0.43474802 0.24542081 0.4571233 0.5246708 0.515232
0.32946193 0.45808917 0.42504105 0.23850945 0.39288393 0.44465435 0.35482046 0.4707144
0.43218386 0.30038175 0.004437615 0.020842157 -0.12966712 0.11500404 0.028338714 -0.11827793
0.05597563 -0.08457687 -0.17135139 0.13632421 0.10007246 -0.12624107 0.0028067983 0.17917918
-0.09331851 -0.13496403 0.12982273 -0.14740694 0.12210185 0.14433816 -0.08520462 0.017156225
0.15542431 -0.1377402 -0.13941278 0.096780464 -0.07200698 -0.05013901 -0.12384425 -0.009928895
0.4534035 0.123386055 0.26535854 0.100915164 0.14316842 0.2681488 0.067169 0.17862777
0.19317997 0.3968253 0.17610297 0.22042544 0.10021845 0.39435038 0.26205072 0.068592094
0.39743373 0.20606422 0.3400644 0.19509582 0.4120601 0.22297238 0.053645354 0.3860943
0.35789165 0.19817153 0.11706724 0.39320844 0.14131574 0.30167106 0.13966228 0.023157377
0.049744997 -0.08453951 0.07683718 -0.07612298 0.09303171 -0.08364985 0.19028634 0.018362157
0.12599877 -0.04036832 -0.09645298 -0.02185286 0.11190786 0.06608935 0.11113678 -0.107156664
-0.060807794 -0.006479557 -0.00350991 0.17568614 0.03364008 0.21170853 0.12552646 0.21383333
0.004086877 -0.04354954 -0.079717346 0.22874238 0.31332538 0.2582128 0.4905378 0.3025381
0.39864287 0.3866659 0.5102264 0.3998363 0.2806489 0.4260524 0.5654826 0.28585216
0.57357913 0.24342163 0.27955505 0.45804703 0.2571625 0.33054256 0.4893423 0.50427794
0.48964316 0.5440035 0.42506805 0.5702414 0.55394465 0.4549359 0.4942054 0.5478736
0.48994875 0.30714542 0.10896243 0.14001001 0.20540956 0.035549607 0.1097436 0.2674896
0.22539763 0.19314383 0.10538066 0.33100355 0.11686971 0.28740227 0.10710477 0.29664934
0.059467252 0.026500361 0.16225004 0.27694046 0.11498688 0.34065682 0.22955336 0.28862047
0.0821611 0.18413374 0.31985506 0.3163728 -0.008326127 0.2158291 0.04885332 0.046207327
0.11576476 -0.19840237 -0.08229424 0.017400328 -0.15363844 0.049570516 -0.021810174 -0.18163647
-0.0983384 0.03380375 0.09191581 0.05527419 0.14860377 0.06794748 0.08014011 -0.11377347
00000000: 65a2 903e 525d a43e 9af7 923e 1dce ca3e
00000010: 51fe dd3e 59a3 e33e 1ab0 bc3e 71ef 8e3e
00000020: fef0 e73e 97dc f93e 5d25 413e bfd1 d03e
00000030: ed50 033f 44f0 d03e ed9c 6e3e c2c6 a83e
00000040: 0f90 6f3e 72c2 c33e 7787 ea3e 3779 b13e
00000050: 963b 353e 1295 fa3e 4ea9 923e 7e09 903e
00000060: 78d4 733e d73f d73e e8f6 613e 2bf8 833e
00000070: 83fe 873e 0cf1 963e 8ade ec3e 0bd6 143e
00000080: cf40 bd3e a497 db3e 7e8d 313e be67 853e
00000090: 6665 093e 69db b63e 88c9 e13e 77de 2b3e
000000a0: 9d0b bf3e 8874 e63e 4853 453e 2839 a33e
000000b0: b130 603e 93e5 ae3e c09f 9d3e 49b1 de3e
000000c0: 0cb2 cd3e d045 ed3e 7f31 0e3e adc4 543e
000000d0: 550a be3e 7ec5 c33e f0c9 163e 8991 ac3e
000000e0: 55ff 313e 31a4 953e 9fd6 d93e 200f e13e
000000f0: 0213 9b3e 538f 0d3f 5af5 8d3e 4a1d 083f
00000100: 6471 023f 3e47 d63e 97c8 5e3e 2bcc 8b3e
00000110: 83c9 913e 0581 ed3e 34b9 e63e b756 7b3e
00000120: 12e7 0e3f f3df ae3e 453b d23e 4b97 de3e
00000130: 984f 7b3e 110c ea3e d350 063f 3fe6 033f
00000140: 3caf a83e aa8a ea3e fb9e d93e d23b 743e
00000150: 1528 c93e bca9 e33e 07ab b53e 7a01 f13e
00000160: 3447 dd3e a3cb 993e 6a69 913b 2cbd aa3c
00000170: 75c7 04be 3d87 eb3d 9726 e83c b33b f2bd
00000180: b446 653d a336 adbd bd76 2fbe 9398 0b3e
00000190: caf2 cc3d 5745 01be 43f2 373b bf7a 373e
000001a0: c61d bfbd 0334 0abe 40f0 043e d8f1 16be
000001b0: 8910 fa3d 62cd 133e c37f aebd 368b 8c3c
000001c0: 8d27 1f3e c40b 0dbe 39c2 0ebe d634 c63d
000001d0: 6578 93bd 905e 4dbd 0ea2 fdbd ceac 22bc
000001e0: 8124 e83e d4b1 fc3d 13dd 873e 9cac ce3d
000001f0: be9a 123e cd4a 893e e78f 893d 33ea 363e
00000200: f8d0 453e b02c cb3e 5654 343e 35b7 613e
00000210: 553f cd3d 4be8 c93e 832b 863e 037a 8c3d
00000220: 6f7c cb3e 8002 533e ec1c ae3e 33c7 473e
00000230: 8bf9 d23e df52 643e 3bbb 5b3d 27ae c53e
00000240: 933d b73e 7aed 4a3e f3c0 ef3d 9e52 c93e
00000250: 13b5 103e a174 9a3e a103 0f3e 8ab4 bd3c
00000260: 69c1 4b3d 0d23 adbd d05c 9d3d 5de6 9bbd
00000270: 6987 be3d 9d50 abbd 6cda 423e 3c6c 963c
00000280: d205 013e 4059 25bd 2489 c5bd c504 b3bc
00000290: f32f e53d da59 873d ae9b e33d f474 dbbd
000002a0: 9811 79bd 7752 d4bb 8506 66bb 11e7 333e
000002b0: 2eca 093d 1fca 583e 028a 003e 20f7 5a3e
000002c0: 36eb 853b 0161 32bd d942 a3bd 713b 6a3e
000002d0: 2f6c a03e 7834 843e c527 fb3e 46e6 9a3e
000002e0: eb1a cc3e 13f9 c53e 339e 023f 58b7 cc3e
000002f0: 36b1 8f3e 8a23 da3e 78c3 103f 375b 923e
00000300: 15d6 123f 8543 793e d721 8f3e 2485 ea3e
00000310: ceaa 833e e03c a93e 138b fa3e 5c18 013f
00000320: 82b2 fa3e d043 0b3f 85a2 d93e 57fb 113f
00000330: 51cf 0d3f 5ced e83e 7d08 fd3e 7241 0c3f
00000340: 90da fa3e 2a42 9d3e b227 df3d c95e 0f3e
00000350: e256 523e 779c 113d 41c1 e03d 66f4 883e
00000360: a3ce 663e 7fc7 453e d1d1 d73d 4c79 a93e
00000370: 6359 ef3d 6426 933e bf59 db3d 6ce2 973e
00000380: ef93 733d 4917 d93c e024 263e 24cb 8d3e
00000390: 3e7e eb3d 926a ae3e 0910 6b3e 10c6 933e
000003a0: 1444 a83d 8e8d 3c3e 0bc4 a33e 9efb a13e
000003b0: 4f6a 08bc 4e02 5d3e 6b1a 483d e543 3d3d
000003c0: 1316 ed3d fe29 4bbe e289 a8bd 228b 8e3c
000003d0: 6553 1dbe 740a 4b3d 40ab b2bc e9fe 39be
000003e0: a565 c9bd cd75 0a3d 5b3e bc3d 3067 623d
000003f0: 962b 183e 0c28 8b3d 7f20 a43d 1102 e9bd

layers.0.bias f4 [64]
0.115660734 0.05547165 -0.061443403 -0.04702949 -0.025834408 0.3085419 0.24447714 -0.11069194
-0.17188151 -0.22324708 0.16948047 0.089567 -0.0031418419 -0.03242092 0.21195778 0.10518947
0.12835756 0.15622687 -0.087457135 0.045608126 -0.050815165 -0.0030152518 0.12555519 -0.10173299
-0.13090278 -0.060009472 -0.13043667 -0.013881072 0.20186217 -0.07334446 0.05382745 -0.14153808
-0.017843243 -0.046117492 0.088210694 -0.053516254 -0.013240271 -0.07899353 -0.0220966 0.16657923
-0.0020052947 0.13948712 0.078471765 0.1458692 -0.06335454 0.21383724 -0.034968127 -0.1014279
-0.0034999163 -0.087217465 0.019520374 -0.19279867 0.08866581 -0.052165467 0.18155992 -0.031623904
0.45098475 -0.066828504 0.3436116 0.25859284 0.13952436 0.055502847 -0.057558555 -0.12065144
00000000: 89df ec3d 3e36 633d 14ac 7bbd ffa1 40bd
00000010: aea2 d3bc 34f9 9d3e 3758 7a3e 75b2 e2bd
00000020: b501 30be e29a 64be 4a8c 2d3e e76e b73d
00000030: 5ce7 4dbb cccb 04bd 760b 593e 946d d73d
00000040: 2a70 033e f0f9 1f3e ba1c b3bd 96cf 3a3d
00000050: 9023 50bd 889b 45bb 8a91 003e 6359 d0bd
00000060: 610b 06be 7ecc 75bd 3191 05be 706d 63bc
00000070: f5b4 4e3e 9f35 96bd 2c7a 5c3d 5cef 10be
00000080: fe2b 92bc b2e5 3cbd cfa7 b43d dc33 5bbd
00000090: b9ed 58bc 5cc7 a1bd ee03 b5bc bf93 2a3e
000000a0: 436b 03bb b6d5 0e3e ceb5 a03d bc5e 153e
000000b0: 06c0 81bd 26f8 5a3e bd3a 0fbd 6eb9 cfbd
000000c0: da5e 65bb 129f b2bd 31e9 9f3c 046d 45be
000000d0: 6c96 b53d 75ab 55bd d8ea 393e 1188 01bd
000000e0: 79e7 e63e 62dd 88bd dced af3e 4866 843e
000000f0: 79df 0e3e f456 633d 85c2 6bbd 1a18 f7bd

layers.2.weight f4 [64, 64]
0.3773829 0.35758004 0.33165032 -0.045177132 0.25276428 0.074837945 0.26971593 0.21860898
-0.10095041 0.09753522 0.3636469 0.36250734 -0.0945887 0.1258885 0.41397288 0.28952566
0.45291242 0.17450634 -0.032762557 0.27352822 -0.030312052 -0.10078001 0.14222883 0.3153947
0.2877261 0.37601826 0.26516083 0.26176485 0.246397 0.14924207 0.36531192 0.29993445
-0.059844688 0.21932095 -0.16391712 0.16337714 0.050403867 -0.012531647 0.09943983 0.07360272
0.4271225 0.053170953 0.3164556 0.06370706 -0.104783125 -0.043684196 0.42601967 -0.16287987
0.27393115 0.24244368 0.31151673 0.04050942 0.10326927 0.0058817416 0.23750667 0.2540335
0.20231697 0.35777187 0.3403842 0.18534158 0.119028226 0.12090714 0.31131235 0.12283096
-0.07925441 0.009106644 -0.007174193 0.11655101 -0.0018568933 -0.052802324 0.10065862 0.09157966
-0.09784408 0.095234886 -0.0028756696 -0.03999727 0.03659524 0.023749396 -0.081907235 -0.035940066
-0.08249777 0.007416904 -0.10252997 -0.048904542 -0.061830536 -0.112239406 -0.09994818 -0.11496027
0.07124905 0.010321221 -0.12767443 -0.11993378 0.057613403 0.12451841 -0.098684184 0.11495614
0.096009076 -0.11982966 -0.11697745 0.017883867 0.09444082 -0.06423813 -0.045015067 0.08955614
0.059049264 0.07373893 0.09542262 -0.024096638 0.05364202 -0.07821922 -0.12339195 0.10202202
0.024469359 -0.0057134163 0.09713089 -0.120728165 0.100311145 -0.06973846 -0.0045808693 -0.12761137
-0.022518098 0.031674635 -0.084552735 -0.09806393 -0.06490682 -0.026941895 -0.12767059 0.020507634
-0.032438748 0.060471512 -0.10163539 0.0018320084 -0.13806699 -0.09382241 -0.056778748 -0.02718953
0.0128354 0.015862374 0.022082359 0.05107041 0.088621676 0.072295286 -0.048817586 -0.08820868
0.032815725 0.01600096 -0.008411132 -0.0041076113 0.0627621 0.10468872 0.10767336 -0.080065764
-0.071775906 -0.044590317 0.09097872 0.04561102 -0.09073714 -0.045673467 0.034671687 -0.09119999
0.08688353 -0.06356878 0.027962117 -0.09868021 -0.10606143 -0.046768382 0.07729883 0.09208018
0.08462959 -0.017112702 0.0080843335 -0.1253949 0.091386974 -0.115750834 -0.007646413 0.10447467
-0.12317923 0.060279507 0.032281548 0.03793721 0.031288117 -0.07411777 -0.0032615517 -0.024746373
0.105172254 -0.05334514 0.05720131 -0.102338254 -0.06982513 0.066816464 0.05056984 0.07543843
0.10139483 -0.07921159 -0.09282808 -0.09940024 -0.10118759 -0.09978619 -0.07653998 0.058800697
0.104439944 -0.042566165 -0.06211169 0.06790446 -0.048141003 0.10273905 0.015989795 -0.012932196
-0.02679652 0.08366969 0.060680002 -0.038819224 0.11285746 0.06354402 -0.02198647 0.013354331
0.06970787 0.04021047 -0.03397903 -0.050964892 -0.110252276 -0.026900128 0.04491009 -0.040781766
-0.030047387 0.013020262 -0.052920282 -0.10083181 -0.03846383 0.08689946 -0.10556623 0.030539066
-0.065974385 -0.046626985 -0.041929245 -0.10327266 0.1016482 -0.08083448 -0.010140851 -0.09799841
0.045670018 -0.043309778 0.08609827 0.0869991 0.06583133 0.09240928 0.1163214 -0.069778025
-0.004623607 -0.050222427 -0.08156179 -0.0591767 0.051872283 0.03485337 0.03748688 -0.098049924
00000000: 5538 c13e bb14 b73e 12ce a93e a80b 39bd
00000010: 526a 813e a344 993d 3518 8a3e 08db 5f3e
00000020: 17bf cebd 8cc0 c73d ed2f ba3e 909a b93e
00000030: b8b7 c1bd eae8 003e 41f4 d33e b53c 943e
00000040: 23e4 e73e cab1 323e 0832 06bd e40b 8c3e
00000050: fb50 f8bc c065 cebd 6fa4 113e 6a7b a13e
00000060: d650 933e 7785 c03e 29c3 873e 0b06 863e
00000070: 7f4f 7c3e ead2 183e 2a0a bb3e 0291 993e
00000080: b41f 75bd ac95 603e e4d9 27be 564c 273e
00000090: 4974 4e3d 8a51 4dbc 1ca7 cb3d 06bd 963d
000000a0: cdaf da3e c9c9 593d 7806 a23e d978 823d
000000b0: 8998 d6bd 33ee 32bd 401f da3e fbc9 26be
000000c0: b440 8c3e 2843 783e 1f7f 9f3e 35ed 253d
000000d0: d77e d33d a0bb c03b f334 733e ae10 823e
000000e0: 2e2c 4f3e e02d b73e d646 ae3e 2fca 3d3e
000000f0: 12c5 f33d 2a9e f73d 5564 9f3e cc8e fb3d
00000100: 2350 a2bd 0934 153c 7e15 ebbb 4cb2 ee3d
00000110: 0063 f3ba 4047 58bd 1b26 ce3d 1e8e bb3d
00000120: 7a62 c8bd 820a c33d bb75 3cbb 2dd4 23bd
00000130: e4e4 153d 188e c23c fbbe a7bd e435 13bd
00000140: 97f4 a8bd 8009 f33b 3cfb d1bd 2150 48bd
00000150: 0442 7dbd c6dd e5bd a2b1 ccbd 4a70 ebbd
00000160: 06eb 913d 571a 293c 16bd 02be d79f f5bd
00000170: 08fc 6b3d 8203 ff3d ef1a cabd 206e eb3d
00000180: 68a0 c43d 4169 f5bd e091 efbd 3081 923c
00000190: 306a c13d 488f 83bd b861 38bd 3669 b73d
000001a0: a4dd 713d 7004 973d ef6c c33d 5066 c5bc
000001b0: bcb7 5b3d 6631 a0bd ebb4 fcbd ecf0 d03d
000001c0: f773 c83c 9c37 bbbb 8fec c63d 5440 f7bd
000001d0: ee6f cd3d 0ad3 8ebd 1e1b 96bb 8eac 02be
000001e0: e077 b8bc 43bd 013d fc29 adbd bed5 c8bd
000001f0: deed 84bd 40b5 dcbc 14bc 02be a0ff a73c
00000200: 7ede 04bd fab0 773d 3726 d0bd 0020 f03a
00000210: 6f61 0dbe f725 c0bd d590 68bd 94bc debc
00000220: 924b 523c cff1 813c 10e6 b43c 352f 513d
00000230: 487f b53d 8d0f 943d f3f4 47bd c1a6 b4bd
00000240: c869 063d 7214 833c d8ce 09bc 2499 86bb
00000250: 6a89 803d 0a67 d63d da83 dc3d 85f9 a3bd
00000260: 3fff 92bd 56a4 36bd 0d53 ba3d 9fd2 3a3d
00000270: 65d4 b9bd 1a14 3bbd e603 0e3d 0fc7 babd
00000280: feef b13d 5930 82bd cf10 e53c da18 cabd
00000290: bc36 d9bd 3490 3fbd d94e 9e3d 8994 bc3d
000002a0: 4752 ad3d f02f 8cbc 2774 043c 8567 00be
000002b0: 1829 bb3d c60e edbd c38e fabb d1f6 d53d
000002c0: 6445 fcbd a5e7 763d a839 043d 0c64 1b3d
000002d0: f827 003d 0fcb 97bd c2bf 55bb e8b8 cabc
000002e0: 8d64 d73d 6f80 5abd ec4b 6a3d b896 d1bd
000002f0: 7a00 8fbd 12d7 883d 5222 4f3d 777f 9a3d
00000300: 18a8 cf3d b039 a2bd a61c bebd 5a92 cbbd
00000310: 703b cfbd b45c ccbd fec0 9cbd 00d9 703d
00000320: 9ce4 d53d dc59 2ebd d468 7ebd 7e11 8b3d
00000330: 802f 45bd da68 d23d 08fd 823c 90e1 53bc
00000340: 6084 dbbc 045b ab3d 988b 783d e800 1fbd
00000350: d021 e73d 5e23 823d f81c b4bc 20cc 5a3c
00000360: 00c3 8e3d bcb3 243d 982d 0bbd 90c0 50bd
00000370: f2cb e1bd a85d dcbc a4f3 373d c80a 27bd
00000380: f025 f6bc f052 553c f0c2 58bd e880 cebd
00000390: 408c 1dbd 58f8 b13d 1c33 d8bd 102d fa3c
000003a0: 941d 87bd f0fb 3ebd 00be 2bbd 9e80 d3bd
000003b0: ee2c d03d 8c8c a5bd d025 26bc 64b3 c8bd
000003c0: 7c10 3b3d 9865 31bd 4a54 b03d 962c b23d
000003d0: 94d2 863d 1441 bd3d ea39 ee3d c8e7 8ebd
000003e0: a081 97bb 08b6 4dbd de09 a7bd 4463 72bd
000003f0: 0878 543d 68c2 0e3d d88b 193d 66ce c8bd

layers.2.bias f4 [64]
0.29054525 0.0042586336 -0.08076485 -0.048374057 -0.059090488 0.22585373 0.09927793 0.332669
0.2050752 0.22188015 -0.13784593 -0.109281085 0.0865843 0.106228456 0.12879112 0.10381521
0.16910142 0.058480643 -0.13031386 0.26469806 0.2804244 -0.12903216 0.13923799 0.12654257
0.23614003 -0.10179365 0.010583416 0.03445137 -0.12036756 0.023680663 0.022317186 0.26942027
0.24208805 0.3625615 0.01971491 0.10869516 -0.117827445 0.2741871 -0.10252581 0.043382373
-0.06225899 -0.01583971 0.06935238 -0.06849717 0.3374214 0.20488992 0.039751705 -0.03796243
-0.05210171 0.042070787 -0.027330332 0.16944636 0.047453556 0.21931277 0.15466812 0.03367482
-0.11639164 0.06875228 0.044341143 0.013315043 0.18669842 -0.13535097 0.56660956 0.06264284
00000000: 59c2 943e 028c 8b3b 0b68 a5bd e023 46bd
00000010: de08 72bd 3346 673e 3a52 cb3d 9753 aa3e
00000020: 3cff 513e 8d34 633e 7c27 0dbe c3ce dfbd
00000030: 1c53 b13d 4e8e d93d d2e1 033e 129d d43d
00000040: ec28 2d3e 6689 6f3d ff70 05be 8186 873e
00000050: c993 8f3e 0221 04be 6794 0e3e 6094 013e
00000060: b1ce 713e 3079 d0bd 1066 2d3c e11c 0d3d
00000070: 4483 f6bd f3fd c13c 88d2 b63c 74f1 893e
00000080: eee5 773e a9a1 b93e 2a81 a13c 919b de3d
00000090: 844f f1bd 4062 8c3e 0df9 d1bd b7b1 313d
000000a0: 4803 7fbd 48c2 81bc 9f08 8e3d 3f48 8cbd
000000b0: 7fc2 ac3e aace 513e afd2 223d 7e7e 1bbd
000000c0: 9a68 55bd 6b52 2c3d dce3 dfbc 5983 2d3e
000000d0: a95e 423d 8793 603e 5261 1e3e 9cee 093d
000000e0: bd5e eebd ffcd 8c3d 0f9f 353d 5727 5a3c
000000f0: df2d 3f3e 7299 0abe 530d 113f e44a 803d

layers.4.weight f4 [3, 64]
0.38318932 -0.067017525 0.0031887076 -0.08384773 -0.0013662815 0.3553987 -0.079155505 0.20965093
0.44083068 0.37605342 -0.06437462 -0.05747345 0.3143583 -0.001181975 0.2531216 0.05180098
0.22717771 0.08569512 -0.054667417 0.24182194 0.22321774 -0.087195694 0.21875684 0.24079467
0.3210944 0.066228904 -0.037756547 0.08032873 0.0986287 0.11099983 -0.047761887 0.2199046
0.4637899 0.28448835 -0.0998322 -0.002330929 0.11278275 0.3425931 0.05414658 0.3960737
0.11920029 0.08847441 -0.084829405 -0.13481957 0.40961137 0.24077003 0.029677369 -0.021099657
0.0696643 0.006523734 0.031476498 0.43647894 0.11100828 0.27662197 0.20617807 0.008814722
0.100705594 -0.04738962 0.044067036 0.09009093 0.25754625 -0.014193391 0.37210122 0.12059015
0.33276215 -0.1012217 -0.11742869 0.043475956 -0.008795722 0.27897415 0.0932641 0.3643833
0.4622581 0.32583302 -0.07590254 0.0042423513 0.29438525 0.015271071 0.27511123 0.057167307
0.36867034 0.04918672 -0.04887867 0.3353113 0.31377524 -0.009727946 0.22557306 0.4269186
0.49550986 -0.0944819 -0.036111236 0.02080661 -0.075144604 0.08742048 0.11678372 0.50987834
0.41911232 0.40533456 0.0930505 0.01790366 0.027910199 0.3770206 -0.042652663 0.23219389
0.059091747 -0.1080962 -0.007570151 0.009377208 0.36296228 0.26475284 -0.04533569 -0.021513524
-0.03690041 0.03884092 0.0032550136 0.24751854 0.07720205 0.37591282 0.36280876 0.09946927
-0.006559287 -0.10518866 -0.098475285 0.10678181 0.3618546 -0.112209134 0.4535477 0.05755557
0.124477014 0.044677883 0.049920447 -0.072232515 0.0024077564 0.18092653 -0.02900879 0.10946608
0.06327194 0.09957549 0.074850924 0.060697645 0.28562903 0.120896876 0.14171293 -0.10017939
0.13742062 -0.07315533 -0.08831712 0.23832677 0.23167902 0.12386277 0.17324235 0.078866355
0.217572 0.018745841 -0.10324235 -0.02085869 0.012820676 0.10607539 0.101464435 0.2788759
0.25735518 0.110862374 0.05984952 0.07488517 0.06292996 0.25367463 0.012059635 0.273558
0.091000855 0.018911472 0.08791272 -0.04163606 0.12394556 0.15370752 -0.004359469 -0.054387413
-0.08210332 0.05704608 0.049938455 0.31692052 -0.02655203 0.19836879 0.12379106 -0.06378883
0.1107143 0.019386366 -0.004271542 -0.04092775 0.18250258 0.016523596 0.088883094 0.0069478154
00000000: 6431 c43e 7c40 89bd a3f9 503b 5cb8 abbd
00000010: cd14 b3ba d2f6 b53e 481c a2bd bcae 563e
00000020: 8fb4 e13e 138a c03e d7d6 83bd 4869 6bbd
00000030: 92f3 a03e 80ec 9aba 2899 813e 442d 543d
00000040: 46a1 683e ec80 af3d f1ea 5fbd 2ca0 773e
00000050: 3193 643e a893 b2bd cb01 603e e192 763e
00000060: 7c66 a43e 05a3 873d 9ca6 1abd 6483 a43d
00000070: d8fd c93d e153 e33d f8a1 43bd ac2e 613e
00000080: df75 ed3e 75a8 913e d374 ccbd 80c2 18bb
00000090: a4fa e63d 5d68 af3e cec8 5d3d 2cca ca3e
000000a0: 481f f43d 1232 b53d 0abb adbd 240e 0abe
000000b0: 95b8 d13e 6b8c 763e f41d f33c 30d9 acbc
000000c0: 28ac 8e3d 0cc5 d53b 80ed 003d 2b7a df3e
000000d0: 4f58 e33d 65a1 8d3e 5820 533e a06b 103c
000000e0: bc3e ce3d 9e1b 42bd a37f 343d 9881 b83d
000000f0: 1add 833e 668b 68bc 0d84 be3e f8f7 f63d
00000100: cd5f aa3e 534d cfbd 747e f0bd d813 323d
00000110: ef1b 10bc b3d5 8e3e 4001 bf3d 7390 ba3e
00000120: 18ad ec3e 96d3 a63e ca72 9bbd 6c03 8b3b
00000130: aab9 963e 8433 7a3c 61db 8c3e 4428 6a3d
00000140: 5cc2 bc3e 0478 493d 0035 48bd ecad ab3e
00000150: 26a7 a03e f661 1fbc a0fc 663e 1395 da3e
00000160: 78b3 fd3e ba7f c1bd 60e9 13bd a072 aa3c
00000170: 6ae5 99bd 8209 b33d 4e2c ef3d 6387 023f
00000180: e495 d63e 0388 cf3e 4391 be3d b2aa 923c
00000190: eea3 e43c d808 c13e 8fb4 2ebd 3cc4 6d3e
000001a0: 300a 723d 8a61 ddbd 070f f8bb dca2 193c
000001b0: 31d6 b93e af8d 873e ebb1 39bd 213d b0bc
000001c0: e224 17bd a817 1f3d 1152 553b 8075 7d3e
000001d0: 1c1c 9e3d a577 c03e 12c2 b93e 8bb6 cb3d
000001e0: 4aef d6bb 276d d7bd 69ad c9bd 6cb0 da3d
000001f0: 0245 b93e e7cd e5bd 6737 e83e 64bf 6b3d
00000200: ceed fe3d 2800 373d 6279 4c3d a4ee 93bd
00000210: 73cb 1d3b ce44 393e d8a3 edbc c12f e03d
00000220: b894 813d 3cee cb3d 714b 993d 189e 783d
00000230: f83d 923e c898 f73d 321d 113e da2a cdbd
00000240: feb7 0c3e 76d2 95bd 9bdf b4bd ef0b 743e
00000250: 443d 6d3e c4ab fd3d 7166 313e af84 a13d
00000260: 32cb 5e3e e190 993c ba70 d3bd d8df aabc
00000270: d00d 523c 0e3e d93d 96cc cf3d d2c8 8e3e
00000280: 0fc4 833e d00b e33d c524 753d 655d 993d
00000290: 6ce1 803d a4e1 813e c695 453c cb0f 8c3e
000002a0: a85e ba3d 3bec 9a3c 960b b43d 938a 2abd
000002b0: 2bd7 fd3d 8165 1d3e e0d9 8ebb 56c5 5ebd
000002c0: c925 a8bd 26a9 693d 448c 4c3d 6843 a23e
000002d0: a583 d9bc 3021 4b3e 2b86 fd3d b8a3 82bd
000002e0: 2ebe e23d 28d0 9e3c 4bf8 8bbb dba3 27bd
000002f0: f5e1 3a3e 7e5c 873c 5708 b63d 80aa e33b

layers.4.bias f4 [3]
0.5050695 0.3794384 0.29596022
00000000: 3c4c 013f c045 c23e 1988 973e
